Homework2/new ex2/models/cnn_V_a_alpha=0.3.tflite (tflite, 109760 bytes, 8 tensors)

Output-Layer/bias f4 [8]
000000 84 d7 10 3d 39 5c 97 3c 6a 72 4a 3c e7 72 48 bd
       0.03536178 0.018476592 0.01235638 -0.048937704
000010 72 eb 1c 3a c6 b3 88 3c 27 87 ae bc e1 be 47 bc
       0.0005986012 0.016687285 -0.02130468 -0.012191505

sequential_25/Btch_Norm-1/FusedBatchNormV3 f4 [38]
000000 6c b6 66 3e bd a0 62 3e a3 e8 3b 3d 11 07 06 be
       0.22530526 0.2213163 0.045876157 -0.13088633
000010 69 f2 25 3e 37 fd 43 3d f4 bf 14 3e 62 d5 2f be
       0.16205753 0.047848906 0.1452635 -0.17171243
000020 c6 12 2c 3d e3 db 4f 3e 34 48 02 3d a0 2c 12 be
       0.04201009 0.20298724 0.03180714 -0.14274836
000030 08 b3 65 3e 94 3c 36 be a2 3e 81 be 6e d3 09 be
       0.22431576 -0.17796546 -0.25243098 -0.1345956
000040 87 f0 0b be 34 6b 2c 3e 02 d6 2c be f5 79 45 3e
       -0.13665973 0.1683777 -0.16878513 0.19284804
000050 d1 36 1c 3d c0 7f f4 bc 00 de a5 bd 97 13 24 be
       0.038138214 -0.029846072 -0.08098984 -0.16023098
000060 ba 8b b3 bd da 56 0e bd 4a 52 0a 3e fe 1f ce bd
       -0.08766885 -0.034750797 0.13507953 -0.10064696
000070 9a 6c 1a 3e be 6c 94 bb 3b 27 34 3e a5 84 b0 bd
       0.1508049 -0.0045295646 0.1759309 -0.0861905
000080 08 30 c8 bd f1 61 58 3e 2a d7 f1 bd 96 21 15 3e
       -0.09774786 0.21131112 -0.118086174 0.14563593
000090 89 e0 42 3e 9b eb c1 bd
       0.19030966 -0.09468766

sequential_25/Btch_Norm-2/FusedBatchNormV3 f4 [38]
000000 2b 13 1f 3f 4f c7 12 3f c8 7b e0 3e 80 42 9c 3e
       0.62138623 0.5733537 0.43844438 0.30519485
000010 2a ad 56 3f 77 cf cc be c9 f5 1d bf a3 5e 5e bf
       0.8385798 -0.40002033 -0.61703163 -0.86863154
000020 c6 e4 85 be 94 7c 43 3f af 8d 48 3f 0a e7 bf bd
       -0.26151103 0.76361966 0.7834119 -0.09370239
000030 5d 37 c7 3e 1f 72 1c bd 6e 40 7f 3f dc 05 be bb
       0.38909426 -0.03819477 0.99707687 -0.0057990383
000040 70 a0 c8 3e b7 ca 7a bf 54 c1 93 3e a4 d1 c9 bc
       0.39184904 -0.9796557 0.28858435 -0.024636097
000050 cb 64 f9 be fe 18 1e 3e 59 52 9d 3d 31 31 81 3e
       -0.4870971 0.15439221 0.07681722 0.25232843
000060 9d 1b fe 3e 7f 91 67 be 80 ad 84 3e fb 17 cd 3e
       0.49630442 -0.22614096 0.2591362 0.40057358
000070 e8 86 2d 3d ed 47 db be b2 b3 75 3e b7 ec 27 be
       0.042364985 -0.42828313 0.2399433 -0.16398893
000080 0a a2 bb 3e 71 cd 84 be 91 00 31 3e af de bd 3e
       0.36647063 -0.2593799 0.17285372 0.37083957
000090 d0 0e aa bb 31 ce d4 3e
       -0.005189754 0.41563562

sequential_25/Btch_Norm-3/FusedBatchNormV3 f4 [38]
000000 bc d1 37 3e 8b 8e 3d bd 28 3b 4d 3f 40 6a bd be
       0.17951101 -0.046278518 0.8016839 -0.36995125
000010 9f f4 9a bf c7 70 62 bf c6 80 cc be 26 25 a3 bf
       -1.2105902 -0.88453335 -0.39941996 -1.2745712
000020 65 ea c3 bf ce 94 e1 bf 41 82 7a be f6 17 5d bf
       -1.5305907 -1.7623537 -0.2446375 -0.86364686
000030 8c c8 e4 bc a4 9c ac bf 86 d0 d6 3e 7c 25 0b 3f
       -0.02792766 -1.3485303 0.41955966 0.5435407
000040 12 68 34 bf db d4 8a bf d7 e6 3c be d1 6b b7 3e
       -0.704713 -1.0846208 -0.18447433 0.35824445
000050 46 de 60 3d bc 4f 78 bf 68 79 98 bf 17 76 a3 bf
       0.054899476 -0.96996665 -1.191205 -1.2770413
000060 be 53 af bf 36 df a2 bf 00 30 9a 3e 4b 23 c1 bf
       -1.3697431 -1.2724369 0.30114746 -1.5088896
000070 25 0c 7f 3d 64 7f 69 3f b0 f4 89 bf 28 c5 76 be
       0.06226744 0.9121001 -1.0777798 -0.24098647
000080 21 bf b0 bd d6 ef 76 bf 78 ae c1 bf b0 6f 4a 3f
       -0.08630205 -0.9645971 -1.5131369 0.7907667
000090 c7 2e e2 bf ff 6a b6 3e
       -1.7670525 0.35628507

sequential_25/Output-Layer/MatMul f4 [8, 38]
000000 ce ae 98 3e e6 ca 75 3d 8f 89 3a 3e 52 99 82 be
       0.29820865 0.060007952 0.18216537 -0.255076
000010 29 a9 a9 3b 37 ba e6 bd a8 46 d2 3d 48 70 0f be
       0.005177636 -0.112659864 0.10267383 -0.14007676
000020 05 f1 cb bc d9 0d 46 be 09 fe 98 be 36 8f ae be
       -0.0248952 -0.1934122 -0.29881313 -0.34093636
000030 53 31 1b 3d ee 66 a8 be 63 89 47 3e 51 3a d7 3e
       0.037888836 -0.3289103 0.19486003 0.4203668
000040 6d b0 d0 bd 00 8b d3 bd 3a e8 0c 3e 99 bd e1 bd
       -0.101899005 -0.103292465 0.13760462 -0.11022491
000050 aa 09 0f be 83 9a b9 be bc d5 34 3e 42 70 99 be
       -0.1396853 -0.36250696 0.17659658 -0.29968458
000060 07 f0 75 bd fa b0 4b 3e f0 9f 84 3e c5 53 ad be
       -0.06004336 0.1989173 0.25903273 -0.33852974
000070 42 a2 02 3e 85 55 20 3e c7 53 06 be 99 62 bc 3e
       0.12757209 0.15657623 -0.13117896 0.36793974
000080 2c c1 80 bd cb a8 b7 bd ae 17 88 be 84 e1 df 3e
       -0.062868446 -0.089677416 -0.26580566 0.43726742
000090 37 0e 16 3e 8d b0 9c 3d 67 23 dc 3d b2 83 74 3e
       0.1465386 0.07650862 0.1074894 0.23878363
0000a0 74 d9 7a be 93 0c 95 3e 83 83 45 3e d1 b0 85 be
       -0.24497014 0.29111156 0.19288449 -0.26111463
0000b0 a2 be 24 3e 68 fa 9e bd d3 0a d2 be 65 a3 b5 be
       0.16088346 -0.07762605 -0.41023883 -0.35476223
0000c0 97 f1 81 be 2d 84 8a be e7 02 1e 3e c2 ad c9 be
       -0.2537963 -0.27053967 0.15430795 -0.3939038
0000d0 90 f7 c6 3e 00 e7 d0 3e 4b 4b 50 bd 7e b7 a4 3e
       0.3886075 0.4080124 -0.050853055 0.32171243
0000e0 ea 6c a1 be b4 98 d3 3e e0 ad 88 be 8b fd 8c be
       -0.31528407 0.4132744 -0.26695156 -0.27537188
0000f0 13 3e 13 3e 83 2b e3 be 82 cd 86 3b 96 7b a9 3e
       0.14379148 -0.44369134 0.004113854 0.331021
000100 6f 29 3f 3e 66 1a d0 be 85 81 96 bd da d6 81 3e
       0.1866815 -0.4064514 -0.07348923 0.2535923
000110 91 4c cd be 71 cc b3 3e 0a fb 1d 3e b9 68 05 3c
       -0.40097478 0.35116914 0.15427795 0.008142644
000120 85 3c fd 3d d2 50 e0 bd e5 27 a6 bd ad 5d 7e be
       0.12365059 -0.10952915 -0.08113078 -0.24840422
000130 bf 47 95 3d 57 8d c3 3d 64 70 a2 be c1 31 df 3d
       0.07289075 0.09548443 -0.31726372 0.10898162
000140 cc eb af 3e 1f e6 cb bd 4e 6d f8 bd fa b2 a4 be
       0.34359586 -0.099560015 -0.12130223 -0.32167798
000150 ac af cb 3e cd 0e 32 bd f0 c9 af be 55 9a 6f be
       0.39782465 -0.043471146 -0.34333754 -0.23398717
000160 a5 a6 d5 be 62 dc 5c 3d 76 65 69 be f3 02 d7 be
       -0.41728702 0.05392111 -0.2279261 -0.41994438
000170 2a 59 64 3e d3 02 6f bd c8 19 cb be 9b 31 ca be
       0.22299638 -0.058352303 -0.39668107 -0.3949097
000180 b8 c0 a4 be bb 15 f2 bc cc f8 d1 3e 8d d6 1e 3d
       -0.32178283 -0.029551378 0.4101013 0.03877883
000190 3b 36 75 be 0c b4 9e 3e e0 53 f0 3d 56 53 9d 3e
       -0.23946469 0.3099674 0.11734748 0.30727643
0001a0 98 72 b5 bd 3c c8 7b 3d dd 07 ae 3e d2 7c df be
       -0.08859748 0.061470255 0.33990374 -0.43649918
0001b0 ea 26 42 be 59 74 c4 3e dd 84 c6 3e 2d 23 d1 bd
       -0.18960157 0.38370016 0.38773242 -0.102117874
0001c0 13 07 b7 3e f6 33 c2 3e e0 5b 92 3e bb 5b 71 3e
       0.35747585 0.37930268 0.2858572 0.23570149
0001d0 3c 4f eb bd 3c 0d 0b 3d a9 30 5a 3e b5 d0 b1 bd
       -0.11489722 0.03394817 0.21307625 -0.08682386
0001e0 f4 9b 8a be 34 04 bf be e6 f5 8a bd da 93 6e be
       -0.27072108 -0.37307894 -0.06785183 -0.23298588
0001f0 aa 81 14 3e 2c 3f 65 3e a9 8e dc 3e b0 c5 72 bd
       0.14502588 0.2238738 0.4307759 -0.05927056
000200 61 1c 5e 3e eb 89 84 be c9 b4 ca 3e e9 0f 05 bd
       0.21690513 -0.25886473 0.39591053 -0.032485876
000210 db a1 de 3c a0 23 b5 be 9a 83 a8 3e bf 56 84 3e
       0.027176788 -0.35378742 0.32912904 0.25847432
000220 db de 95 3e 48 28 19 3b 2a 23 d1 be 45 2e db be
       0.29271588 0.0023369957 -0.4084714 -0.42808738
000230 1b 7d 87 be 91 14 98 3e 2e 65 50 3e 79 c6 5d bd
       -0.26462635 0.2970319 0.20351097 -0.054144356
000240 45 c5 5e be 14 ad ef be a9 33 40 3e 4d 82 09 be
       -0.2175494 -0.46811736 0.18769707 -0.13428612
000250 f6 62 25 be 75 8f e2 bd 34 70 3d 3e 5e 7d 31 be
       -0.16151032 -0.110625185 0.18499833 -0.1733298
000260 9b 82 69 3e 97 48 90 be 4a dc 01 3e 5b 97 0a be
       0.22803728 -0.28180382 0.1268169 -0.135343
000270 89 3a 4a be 83 4a 20 be 0d 68 7a 3e 2d 0e e6 3c
       -0.19748892 -0.15653424 0.24453755 0.028082931
000280 50 53 91 3e bb 05 6d 3e 90 a7 22 be e2 88 5f be
       0.28383875 0.23146717 -0.15884233 -0.2182956
000290 91 99 33 3d 47 ca a3 be aa f2 79 3e b4 a8 a6 be
       0.043847624 -0.31990263 0.24408975 -0.32550585
0002a0 b8 b2 bb 3e 21 46 8a bd d0 a8 53 be df 5b 17 be
       0.3665979 -0.06751657 -0.20669866 -0.1478114
0002b0 7d ee ce 3c 7e 13 c0 3e a5 63 72 be 5b 94 9e bc
       0.025260204 0.3751487 -0.23670824 -0.01935785
0002c0 3b 69 c7 3e bf 9c 9e be 03 7c e4 bd 07 bf bd 3c
       0.38947472 -0.30978963 -0.11156466 0.023162378
0002d0 bd a9 92 3d 68 d9 d4 bd 53 a2 dc 3e 08 a2 49 3e
       0.07161281 -0.103930295 0.43092594 0.19690716
0002e0 3a 85 2e 3e 9e 63 69 bd c1 f7 c3 be f8 cf 30 be
       0.1704301 -0.056979768 -0.3827496 -0.17266834
0002f0 74 e1 93 bd 7a e6 6c be 35 00 ae be 59 7f 7c 3e
       -0.07220736 -0.23134795 -0.33984533 0.24657954
000300 32 1d 95 3c eb 73 a7 be c4 ab aa bc 7e fc 51 3e
       0.018202398 -0.32705626 -0.020833857 0.20506474
000310 48 98 77 be fd dd c4 3e ed f9 83 3e 58 a1 65 3e
       -0.24179184 0.38450614 0.25776616 0.22424829
000320 54 82 8d bd 19 d6 43 3e d9 10 ce be dc 46 2e be
       -0.06909624 0.1912464 -0.4024723 -0.17019218
000330 21 62 1e be d6 fc b4 bb 88 c9 70 be 30 17 f2 3d
       -0.1546712 -0.0055233045 -0.23514378 0.11820829
000340 2d a4 a5 3c 21 c4 9c be 32 ad 67 3d 24 0a a3 be
       0.020219887 -0.30618384 0.056561656 -0.31843674
000350 65 a3 82 be a6 01 c4 3e b8 57 79 be d6 5e 6c 3e
       -0.25515285 0.38282508 -0.24349868 0.23083052
000360 41 ae 2b be 04 4e 67 3e 1b a7 9d be 06 70 ae 3d
       -0.16765691 0.22588354 -0.30791554 0.085174605
000370 c9 b5 98 3e 09 e4 86 3e e5 fb 42 be 67 17 c2 be
       0.2982619 0.26345852 -0.19041403 -0.3790848
000380 55 04 08 3e 3c ea a1 3e c2 91 ae 3e 1c bf 6d be
       0.13282903 0.3162402 0.3409558 -0.23217434
000390 19 d4 9a be e3 fb bc 3d 9a 7c 13 3d 77 1d 9d be
       -0.30239943 0.09227731 0.0360075 -0.30686542
0003a0 cb 28 cd be 95 63 db 3e 47 b7 8a be 5a 08 49 be
       -0.40070185 0.42849413 -0.27092955 -0.19632092
0003b0 d1 c3 d4 be 15 69 af be 40 9d 53 3e 9f c2 ed bb
       -0.41555646 -0.3425986 0.20665455 -0.0072558667
0003c0 10 df c5 be 3c de 67 bd 72 88 90 3d 28 e9 8f 3e
       -0.38646746 -0.056608424 0.07057275 0.28107572
0003d0 20 ed d6 be fa 21 cf be f7 e8 bc 3e 1b 25 6c 3e
       -0.41977787 -0.4045561 0.36896488 0.2306103
0003e0 d7 e7 14 3e 50 0d a6 be 15 01 21 bd b5 72 25 3d
       0.14541565 -0.32432032 -0.039307673 0.040392596
0003f0 b9 d6 52 3e ad e2 01 be 23 08 8a 3d bc 09 94 3e
       0.20589723 -0.12684126 0.06739833 0.28913677

sequential_25/Conv2D-1/Conv2D f4 [38, 3, 3, 1]
000000 c8 b1 37 bd 90 60 16 be 2f 29 06 3e b0 2b 4f 3d
       -0.04484728 -0.14685273 0.13101648 0.050578773
000010 3a d9 20 be a3 5d a7 bd 29 f8 35 3e 9b c1 42 3d
       -0.15707865 -0.08172157 0.17770447 0.047547918
000020 f2 8d 11 3e b4 9d cc 3d fb 07 af bc b6 7a c3 bc
       0.14214304 0.09991017 -0.02136611 -0.023862224
000030 0d e3 bf 3d 52 f7 2b 3d 3c 50 a0 3d e1 03 1f bc
       0.093694784 0.04198391 0.078278035 -0.009705515
000040 6c c4 6c bd 41 69 91 3d 2e 46 9b be b5 84 20 3e
       -0.05780451 0.07100154 -0.3032698 0.15675624
000050 63 c6 08 3e 79 ab 39 bb f4 26 9e 3e 47 b5 d6 bd
       0.13356929 -0.0028330965 0.30889094 -0.10483795
000060 b5 91 b9 3e ea e3 53 be 24 d3 85 3e 8a 51 26 be
       0.36243978 -0.20692411 0.2613765 -0.16242042
000070 a8 00 9d bd 56 a2 0e be af 8e 43 bd 9e 70 67 3d
       -0.07666141 -0.13929114 -0.047743496 0.056503884
000080 aa 41 a6 bb af d2 12 3d 35 be b8 3d fc 02 db bd
       -0.0050737457 0.035845455 0.09020654 -0.106939286
000090 c7 9d 8e 3d 10 1f 89 3d ef 57 10 be 09 b9 08 3e
       0.069636874 0.06695378 -0.14096044 0.13351835
0000a0 29 74 c2 3c 7a 2d 27 be 99 51 45 bd c4 24 a9 bd
       0.02373703 -0.16325942 -0.04817352 -0.082589656
0000b0 4e 9e 14 be ce df 56 be 7f 60 d3 bd 49 e0 54 be
       -0.14513513 -0.20983812 -0.103211395 -0.20788683
0000c0 c1 95 bb 3e d5 d2 7f 3d 1f 26 ea be f3 df 63 bd
       0.3663769 0.062456924 -0.4573221 -0.055633496
0000d0 95 b4 fb 3c a3 61 84 bd 21 b0 0a bc c4 32 26 3e
       0.030725757 -0.06463935 -0.008464844 0.16230303
0000e0 f4 45 f6 3d 70 89 0d 3d b6 3c a9 bd 6a e7 c3 bc
       0.12025061 0.0345549 -0.08263533 -0.023914058
0000f0 12 28 1a 3e 75 38 eb bd 20 58 f6 bc 59 ab 65 3b
       0.15054348 -0.11485378 -0.030071318 0.0035044758
000100 34 61 2b 3e 0d cb 48 be 05 ff 90 3e 55 75 ff 3e
       0.16736299 -0.19608708 0.28319564 0.49894205
000110 f4 92 3e 3e 90 24 c0 be e1 13 95 bd 52 37 99 bd
       0.18610746 -0.37527895 -0.07279182 -0.07481255
000120 d9 f1 ac 3d 87 21 7b be 1b 7b 8b be a1 20 77 be
       0.08444566 -0.24524508 -0.2724236 -0.2413354
000130 98 71 62 3e 25 c8 70 be 30 64 8c 3e f1 b2 c0 3e
       0.22113645 -0.23513849 0.27420187 0.3763652
000140 8c 92 c6 bd a6 06 ec bc db 4a 02 bf de c4 14 bf
       -0.0969592 -0.028811764 -0.5089547 -0.58112895
000150 3b b9 0e 3d dc 42 17 3e 66 9b a7 3e d8 67 14 3e
       0.03484462 0.14771599 0.32735747 0.14492738
000160 53 b8 a7 3e e3 38 81 3e 69 0f 82 3e 9d 11 b8 bd
       0.32757816 0.25238714 0.25402382 -0.089877345
000170 38 dc 75 be 71 5a 45 3e 99 5a 8c be 96 d0 3a 3e
       -0.24009788 0.19272782 -0.2741287 0.18243632
000180 84 1c d7 be 3d 45 f5 bd 29 8d 6f 3e 6c c4 34 be
       -0.42013943 -0.11976097 0.23393692 -0.17653054
000190 82 ba fa 3d 62 b9 48 3e 79 c0 89 bd 72 44 61 3e
       0.12242605 0.19601968 -0.06726164 0.21998766
0001a0 af c1 29 3e a7 3e 01 3e 1c 17 c9 3d 3f 8e 5b bd
       0.1657779 0.12621556 0.09818861 -0.053602453
0001b0 f4 69 35 3d 07 ce d6 bd 9d f1 c8 3d 22 c9 06 3e
       0.044290498 -0.10488515 0.09811709 0.13162664
0001c0 19 8b b3 bd 45 8a f8 3b 5a 76 08 3c bb 07 b8 bd
       -0.08766765 0.0075848424 0.008328998 -0.089858495
0001d0 36 57 94 bc d0 83 c2 bb 7d 2e 9e bd 20 5f e9 3d
       -0.018107992 -0.0059361234 -0.07723711 0.11395097
0001e0 bf 93 1c be 4f 10 3b 3e be 74 d5 bc 7e bb 5e 3b
       -0.15290736 0.1826794 -0.026056644 0.0033986266
0001f0 9f 85 44 3e b6 c8 30 3e 43 c1 9e bd fe cc 2b 3e
       0.19191597 0.17264065 -0.077517055 0.16777417
000200 30 05 59 3d 18 32 d0 3c 24 97 30 3e 38 67 26 bd
       0.052983463 0.025414512 0.17245156 -0.04062578
000210 14 ba d2 bd fe 03 ef 3d fa 85 ac bb b3 f4 1b 3c
       -0.10289398 0.11670683 -0.0052649947 0.00951879
000220 6e 3a 3b 3e 5e 52 2a 3e 78 e9 8d be 48 a7 a7 be
       0.18284008 0.16632983 -0.27717185 -0.32744813
000230 52 d8 a1 3e a9 06 d3 3d d7 d2 bb 3d ca 17 88 be
       0.31610352 0.10304005 0.09171074 -0.2658065
000240 f6 57 3d be 6a b3 17 be 8e c5 e9 bd 3a 64 02 3e
       -0.18490586 -0.14814535 -0.11414634 0.12733546
000250 81 1f 26 3e ee fe a7 bd d0 93 f8 bd ed e7 20 be
       0.16222955 -0.08202921 -0.12137568 -0.15713473
000260 08 68 f4 bd 15 c9 4f 3d 7c 79 0c 3c 0b 3a a7 bc
       -0.11933905 0.050728876 0.008573886 -0.02041342
000270 cc 3b 29 3c c0 29 d0 3d 70 71 31 bd f1 b7 f2 3d
       0.010329198 0.10164213 -0.043321073 0.1185149
000280 67 d0 21 3d 52 ec 10 3e 0a 98 96 3d 89 a5 e7 bc
       0.03950539 0.14152649 0.07353218 -0.028277176
000290 02 c7 07 bd f2 e9 ed bd 9e 6a 71 bd ee e4 75 3d
       -0.033148773 -0.11616887 -0.05893957 0.060032777
0002a0 52 b2 fd bd 90 0b cf bc 54 d8 bb bd 65 83 b8 3d
       -0.123875275 -0.025274068 -0.09172121 0.090094365
0002b0 70 9d 5e 3d 44 f4 a7 bd cd cb 11 3d 5d 52 8c 39
       0.054349363 -0.08200887 0.03559475 0.00026764246
0002c0 f0 10 72 3a af ed 4f 3d f4 c5 d5 3c 0b ca d2 bd
       0.0009234091 0.050763782 0.026095368 -0.10292443
0002d0 b8 bb 7e be 60 8a c6 3e 4e 21 78 3c 4e 12 a0 3e
       -0.24876297 0.38777447 0.015144659 0.31263965
0002e0 8e 57 b5 3e 69 5a 47 be 06 ea a9 3c f2 7d 88 be
       0.3541836 -0.19468082 0.020741474 -0.2665859
0002f0 91 ab a3 be c8 fe d3 3e a4 78 ac bd 98 3e 30 be
       -0.31966832 0.4140532 -0.08421448 -0.17211378
000300 8e fc a0 bd 83 d1 8b 3e 2d 12 e6 bc 06 b5 b6 be
       -0.07860671 0.27308282 -0.028084839 -0.35684985
000310 4b 78 5a bd 45 5c be be 2f 52 6a 3e bc 09 ce be
       -0.053337377 -0.3717977 0.22882913 -0.40241802
000320 74 17 a7 3e 8d 27 26 be bc 38 58 3e d4 07 96 3e
       0.3263508 -0.16226025 0.21115392 0.29302847
000330 b5 d7 34 be de 16 39 be a9 77 1c be cb 3f 64 bd
       -0.1766041 -0.1807513 -0.15280022 -0.0557249
000340 8d 8a f8 3c 5e 1b 6a 3d ab 28 bf bd 30 83 e4 bd
       0.030339504 0.057155006 -0.09333929 -0.111578345
000350 ca 05 12 be 11 b1 fb bc 7c 97 c0 3d 1c 01 23 be
       -0.14260021 -0.03072408 0.09403893 -0.15918392
000360 cc ff 93 be b5 df 8c 3e 5a 77 d4 3e a2 79 19 be
       -0.28906095 0.27514425 0.41497308 -0.14987805
000370 5d 9e 0b be e9 22 86 be 26 7d c6 3e 8b 4c 91 bd
       -0.1363463 -0.2619851 0.38767356 -0.070946775
000380 d5 19 0d bf 46 94 95 3e 0b d9 80 be dc 16 1d bf
       -0.5511754 0.29214686 -0.2516559 -0.61363006
000390 bf f1 22 3c 86 ae f3 3e aa 2e 88 3e 68 bc a7 be
       0.009945332 0.47594088 0.26598102 -0.3276093
0003a0 e7 fd d9 be c8 8d 27 3d 81 89 04 3d a8 86 cf 3c
       -0.42576525 0.040906698 0.032357696 0.025332764
0003b0 72 71 0f 3e e2 7a 72 3e bf 8c c7 3c 49 3d 51 be
       0.1400812 0.23679689 0.024359105 -0.20433535
0003c0 a9 da e9 bd c1 23 f1 3c f9 ab 98 be 86 88 59 39
       -0.11418659 0.029435994 -0.29818705 0.00020745592
0003d0 02 a8 35 3e 9e ae b3 3e 8b 0b 31 3e 86 79 d5 bd
       0.17739871 0.3509416 0.1728956 -0.104235694
0003e0 0e 6f b5 3d 21 1e a1 be 8d 23 c4 bd 48 74 9e 3d
       0.088590726 -0.314683 -0.09577093 0.07737023
0003f0 1e 30 f6 bd fc 33 7a be ba c5 30 be 51 72 97 3e
       -0.120208964 -0.24433893 -0.17262927 0.29579404

sequential_25/Conv2D-2/Conv2D f4 [38, 3, 3, 38]
000000 e1 96 81 bc 17 b7 34 be 72 9c 6f bd 9f a3 20 3d
       -0.015819015 -0.17647968 -0.058498807 0.03921854
000010 8e 67 07 be 6e a7 fa bd 7a ff 8f 3d f5 29 48 3e
       -0.13223097 -0.12238966 0.0703115 0.19547255
000020 b0 76 96 bd ec 78 0f be fa f7 2d be 85 44 c8 bd
       -0.073468566 -0.14010972 -0.16989127 -0.09778694
000030 28 31 00 be 7d 4f 03 3e e4 87 95 bd 2a 9b ff bd
       -0.12518752 0.12823291 -0.0730131 -0.12480767
000040 92 d1 a2 bd 21 18 4a be 1b 2e 47 bd b8 71 55 bd
       -0.079501286 -0.19735767 -0.048627954 -0.052110404
000050 60 8f 4a bc 97 1e 06 3e 37 64 50 bb 4d 2d c3 3d
       -0.012363285 0.13097607 -0.0031798014 0.09530125
000060 8d d2 1e 3e 93 b9 0e 3e b2 fc 00 3e ed ad e1 bd
       0.15510006 0.13937978 0.12596396 -0.11019502
000070 9b aa 9d 3d ad 2f 3b bd 2a c7 8c 3d f0 00 8b 3d
       0.07698556 -0.045699764 0.06873925 0.06787288
000080 b8 23 19 bd 04 15 37 be 3f 3d 06 bd 4d cf 4a be
       -0.03738758 -0.1787911 -0.032773253 -0.19805641
000090 7b ea 00 be 4e 3b d5 3d 1e 65 37 3d d1 50 9f bd
       -0.12589447 0.10411702 0.044774167 -0.077790864
0000a0 cb 20 77 bd 47 11 d1 bd 03 09 08 3c 20 28 fc bd
       -0.06033401 -0.102083735 0.00830293 -0.12312341
0000b0 db 38 1e 3e d9 27 34 3e b4 f9 f4 bc d9 81 29 3e
       0.15451376 0.17593326 -0.029904224 0.16553439
0000c0 f1 2e 8a bc bb 18 2a 3e 80 7f 7f 3c 9c f1 32 3e
       -0.016868087 0.16610996 0.015594363 0.17474979
0000d0 37 f0 a5 3d 88 b3 05 bd fa f1 c6 bb 1a 59 c3 bd
       0.08102458 -0.032641917 -0.0060713263 -0.09538479
0000e0 df 73 40 3e 8f 3c 6f 3d af 3d 7f 3d 04 ba 03 3e
       0.18794201 0.058407363 0.062314685 0.12863928
0000f0 9d 56 8a bd d7 ae 17 3b 84 d0 1a bd fe b9 ea bd
       -0.067548014 0.0023144984 -0.037796512 -0.114612564
000100 36 09 d4 3d 6f b2 4e 3d a8 59 a9 bb 39 2c 8e 3c
       0.10353319 0.050463136 -0.0051681586 0.017355071
000110 eb e7 a5 bb ad 94 c2 bd a4 11 62 3d 67 16 eb ba
       -0.005063047 -0.09501014 0.055192605 -0.0017935754
000120 dc 70 e3 bc cd 28 63 bd d5 86 2a bd d1 1c 06 3e
       -0.027763776 -0.055458833 -0.041632492 0.1309693
000130 f5 21 2b be 06 4b 42 3c 1b ed f4 bd e1 65 f8 bd
       -0.16712172 0.011858707 -0.11959287 -0.12128807
000140 61 63 ec bd e5 5e f4 bd fe 98 d5 3c ec 9a 07 3e
       -0.115423925 -0.11932162 0.026073929 0.13242692
000150 6b 07 f7 bd 67 fb 79 3d 0c d1 77 bd 77 1a ae bd
       -0.12061962 0.06103077 -0.060502097 -0.085011415
000160 4f 0a f4 3c 0b 3f 99 bc 5e 01 b0 3d 40 a8 ba 3c
       0.029790072 -0.018706819 0.08594011 0.022785306
000170 0d 8e e7 3d 28 b8 b6 bd 57 34 4f bd b4 59 cf 3d
       0.11306391 -0.08921844 -0.050587025 0.101245314
000180 05 b0 6a bd b9 de 48 bd 7e 66 67 3d 4e 3a 1c 3e
       -0.05729677 -0.04904053 0.05649423 0.15256616
000190 66 79 74 bd b4 e1 39 bd a1 24 cd bc 6c 9a bd bd
       -0.059686087 -0.045381263 -0.02504188 -0.09257969
0001a0 44 75 40 3d 58 34 02 be 18 b0 9a bd 71 b2 ec bd
       0.046986833 -0.1271528 -0.075531185 -0.115574725
0001b0 f3 72 20 be 3b 85 9a 3d 59 f1 86 3c 41 5a a5 bd
       -0.1566885 0.07544943 0.016472505 -0.08073855
0001c0 41 fa 99 bd 05 02 bf 3d dd aa e1 bd ee e3 30 bd
       -0.07518435 0.09326557 -0.11018918 -0.04318612
0001d0 d3 5c 39 3d e9 1e 36 bd 62 fa df bd 4f 4e 32 bd
       0.04525454 -0.044463072 -0.109364286 -0.043531712
0001e0 59 13 86 3d ca c4 90 bd a9 d9 26 bd 5c 89 2f be
       0.06546659 -0.070687845 -0.04073492 -0.17142242
0001f0 ac 2e c8 bd 85 27 61 3d e1 ca d2 bc ed 31 de bd
       -0.09774527 0.05496933 -0.025731506 -0.10849366
000200 e5 ab 09 be 44 ce 9d ba fc e9 25 3e 84 cd 33 be
       -0.13444479 -0.0012039621 0.16202539 -0.17558867
000210 67 b6 8b 3c 27 a0 5e 3d 83 f7 a5 bd 3e 09 01 3d
       0.01705475 0.054351952 -0.0810385 0.031502955
000220 99 68 f8 3c 02 d1 7e bb c6 ac 08 bd 35 d3 e0 bd
       0.030323314 -0.0038881903 -0.033367895 -0.109777845
000230 f4 cc 19 bd f7 b2 10 3e 1d c2 e4 3d 0a ba fd 3d
       -0.037548974 0.1413077 0.11169837 0.12389
000240 8f 5f 3a be a0 33 da bd 6b 42 98 bc 6a f9 23 bc
       -0.18200515 -0.10654378 -0.018586358 -0.010008195
000250 ab e0 81 3d 89 fd cd bd 50 4b 82 3d d9 65 2b 3d
       0.0634168 -0.100581236 0.06362021 0.041845176
000260 fc eb 25 bd 84 71 d1 3c fe 00 d1 bc 0e 8f b6 bd
       -0.040508255 0.025566824 -0.025513168 -0.08914004
000270 50 24 8b bd 12 cc d6 3d 4e 0a 05 3e 33 b8 81 3d
       -0.067940354 0.10488142 0.12992212 0.06333961
000280 2a 9f 42 3d 18 d9 12 3e 03 ad 16 3e 57 36 08 3e
       0.047515072 0.14340627 0.14714436 0.13301979
000290 4d dd 9f bd 2d 31 71 bb 54 b7 99 bc fe 41 d5 3d
       -0.07805882 -0.0036802993 -0.018764175 0.10412978
0002a0 aa 1c e8 bd 5b cb 0c be a8 21 a3 3c 44 1e 79 bd
       -0.11333592 -0.13749449 0.01991351 -0.06081988
0002b0 86 96 a5 3d a2 f9 a0 3d 6b e8 38 3d f1 e8 c2 bd
       0.08085351 0.07860114 0.045143526 -0.09517086
0002c0 34 06 a5 3d 5b be eb 3c 0f 4e 03 be f7 49 25 3e
       0.08057824 0.028777292 -0.12822746 0.16141497
0002d0 e3 a9 11 3d 78 bd 33 3d 07 e8 ab 3d 3a a9 11 3e
       0.035562407 0.043881863 0.08393865 0.14224711
0002e0 33 9e db 3c b9 15 0f be fb e5 27 3e 6d 0f a6 bd
       0.026808834 -0.1397313 0.16396324 -0.08108411
0002f0 dc de 97 3d 6d a8 d6 bc dd 13 56 bd db 51 b8 3d
       0.07415554 -0.026203359 -0.052265037 0.08999988
000300 2a 1a f8 bd 7e 20 21 3e 56 cc 86 3d 16 d2 2f 3d
       -0.121143654 0.15735051 0.06581943 0.042924963
000310 54 8c 22 3e a8 36 de bc 9b cb 66 bd d5 3b 24 3d
       0.15873843 -0.027125672 -0.056346517 0.040096123
000320 5a fe 30 bc 85 a1 11 bd 0b 17 c2 bc 1b b2 88 bd
       -0.01080283 -0.035554428 -0.023692628 -0.06674596
000330 68 61 d4 bd 1a 1f 89 3d 4b 89 20 3e 7b 2a ab bd
       -0.10370141 0.06695385 0.15677373 -0.08357712
000340 3f b1 46 3d ca 34 98 bd 78 ce 82 bd 50 0a 59 bd
       0.04850888 -0.07431944 -0.06387037 -0.05298835
000350 5d 3c a2 bd ac f0 23 3e 76 24 0e be ae 6d 00 be
       -0.0792167 0.16009778 -0.13881096 -0.1254184
000360 95 e1 4c 3d fc ae 38 be c4 a0 74 bd 60 e7 a9 bd
       0.05001982 -0.18035501 -0.05972363 -0.082960844
000370 8b 37 08 3e ec 09 c6 bd 70 d4 0e be a9 d3 8f 3d
       0.13302438 -0.09669861 -0.13948226 0.07022793
000380 65 45 8c 3c 15 78 08 be 68 4e 98 bd 07 8b e1 3d
       0.017122934 -0.13327058 -0.0743683 0.110128455
000390 6d df be 3d 03 4e 1b be ca 09 c1 bc 9d db e9 bd
       0.09319959 -0.15166478 -0.023564238 -0.11418841
0003a0 22 e8 07 3e b3 24 de 3d f8 f8 21 be 3d 4b 39 3d
       0.13272145 0.108468436 -0.1581763 0.04523777
0003b0 5b e8 d8 bd 10 e7 ed 3d bd dc fa 3d 45 72 55 bd
       -0.10591193 0.11616337 0.12249134 -0.05211093
0003c0 fd 66 c6 3b 83 b1 37 be 05 2d ec bd 8e c7 ff bb
       0.0060547576 -0.17938809 -0.11532024 -0.007805771
0003d0 bc b5 a8 bd 22 13 df bd df 14 c2 3d 36 77 4d 3d
       -0.08237788 -0.10892321 0.09476637 0.050162517
0003e0 f4 56 cf bd 72 ce 92 bd 01 2e 84 3c e0 5c 11 bd
       -0.10124007 -0.071682826 0.016135218 -0.035488963
0003f0 10 c9 65 3e 65 0e 79 bd 7d 2c a7 bd 8f 42 f5 bd
       0.2243998 -0.060804743 -0.08162782 -0.11975586

sequential_25/Conv2D-3/Conv2D f4 [38, 3, 3, 38]
000000 d7 e7 d9 3d 47 27 c4 3d 48 d4 17 bd 28 29 7e 3d
       0.10639923 0.09577804 -0.03706768 0.06205097
000010 fc 8d 89 bd d8 ec 10 3e a8 58 c9 bd 23 5a 0e 3e
       -0.067165345 0.14152849 -0.09831363 0.13901572
000020 b6 f5 d6 3d 0f 2b 52 bd ef e7 62 bd 1d d2 00 3e
       0.104960844 -0.051310595 -0.05539697 0.12580152
000030 71 9c 75 bd db be 46 be 7a d2 88 bc d2 2a 30 3e
       -0.059963647 -0.19408743 -0.016701926 0.17203835
000040 f1 23 ef 3d 59 18 a2 3c 82 a0 17 bd ce a0 20 be
       0.11676777 0.019787 -0.037018307 -0.15686342
000050 7f d9 17 3e 94 5b c8 bd e0 88 71 3e d7 00 86 bd
       0.14829062 -0.09783092 0.2358737 -0.06543129
000060 5d dd 53 3d 1f ae d6 bd 45 06 05 3c 96 6f cb bb
       0.05172478 -0.1048243 0.008119171 -0.0062083704
000070 1f b9 f7 bd 7c 35 83 3c 90 d4 85 bc 8e 88 bd 3c
       -0.12095856 0.016016714 -0.01633671 0.023136403
000080 cf 01 c6 3d 24 fc 1d 3d 49 ff 1a 3e 91 54 3b be
       0.09668314 0.03857054 0.15136446 -0.18293978
000090 c6 4e 7e 3d 10 4d 3e be 82 5b 41 be 97 0a ca 3d
       0.062086843 -0.18584085 -0.18882564 0.09865301
0000a0 1b fc 2d be e0 88 01 be 65 11 43 be 31 59 22 be
       -0.16990702 -0.1264987 -0.19049604 -0.15854336
0000b0 0b 0c 72 3d f6 25 b3 bd de a3 1f 3d 58 6a a8 3b
       0.059093516 -0.08747475 0.038974635 0.0051396303
0000c0 86 e2 72 bc 16 59 e4 bd 99 30 5c 3b 76 67 f5 bd
       -0.014824515 -0.11149804 0.0033598302 -0.11982624
0000d0 a7 94 82 3d d4 9b b6 3d 50 bc 2d 3e 6e e0 12 3e
       0.063760094 0.089164406 0.16966367 0.14343426
0000e0 60 c7 84 3c 77 56 97 bd d8 b8 02 3e 38 92 df 3d
       0.01620835 -0.07389539 0.12765825 0.10916561
0000f0 71 21 32 3d f5 b2 d8 bd 16 c0 1d 3e 6a d7 4f bd
       0.043488923 -0.10581008 0.15405306 -0.050742544
000100 b2 bd cb bd 5a f5 dd bd ad ac ad 3d ac a2 18 bd
       -0.09948291 -0.10837813 0.08480201 -0.03726451
000110 01 89 05 bd 4b 67 d0 3d fe 0c 1d bc d1 94 b2 bd
       -0.03260136 0.101759516 -0.009585617 -0.08719791
000120 a7 7c 33 3e 03 e7 5d bd 8a 39 e0 bd a5 de 9e 3d
       0.1752802 -0.054175388 -0.10948475 0.0775731
000130 73 94 23 3b b6 4c 65 3c e8 44 50 bd cd 62 d7 3d
       0.0024960309 0.01399534 -0.050846964 0.10516892
000140 a5 b6 ae bd c1 25 a6 3d 83 fb 0d be 2c f3 ba bd
       -0.085309304 0.0811267 -0.13865475 -0.091284126
000150 e7 0f 42 be 3d e7 3b be 04 26 b5 3d 2d b8 08 3e
       -0.18951379 -0.18349929 0.088451415 0.13351507
000160 42 f3 05 be 07 1e cc bd e2 91 63 3d 03 99 48 bd
       -0.13081077 -0.09966665 0.055559047 -0.04897405
000170 d5 04 88 bc a8 7b b8 bd e6 c6 81 3b 75 82 28 3d
       -0.016603867 -0.090079606 0.003960478 0.04114004
000180 7c 77 b5 3d 36 52 8a bc 18 75 bd bd 7c 57 01 be
       0.088606805 -0.016884904 -0.092508495 -0.12631029
000190 d5 32 c6 bd 3c 83 8b bc 40 6f a4 bb a0 78 e9 3d
       -0.09677664 -0.01703035 -0.005018145 0.113999605
0001a0 f2 bc 9d bd e0 32 04 bd 09 44 2a 3e 47 a7 03 3d
       -0.07702054 -0.03227508 0.16627516 0.03214195
0001b0 32 59 fc bd 01 5b a3 3d 29 ac 37 3e ce ba ae 3b
       -0.123217 0.07976342 0.17936768 0.0053323274
0001c0 2d 3c 25 3e e0 eb 04 3e ce 9a 1e 3e 74 86 36 bc
       0.16136236 0.12980604 0.15488741 -0.011140455
0001d0 57 69 98 bd e6 28 32 be 84 5c a2 3d 00 ba 1e bd
       -0.07441967 -0.17398414 0.07927802 -0.038751602
0001e0 d7 fb 77 3d 38 36 9e 3d 54 19 d8 3d 3c 87 fc bc
       0.060542908 0.07725185 0.10551706 -0.030826204
0001f0 3f 76 8a 3c 03 fa 4b 3e 5e 96 a2 3d 9f d5 0a 3d
       0.016902087 0.1991959 0.079388365 0.03389513
000200 36 0a 05 3e c7 ae 76 3d 5c 91 87 3c c4 b8 2a 3d
       0.12992176 0.060225274 0.016548805 0.041680112
000210 e5 61 50 be cc 5a d2 bd d2 41 ed bd f5 85 10 be
       -0.20349844 -0.102712244 -0.1158482 -0.141136
000220 4f 25 f2 3c f9 1c c8 3d ff 3e df 3b 53 fc 5a bc
       0.029558806 0.09771151 0.0068129296 -0.013365823
000230 c3 e4 09 3e 11 22 1e 3d 15 ab b3 3c 31 4e 9b bd
       0.13466172 0.038606707 0.021932164 -0.07583273
000240 15 13 ea bd 29 40 d7 bd 9f 1c 69 bd dd b9 48 bd
       -0.11429421 -0.105102845 -0.05691206 -0.049005378
000250 e9 00 5c 3d 5f de 49 bb 5c 25 23 3d 82 94 20 be
       0.053711805 -0.003080271 0.03983055 -0.15681651
000260 cf 46 1e 3e a1 24 09 bd c3 8b 32 be db 24 06 ba
       0.15456699 -0.033482198 -0.17436127 -0.0005117186
000270 12 c9 a0 bd ec cf db bd b0 e6 e5 3d c7 90 bb 3d
       -0.07850851 -0.10733017 0.11225641 0.091584735
000280 2a eb a5 3d 44 7c b8 bd 29 db c4 bd 8c f9 c0 3d
       0.081014946 -0.09008077 -0.09612114 0.09422597
000290 e0 b4 94 3d 9b 0d 7f bc 1f 98 c0 3d 44 29 ef 3d
       0.07261062 -0.015567209 0.09404015 0.11677793
0002a0 34 2a 32 3e f3 e7 ba bd 97 06 24 be 09 2c 38 be
       0.17398912 -0.09126272 -0.16018139 -0.17985548
0002b0 de ab b7 bd 16 63 fd bd 0e 01 05 3c f7 74 8c bd
       -0.08968328 -0.12372415 0.008117927 -0.06858247
0002c0 0d 1c 91 ba 83 66 90 bd a8 21 10 3d eb cb 90 3d
       -0.0011070982 -0.070508026 0.035188347 0.07070144
0002d0 81 93 16 be 7c fa 12 3e ef 58 2f 3d 93 3c f6 bc
       -0.14704706 0.14353365 0.042809423 -0.03005818
0002e0 7c a9 10 3d aa 37 0b 3b 0f 09 cc 3d e9 0b 3a bd
       0.035317883 0.0021242895 0.09962665 -0.045421515
0002f0 bf ec 25 3e 1a 30 ca 3d d7 54 83 3d 2c 20 ae 3d
       0.16203593 0.09872456 0.06412666 0.0850223
000300 8f b8 9a bd c3 1a 05 be 64 44 40 bd 51 8e 9f bd
       -0.07554733 -0.1299849 -0.046940222 -0.077908166
000310 36 7a bf 3d 11 9c 08 be 63 1e d8 bd df fe b3 3d
       0.09349482 -0.13340785 -0.10552671 0.08788847
000320 c8 9f d4 3d b3 09 07 3e b9 68 cc bc 9d a0 39 bc
       0.10382038 0.13187294 -0.02495228 -0.011329797
000330 6d be de 3d a9 8a 98 bc f5 15 51 bd ce 08 8b 3d
       0.108761646 -0.018620806 -0.05104633 0.06788789
000340 c2 ca 0c be 21 f3 09 3e dc 36 a8 bc 28 ca ba bd
       -0.13749221 0.13471653 -0.020533971 -0.091205895
000350 29 46 6d bd 58 81 0e be 21 56 83 3d 4c 74 e0 bd
       -0.057928238 -0.13916528 0.06412912 -0.10959682
000360 cf 59 13 bd 1d 8d a8 3d 87 67 84 3d fb ab 74 3d
       -0.03597432 0.0823004 0.06465059 0.059734326
000370 54 62 b9 bc 9a 98 c4 3d 30 68 8d bc 4e 2c 32 be
       -0.022629894 0.09599419 -0.017261595 -0.17399713
000380 de 8e 9e bd 61 6a 90 3d 2f 82 6c bd c9 ab f8 3c
       -0.077420935 0.0705154 -0.05774134 0.030355351
000390 98 43 ca 3d 6f e1 b1 bc f9 0a 1d be b1 63 fe 3d
       0.09876174 -0.02171394 -0.15336217 0.124213584
0003a0 14 cc 40 be fc 4f d2 3a 09 4e 9d bd d8 c5 3e bd
       -0.1882785 0.0016045566 -0.076809 -0.046575397
0003b0 72 72 09 be ff cf 5b bd 9b ea f6 bd 76 41 42 3e
       -0.13422564 -0.053665157 -0.12056466 0.18970284
0003c0 ea cc 00 3c b1 bc 0d be fe 76 b2 bc 95 f5 c1 3c
       0.007861355 -0.13841511 -0.021785256 0.023676673
0003d0 e4 cf 3a 3d 7e e7 fd 3d 48 d4 e6 bd 61 82 3c be
       0.045608416 0.12397669 -0.11270958 -0.1840911
0003e0 e9 bd d6 bd c5 e1 d9 bc 67 73 42 3e 62 cf d8 bd
       -0.10485441 -0.026596913 0.18989335 -0.1058643
0003f0 6d f2 b8 3d 7c 02 5f bd 81 0e d1 3c 4f 8d c7 bd
       0.09030614 -0.05444573 0.025519611 -0.09743749
