Homework2/new ex2/models/cnn_V_a_alpha=0.3.tflite (tflite, 110760 bytes, 8 tensors)

unknown_15 f4 [8]
00000000: 1c94 cd3b 1ddc 013c e788 8d3c 7cc7 1c3a
00000010: 54eb 67bc 8276 e9bc eb8c 4a3b c958 a43c
0.0062737595 0.007926014 0.017277194 0.0005980653 -0.014155228 -0.028498892 0.0030906748 0.020061867

sequential_34/Btch_Norm-1/FusedBatchNormV3;StatefulPartitionedCall/sequential_34/Btch_Norm-1/FusedBatchNormV3 f4 [38]
00000000: 5086 6cbe 6eda 8fbe b8cc aa3e 7dea 98be
00000010: 7e55 3dbd ad0d 9d3e 1d00 a1be e828 9cbe
00000020: 472f a73e 210c b43e f270 b53e 37c4 593e
00000030: 141d ac3e 298d aebe 5403 90bc c016 543c
00000040: 9410 a2be dc4d a2be 83f3 9fbe 976c ae3e
00000050: fdad c63e db54 973e c207 9fbe 3e9b a03e
00000060: 18eb a0be 8780 b63e f1eb b6be e00b a73e
00000070: 8ac5 953e 4ccf b53e 6713 a3be a194 b93e
00000080: 1ee0 c5bd 382e b4be 1b05 9cbe 42e2 8ebe
00000090: 08cc 00be e41e 883c
-0.23098111 -0.28096336 0.33359313 -0.298664 -0.04622411 0.30674496 -0.314454 -0.3049996
0.32653257 0.35165504 0.35437733 0.21266256 0.33615935 -0.34092072 -0.017579712 0.012944877
-0.31653273 -0.31700027 -0.31240472 0.34067222 0.38804618 0.29556927 -0.31060606 0.3136844
-0.31429362 0.35644934 -0.35726884 0.32626247 0.29252273 0.35509717 -0.3185074 0.36246207
-0.096618876 -0.35191512 -0.30472645 -0.27906996 -0.12577832 0.016616292

sequential_34/Btch_Norm-3/FusedBatchNormV3;StatefulPartitionedCall/sequential_34/Btch_Norm-3/FusedBatchNormV3 f4 [38]
00000000: 3eca 94be 8172 e03e d773 ba3d ef0b 2ebf
00000010: 0e2a 763e ab09 a43e 348d 45bb 0c70 423e
00000020: 9a32 113f 454c 01be 1034 f5bc 9403 e13e
00000030: c7f0 11bf 64b3 003d 31a3 b5be 0893 d7bd
00000040: 07fa 28bf 7dbe 7f3e 4ff5 9ebe 4b65 233f
00000050: 3659 0fbd 384b bcbe 3a58 32bf 94e4 85bf
00000060: 54a1 b4be 885c 71bf 2c9a c83d a518 d2be
00000070: 2d06 adbe 5b34 bfbe 19b8 febe 4427 65bf
00000080: 3365 4ebf 96b6 e3be 8a4a acbe 99d8 e2be
00000090: 6cf4 0ebe 2aed d8be
-0.2906055 0.4383736 0.09104126 -0.6798696 0.2403948 0.32038626 -0.0030143978 0.18988055
0.56717837 -0.12626751 -0.029932052 0.43948042 -0.5700802 0.03142108 -0.35476068 -0.10526091
-0.6600651 0.2497501 -0.3104653 0.63826436 -0.034997188 -0.36776137 -0.69665873 -1.0460382
-0.35279334 -0.94281816 0.09795031 -0.41034427 -0.33793774 -0.37344632 -0.4974983 -0.8951304
-0.8062317 -0.4447524 -0.3365062 -0.44305876 -0.13960427 -0.42368442

sequential_34/Output-Layer/MatMul;StatefulPartitionedCall/sequential_34/Output-Layer/MatMul f4 [8, 38]
00000000: ad81 7e3e 5042 a13e 415f 103c 0f18 80bd
00000010: f624 63be e94d 6e3d 3a14 26bd 1cf6 62bd
00000020: 6fc6 8cbe 9c42 51be 411e a8be 6146 963d
00000030: 4155 d43e 7bad 953d 6a24 98bc 4a36 933d
00000040: 5d7f 74be faa5 1a3e c5dc 9b3e 3b72 993e
00000050: a129 cd3d 984d 6c3e 77d7 79bd f621 55be
00000060: 0821 563d d851 9ebe 523d 403e 2df2 2abe
00000070: 985e 62be a03d b23d 2ad1 9e3e e664 12bb
00000080: 0845 a5be c0f9 58bd acee a5bd e904 22be
00000090: b765 083e 4588 ff3d d17c b43c 6f1b 54be
000000a0: 56b0 62be a63e ed3d c49b 283e e996 edbd
000000b0: 301c c03e 2c98 09be 7843 513e 3b82 853e
000000c0: adc8 553e 97eb 633d 428b be3e 0ac2 7ebd
000000d0: 7a45 5b3e 2e7c 883e a8e2 333e ab96 73be
000000e0: 5a5a 0fbe 3d42 5dbe 1172 b1bc d84f 0b3d
000000f0: b525 90be da20 7dbd 1a75 c73d a27b 50be
00000100: 05a0 95be f9b2 a1bc 2ce8 0cbe 584b 82be
00000110: 1c25 84be 136b 533d 7040 a53e 74e7 963e
00000120: dc5b 9dbe 06fe f73d 29df 833e bf93 5bbd
00000130: 8907 cf3d b21f a3be 697a c63e 6dac a4be
00000140: edd6 4ebe ceab 083d 6632 243e 7615 a73d
00000150: 0ed1 16be d02c 813e fa2e 1f3e f459 27be
00000160: acaa 0cbe bf56 dfbd 090c 213e 02f8 9ebe
00000170: 6674 96be f4b7 68be 585b 7ebe 8465 98bc
00000180: 13e2 05be 9f41 5fbd 0bf6 7dbe 3fca ec3d
00000190: dfce 993e 4b8e 3b3e 082e 8a3e a356 ab3e
000001a0: b769 e5bd 838f 753e b7ae 743e dbba b3be
000001b0: 5bfb 643c 2506 3a3e 4806 29bc 3e4e 883d
000001c0: e6c7 693e 4069 55bd 3612 a93e 6738 793e
000001d0: d4a7 76bc 849d 9c3e 334c aebe b0da abbe
000001e0: 6ff2 4d3c 60e9 fc3c bc29 873e a63e 84be
000001f0: 2622 a3bd aa6c 27be b7ce 5bbe 0420 f8bc
00000200: f564 bebe ff41 59be f6ff 5c3e fd9a 0dbe
00000210: d8c6 ff3d 6ee6 3b3e 38eb b6bd a537 b53e
00000220: 4704 c1bd 1b01 a63e 1d18 d63d dcd4 ed3c
00000230: 60da 8bbe 5a68 3ebe 419f c73d 68da 81be
00000240: a222 6a3e 9897 ae3e cee2 843e 133e a43e
00000250: a790 88be 0932 eebd 3790 2dbe a5e7 a33d
00000260: d34e b9bd 7410 8c3e 8dce fb3d 17b0 273e
00000270: 3fd3 fcbd e6aa 993e ff32 c33d 62f4 1b3d
00000280: 57df 2cbd 4d54 91be 2a8c 55bc 3f1e 953e
00000290: bbb9 0a3e 9998 92bc d745 af3b c3c5 fb3d
000002a0: 88bd 643b c094 09be 98d3 9cbe 98e3 91be
000002b0: dd5e a5be 67af 433e 998c 5b3e 7153 cdbc
000002c0: fe9f 023e d893 8d3e 2092 a83e 26a6 d0bd
000002d0: fb0b 993d 1d7d f33d fcd7 5dbe bad8 5dbe
000002e0: f4b1 8a3e 31dd acbe 211f 383e 19eb cebd
000002f0: c5ec e1bd 6dd3 0bbe 5a0f c1bd b48f d6be
00000300: 9b0b 883e 5b13 1dbd 388a b03d 2123 5abe
00000310: b8fe f4bc f0ed 75be 689a 0abd 474f 393e
00000320: d26a 883e 3d9a 5dbd 48b0 92bd 56c2 a8be
00000330: 09cb a43c 511c b53e 2602 353d 8913 a63c
00000340: 02b0 6b3e a79b 913e 4922 ee3b ca6f 8dbe
00000350: 1bbf 7abd 2594 db3c 0ccd 54be 99d2 8f3e
00000360: 2e39 7dbe bb04 053e 00d3 1ebe 786b 89be
00000370: b483 9d3e 77b2 853e 6330 f0bc 805c 3ebd
00000380: e2d3 3b3c 00da 853e e5b8 1a3d 05e9 4fbd
00000390: fbc2 80be 4d28 7bbd db30 383e 5d5a 603e
000003a0: c588 a73e 48ce 5abe be21 a9be 5e30 b23d
000003b0: 6081 c7bb fb17 97bd bb33 8cbd b46b 89be
000003c0: dca7 d6bc 3ea1 d4bd 3864 a1be c854 adbe
000003d0: c485 de3c 4a45 753e 5ef8 0e3e cd8d b8be
000003e0: ccc1 c53e 08dd 963e d4e0 a4bc 54aa 213e
000003f0: 1a93 83bd d6f3 fe3d 7ddf c4be 9f2c aa3e
0.24854155 0.31495905 0.008811773 -0.06254589 -0.22182068 0.05817977 -0.040546633 -0.05541049
-0.27495143 -0.20435566 -0.32835582 0.073376425 0.41471294 0.073084794 -0.018572051 0.07188089
-0.2387671 0.15102378 0.3044187 0.29969963 0.10017706 0.23076475 -0.0609965 -0.20813736
0.052277595 -0.30921817 0.18773392 -0.16693945 -0.22106397 0.0870316 0.31018955 -0.0022337972
-0.3227923 -0.052972555 -0.08102164 -0.15822186 0.13320051 0.12477163 0.022032173 -0.2071359
-0.2213758 0.11584215 0.1646567 -0.116010495 0.37521505 -0.13436955 0.20435894 0.2607592
0.20877333 0.055644598 0.3721562 -0.06219677 0.21413222 0.26657242 0.17566931 -0.23787944
-0.1399931 -0.21607299 -0.021660836 0.03401169 -0.28153768 -0.061798908 0.09739132 -0.20359662
-0.29223648 -0.019738661 -0.13760442 -0.25448108 -0.25809562 0.051615786 0.32275724 0.2947346
-0.30734146 0.12108998 0.25756195 -0.0536077 0.10108859 -0.3186012 0.38765267 -0.321628
-0.20199175 0.03336697 0.1603485 0.0815839 -0.14728186 0.25229502 0.15545264 -0.16342908
-0.13736981 -0.109052174 0.15727247 -0.3104859 -0.2938568 -0.22726423 -0.24839532 -0.018603094
-0.13074522 -0.05450594 -0.24800889 0.11562013 0.30040643 0.18315999 0.26988244 0.33464536
-0.11201804 0.23980527 0.23894773 -0.35103497 0.013975943 0.18166406 -0.010316439 0.066555485
0.22830161 -0.052102327 0.33021706 0.24337922 -0.015054662 0.30588925 -0.3404251 -0.33565283
0.012570008 0.030873 0.26399028 -0.25829047 -0.07965498 -0.16350046 -0.21465574 -0.030288704
-0.371864 -0.21216582 0.21582016 -0.13828655 0.12489098 0.1834962 -0.08931583 0.35394016
-0.09424644 0.32422718 0.10453818 0.029032163 -0.27315044 -0.18594494 0.09747172 -0.25361943
0.22864774 0.34100032 0.25954288 0.3207861 -0.2667286 -0.11630637 -0.16949545 0.08003167
-0.09048238 0.27356303 0.12295256 0.16375767 -0.123449795 0.30013198 0.09531211 0.03807486
-0.04220518 -0.2838463 -0.013033906 0.29124638 0.13547413 -0.01789503 0.0053489017 0.122935794
0.0034903008 -0.1343565 -0.30630183 -0.28493953 -0.32298937 0.1910988 0.21440352 -0.025064202
0.12756345 0.27651858 0.32923985 -0.1018794 0.07472988 0.11889098 -0.21664423 -0.21664706
0.27088892 -0.33762506 0.17980625 -0.10103435 -0.11031488 -0.13654871 -0.09426756 -0.41906512
0.26571354 -0.038348537 0.08620113 -0.21302463 -0.029906616 -0.24016547 -0.03383866 0.18096648
0.26643997 -0.05410217 -0.07162529 -0.32960767 0.020116346 0.35373166 0.044191502 0.020272987
0.2301636 0.28439066 0.0072672707 -0.2762435 -0.06121741 0.02680404 -0.20781344 0.2809036
-0.24728844 0.12990086 -0.15510178 -0.26839805 0.30764544 0.2611272 -0.029319948 -0.046474934
0.011464091 0.26142883 0.037773985 -0.050759334 -0.25148758 -0.06131773 0.17987387 0.21909471
0.32721534 -0.21367753 -0.33033556 0.087006316 -0.0060884207 -0.07377621 -0.06845804 -0.26839983
-0.026203088 -0.10382317 -0.31521773 -0.33853745 0.027163394 0.23952213 0.13961932 -0.36045685
0.38624418 0.29465508 -0.020126738 0.15787631 -0.06424542 0.12448852 -0.38451758 0.33237168

sequential_34/Btch_Norm-2/FusedBatchNormV3;StatefulPartitionedCall/sequential_34/Btch_Norm-2/FusedBatchNormV3 f4 [38]
00000000: 1ca9 4a3f 1f16 24be ece4 af3d 5c11 683e
00000010: 0653 7dbe 103f c7be 2159 50bf 93d5 04be
00000020: 5c12 383f 9490 febe 9089 3b3f 8ad4 003f
00000030: cf43 2e3f da1f 40bf 3e69 5d3f 5857 583f
00000040: 7035 b33d 0c44 5d3d 5f4a a8be 04f2 5dbe
00000050: 7d35 2a3f 141d e53f 689f 05c0 fd20 8a3e
00000060: a6c4 00bf 9eed ed3e 722c a4bf cf39 d9bf
00000070: e2be 04bf c7ee 3040 2a84 2d3f c33a f6bc
00000080: 142d c73c 4947 1740 55ea 73be 696b 1940
00000090: 7da1 e5bf 7fde 35bf
0.7916429 -0.16024064 0.08588585 0.22662872 -0.24738702 -0.389153 -0.81386 -0.12972097
0.71903014 -0.4971968 0.7325678 0.5032431 0.6807222 -0.750486 0.8648871 0.84508276
0.08750427 0.054019973 -0.3286924 -0.21674353 0.66487867 1.7899499 -2.0878544 0.26978293
-0.5030006 0.4647035 -1.2826064 -1.6970767 -0.51853764 2.7645738 0.6777979 -0.030057317
0.024313487 2.363726 -0.2381986 2.3971808 -1.7939907 -0.7104263

sequential_34/Conv2D-1/Conv2D;StatefulPartitionedCall/sequential_34/Conv2D-1/Conv2D f4 [38, 3, 3, 1]
00000000: 0e3a 313e 7c5d 813d bd5c 6dbd 5c53 40be
00000010: 101f dd3d 6874 88bd 2b63 33bd 97dc 163e
00000020: 40a9 a0bd d130 d83d 671b 52bd 77f7 bcbb
00000030: ee60 a7bd a78a c83d 279d 163c 68fc b5bd
00000040: 6b5a b4bd 4317 963d 8613 873d 19d4 633d
00000050: 69b3 f0bb 854c c5bc 7425 9dbc 488e 6fbc
00000060: 62d7 f33c a2da aabc 30b5 1c3d 67e3 21bd
00000070: d44f c83c 648d 3cbb 04f6 c03c 4255 0fbe
00000080: e357 c53d 020e 5bbd f933 efbc 78d6 223d
00000090: b49c 9cbe d139 2abe 3bc2 303d afda 2f3c
000000a0: ae52 20be f0ab 143e 90ad 903e cd3d 193e
000000b0: 4586 3abe 7fc1 6dbc 8171 98bd f4b7 a83d
000000c0: dd25 28bd ec7a c73d c14a 9cbd 2379 fa3d
000000d0: f650 91bc df1a 703d a52b 95bc 59ac c23d
000000e0: 1fae 40be ee25 a6bb d17a 21be be0d 0bbe
000000f0: 7151 30bd 49ab 3e3e ffb7 3cbd e620 b73c
00000100: 5838 183c 4d67 84bd 318b 4dbd d9f0 a23c
00000110: 8547 e5bc e38c 31bd 2dfc 8c3d 4406 2c3c
00000120: 3ddb 6b3d d132 d13b 46fd ce3b e434 333d
00000130: ac3b 92bd 5b63 3cbd 8022 07bd c17a 853c
00000140: ff66 86bd 8cfc fa3c e84b c5bc 4fe9 c73c
00000150: eb2c cf3c 3035 36bb 5d46 b73c 6543 963c
00000160: 0cc6 423c 13be 09bc fdb7 3a3c 900d 293d
00000170: ba22 733c 3ccf 423d 533e 183d 3390 cebc
00000180: e38e 5d3c 3a39 af3c dbd2 073d ef66 59be
00000190: 2c4f 223e b8a1 fb3d de30 353d 5c0c a3bd
000001a0: 4533 ba3d bea5 553e 6804 2b3e 4cae 143d
000001b0: 7709 8fbc 69a0 31bd 4081 0abd 4670 683d
000001c0: ff99 923d fcbb b9bc f7ab 083d c5a4 923d
000001d0: ec4e 6abd d5d7 20bd 4c9d d1bc 46fd 1bbd
000001e0: c2e3 743c 441f f93c aa01 1f3d f7ee 3fbd
000001f0: 560c 423d 64d9 cbbc fb70 58be 7956 67be
00000200: 199d 5ebe 015d 233d 7156 2ebd e15a 4ebe
00000210: ad79 463e 0545 64be aa13 e5bd bcdf 703e
00000220: 421c e4bd 68f4 97bd bbf8 d03d 077e 30be
00000230: 1d33 5d3d 4fb4 a6be 8451 7d3e 1be8 153e
00000240: b9a0 cd3c 9668 883d 455d cd3d 0cb8 64bd
00000250: a714 3ebd 4c1f 963d d031 16bd 0785 59bd
00000260: aff3 89bd 9e3a 75bd 21b4 dbbc 46b6 0b3d
00000270: ea6e 083d 4944 a33d 71b7 9fbc 6329 31bd
00000280: 5449 873d 2923 443d c3aa dcbb 90ac 0cbc
00000290: a1ec 3a3c f613 cfbc 932b cabb be88 613c
000002a0: 63f4 17bd 64ee 34bc 1cc3 1e3d 2973 763d
000002b0: c45f 9bbd b8d6 94bd 6b18 0abd e2e4 5ebd
000002c0: 114c 8c3d f05c 363d 381d ffba 2c09 023d
000002d0: 9c7f b73c dccd 513c b7ee b8bb ab8e 363d
000002e0: 0056 fabc 9310 f3bc d544 c23b 7f1c 8bbc
000002f0: 4cce 423d fb1b 133d 93b9 82bd 22aa 0fbd
00000300: 3cc0 a3bc f358 9e3d fb8f cbbc 68a2 593d
00000310: e102 673d d5ab 763c 4536 34bc 1a78 163d
00000320: a887 663d 2de7 9cbd d261 09be 062e 7c3d
00000330: 8ba2 b03c 7453 09be 2a6b 403d 612c 893c
00000340: 0a74 a33c 9986 d03c 8a42 043d 1f73 d93c
00000350: 24ef e8bc 5507 b83c e283 86bc 7a9c 053d
00000360: 651a 11bd 2baf 9a3c eafd dbbc 882d 17bd
00000370: a803 cc3b 5eda 21bd ddab 983a a1d7 9fbc
00000380: 9af5 23bd a3f1 253d 687b 9dbd f6c7 3f3d
00000390: 4f30 d53c f073 04bc b084 053b 622d c83b
000003a0: 56f8 90bc 873e 15bd da07 01bd 0dc7 af3d
000003b0: 5b06 443d e8cd 01bd d5a0 033d f7c0 223c
000003c0: 74e7 05bc d35a 773d da68 34bd 179e 1b3d
000003d0: 15dd 443b b0bd 45bc 3aea 343d df8e c6bc
000003e0: b7d6 17bc df64 00bc a2f9 8b3c 75fa 10bc
000003f0: cac9 133d f6e3 7bbb c782 9dbb 6399 d33b
0.17307302 0.06316659 -0.05794977 -0.18781799 0.1079694 -0.06662828 -0.043795746 0.14732586
-0.07844782 0.10556186 -0.051295664 -0.005766805 -0.08172785 0.09792071 0.0091927415 -0.08886033
-0.08806308 0.073286556 0.06595521 0.055622194 -0.007345606 -0.024084339 -0.019182898 -0.014621325
0.029765788 -0.020856205 0.03825873 -0.03952351 0.024452128 -0.0028770799 0.02355481 -0.13997367
0.09635904 -0.053480156 -0.029199587 0.039755315 -0.30588305 -0.16623618 0.043153983 0.010733291
-0.1565654 0.14518714 0.28257418 0.14964981 -0.18215282 -0.014511465 -0.07443524 0.08238211
-0.041051734 0.09740242 -0.07631446 0.12230136 -0.0177388 0.058619376 -0.018209288 0.09505529
-0.18816422 -0.0050704395 -0.15769507 -0.13579461 -0.04304642 0.18620028 -0.04607391 0.022354554
0.009290777 -0.064650156 -0.05018157 0.019890236 -0.027988205 -0.04334725 0.06884036 0.010499541
0.05758213 0.0063842316 0.0063168136 0.043751612 -0.07140288 -0.04599319 -0.032991886 0.016293885
-0.06562614 0.030638002 -0.024084046 0.024403242 0.025289973 -0.0027802698 0.022372419 0.018342683
0.011888038 -0.008407134 0.011396405 0.0412727 0.014839822 0.047560915 0.037168812 -0.025215244
0.013522836 0.021389592 0.03316007 -0.21230672 0.15850514 0.12286705 0.044236057 -0.07961342
0.0909181 0.20864007 0.167009 0.036299035 -0.017460568 -0.04336587 -0.03381467 0.056747697
0.07158279 -0.022672646 0.033367123 0.071603335 -0.057204172 -0.039268333 -0.0255877 -0.038083337
0.01494688 0.030410416 0.038819946 -0.046858754 0.047375046 -0.024883933 -0.21136849 -0.2259158
-0.21739615 0.039883617 -0.042562906 -0.20151855 0.19382353 -0.22291954 -0.11185391 0.23522848
-0.11138202 -0.07419664 0.102036916 -0.17235576 0.054003824 -0.3255944 0.24738127 0.14639322
0.025101053 0.06660573 0.100275554 -0.055839583 -0.046406414 0.07330188 -0.0366686 -0.05310538
-0.06735932 -0.059870355 -0.02681929 0.034109376 0.0333089 0.07972009 -0.019496651 -0.04325236
0.06605783 0.047885094 -0.0067342236 -0.008586064 0.011408956 -0.025278073 -0.0061697452 0.013765512
-0.0370983 -0.011043165 0.03876029 0.06016842 -0.07586625 -0.07267517 -0.033714693 -0.0544175
0.06850446 0.044522226 -0.0019463664 0.03174703 0.022399716 0.012805428 -0.0056436914 0.044569653
-0.030558586 -0.02967099 0.0059286156 -0.016981361 0.04756002 0.035915356 -0.06383052 -0.03507436
-0.019989125 0.077318095 -0.024848929 0.0531334 0.05639923 0.015055616 -0.010999267 0.03673563
0.056281716 -0.07661281 -0.13416222 0.06156733 0.021561882 -0.13410741 0.0469772 0.016744794
0.019952793 0.025454806 0.03229002 0.026544152 -0.028434344 0.022464434 -0.016420309 0.03261993
-0.035425562 0.018882355 -0.026854474 -0.036908656 0.006226022 -0.03951489 0.0011647899 -0.019512
-0.040029146 0.040513646 -0.076895535 0.046821557 0.026024012 -0.008084282 0.0020373277 0.0061089257
-0.01769654 -0.036436584 -0.03150163 0.08582888 0.047857624 -0.031690508 0.032135803 0.009933702
-0.0081728585 0.06038935 -0.044045307 0.037992563 0.0030039002 -0.012069151 0.04416869 -0.024238048
-0.009267501 -0.00783655 0.017086808 -0.008848776 0.036081113 -0.0038435436 -0.0048068496 0.006457494

sequential_34/Conv2D-2/Conv2D;StatefulPartitionedCall/sequential_34/Conv2D-2/Conv2D f4 [38, 3, 3, 38]
00000000: 8514 0dbd 1bc3 cebc 02e6 28be fec8 5f3d
00000010: 20c9 073e 4b76 f3bd 9f7a 113d a2fe c63b
00000020: 70bb 78bd a013 4fba 2a77 febd 98a6 27bd
00000030: 751a 433d ddc3 1abd 8315 8b3d 8da4 e83d
00000040: 1948 17be a3bc 27bd a117 14be 6367 8f3d
00000050: a2ee dd3d 5ab6 0dbe a094 3e3c 72e2 a83d
00000060: 34a8 d23d 321e a23d 7834 ebbb f3c4 a5bd
00000070: 56c8 5b3d dd0a 8ebd 3b00 d5bd cfc7 a33d
00000080: 3bea b2bd cfda e93d 1739 ed3d 696f 96bb
00000090: 538e dd3c a97e da3c 26ba 293d a3cf 513c
000000a0: 5b7e 0dbe da75 3c3e 037d 42bd 4941 e3bd
000000b0: f8fd 5abc d61e 853d ca85 093e b955 bdbb
000000c0: 997e fb3b 6b64 51bd ffdc 403d b144 ff3c
000000d0: ea39 4e3d 2c17 a53d cd94 003e 3704 88bd
000000e0: 805b a13d cd02 833d 4203 9ebd 1be3 b83d
000000f0: a1a8 b13c 193a d93d 5181 403d 6eed ddbd
00000100: 86a6 41bc 10b0 96bc 0b07 bbbc a073 3fbe
00000110: 0666 b6bd 8db4 02be 421d 403e d452 ee3d
00000120: 2d29 2d3e 23c8 b83d 5edb c13d 5736 93bd
00000130: 4a25 3ebd e47f 76bd e8a0 f63d df5e cbbb
00000140: 56eb b4bd d963 813c 7957 883d a258 043d
00000150: de57 bb3d c353 0cbe 6a87 debd 6bab 0cbe
00000160: 6541 23be 4e79 863d 70a6 d6bd 91f5 e3bd
00000170: 5bf7 01be 8101 103e 201f 843d 3901 f33d
00000180: d344 0bbe 8d9d bbbc b1e9 333e 0860 f0bd
00000190: 399c 153e bc48 e43d 7049 0dbe b6c6 a73d
000001a0: 92f6 f2bd f978 253b 2f8e 1e3e 6bfd bf3c
000001b0: b116 febc 733b 4a3c a2d0 86bd 1c7b 123e
000001c0: 3a7c 26bd bb1b 48bd b072 3ebd b7c5 c43c
000001d0: ee47 a1bd 9a45 b33d acf8 6abd 42b8 10be
000001e0: 9508 103e 6ddd dd3c 9835 023e 529f 68bd
000001f0: c85a 15be bcad 4cbe ac24 fcbd 6d1c 24be
00000200: 8ee4 a4bd bd75 133e 5d35 b63d 4707 0c3d
00000210: 93a1 00be b1eb f9bd 9767 a83c d5ed 91bd
00000220: 0739 c23d e4c7 f8bd c610 25be ef62 f8bd
00000230: e1f1 b1bb 029b 3cbe 0e90 fbbd 4afb 17bd
00000240: 4866 0fbe d650 f9bb 443a 483e 7498 ce3d
00000250: 6601 073e 1fd1 cbba 0763 c73d 8b97 14be
00000260: 0f8f dd3d 3b1d bbbb f944 20bd 84d4 8dbd
00000270: 29e5 d83d f9f1 cf3b 85d7 9dbd 8eaa 3b3d
00000280: 212c 3ebe 75fa 2bbe 8c9f 333d ccd3 57bd
00000290: b756 f83d eed7 553d 8550 93bc b8ec 2dbe
000002a0: 07ed 073e fffd 363d 0138 db3d c352 22be
000002b0: d45d 963d 2cb0 f2bd 9993 2bbc d03a 67bd
000002c0: 44c7 013e 51d1 b93d 2b8b 163d b167 2dbe
000002d0: f9d3 1bbe 973b 193d de47 1a3e 9c05 f3bb
000002e0: 06f7 6dbd 38d9 2cbe 6d5c 133e c7ec 0b3e
000002f0: 178d db3d 0709 2fbe 65de 9ebc e407 fcbd
00000300: b50b f4bd 58e9 f13d 4ef2 05bd 9ff3 ccbd
00000310: 3176 d2bc c14d 13bd bbc6 033e eefe cc3c
00000320: d776 0a3e 13be 0b3c fb58 cfbd 38d5 44bd
00000330: 8b9e ea3c 57c8 6dbc 38cf fcbd a1b8 c03d
00000340: cb23 383c de3d 3fbc d13d 0c3e c3ee f7bd
00000350: 0030 a83d bacc 9e3d 81a2 3fba e0a9 df3c
00000360: c396 7b3d 285e e43a bdc1 153c 649f 1b3d
00000370: 3f16 fabd dd76 b0bd bd8f 10bc 9b6f 4d3d
00000380: e239 cabd c5e0 00be 07d8 343d 0247 e83a
00000390: c69e 273e e7aa fe3d 1966 18bd 7ce1 7c3d
000003a0: d797 9b3d 4356 ef3d 2c16 8dbd a332 f5bd
000003b0: c7a0 843d dfae cfba bf81 883d e9d8 2a3d
000003c0: 036b 533d 7d0a f4bd c521 d53d 0fb3 dd3c
000003d0: 5b6e 883d 3c07 033e 3c00 04be 7da7 f43d
000003e0: fb7b 30be a182 d8bc f0ec d73c ae12 723d
000003f0: 55f8 023e 2fac 03be ebda a13d 1fe3 34be
-0.034443397 -0.025239518 -0.16493991 0.05463504 0.13260317 -0.11887797 0.03551733 0.006072835
-0.06072563 -0.00078993477 -0.124250725 -0.04093036 0.047632653 -0.037784446 0.067912124 0.113595106
-0.14773597 -0.040951382 -0.14462139 0.07002141 0.10836531 -0.13839093 0.011632115 0.08246316
0.102859885 0.079159155 -0.0071778856 -0.08094206 0.053657852 -0.06935666 -0.104004346 0.07997095
-0.08736082 0.114186876 0.11583155 -0.004590918 0.027045405 0.026671724 0.04143729 0.012805852
-0.13817732 0.18404332 -0.0474825 -0.110964365 -0.013366215 0.06500022 0.13429943 -0.005778041
0.0076750037 -0.051121157 0.04708576 0.031160684 0.0503482 0.0806106 0.12556763 -0.06641429
0.0787878 0.063970186 -0.07715465 0.09027692 0.021686854 0.106067844 0.046998326 -0.10836302
-0.011819487 -0.0183945 -0.022830507 -0.18696451 -0.08906178 -0.12764187 0.18761161 0.11636892
0.16910239 0.09022548 0.09465669 -0.07188099 -0.04642228 -0.06018056 0.12042409 -0.006206378
-0.08833949 0.015794681 0.06657309 0.03231109 0.09147619 -0.13703828 -0.10865672 -0.13737266
-0.15942915 0.06566106 -0.10480964 -0.111308224 -0.12692015 0.14063074 0.06451249 0.118654676
-0.13600473 -0.022902275 0.17569615 -0.117370665 0.14610375 0.111466855 -0.13797545 0.08192198
-0.11863436 0.0025249107 0.15483926 0.023436269 -0.03101668 0.012343275 -0.06582762 0.14304775
-0.040645815 -0.04885457 -0.046496093 0.024020059 -0.078750476 0.0875351 -0.05736606 -0.14132789
0.14065774 0.027083123 0.12715757 -0.056792565 -0.14585412 -0.1998815 -0.12311682 -0.16026469
-0.08051406 0.14400382 0.08896897 0.034186628 -0.12561636 -0.12203158 0.020557208 -0.07125441
0.09483533 -0.12147501 -0.1611968 -0.12128245 -0.0054304455 -0.18418506 -0.122833356 -0.037104882
-0.14003861 -0.0076085133 0.19553477 0.10087672 0.13184127 -0.0015549994 0.09735685 -0.14510934
0.10818302 -0.0057102717 -0.039128277 -0.069253 0.10590584 0.006345984 -0.07707123 0.04581695
-0.18571521 -0.1679476 0.043853328 -0.05269222 0.121259145 0.05220788 -0.01798273 -0.16984832
0.13274013 0.044675823 0.10704041 -0.15851884 0.07342115 -0.11850008 -0.010472202 -0.056452572
0.1267367 0.09073127 0.036753815 -0.16934086 -0.1521758 0.037410345 0.15066478 -0.00741644
-0.058096908 -0.16879737 0.14390726 0.13664542 0.1072027 -0.17093287 -0.019393155 -0.123061925
-0.119162954 0.11812085 -0.032701783 -0.100074045 -0.025691124 -0.035962824 0.12868778 0.025023904
0.13521896 0.008529204 -0.101243936 -0.048054904 0.028640052 -0.014513097 -0.12344211 0.09410215
0.011239002 -0.011672465 0.13695456 -0.12106087 0.0821228 0.07753892 -0.0007310287 0.027302682
0.061423074 0.001742308 0.009140429 0.037993804 -0.12211274 -0.08616421 -0.008823332 0.050155263
-0.098743215 -0.12585743 0.044151332 0.0017721357 0.16369161 0.12434941 -0.037206743 0.061738476
0.075973205 0.11686375 -0.068889946 -0.11972549 0.06475978 -0.0015844962 0.06665372 0.041710768
0.051615726 -0.11916063 0.10406832 0.02706292 0.06661674 0.12795728 -0.12890714 0.11946008
-0.17234795 -0.026429476 0.026358098 0.059099846 0.12790044 -0.12858652 0.079030834 -0.17664765

sequential_34/Conv2D-3/Conv2D;StatefulPartitionedCall/sequential_34/Conv2D-3/Conv2D f4 [38, 3, 3, 38]
00000000: 4550 533c c418 813c bc74 373e b4e6 483d
00000010: ed79 f23d 26d1 b13d f9cf 1abd af7e 9dbd
00000020: a5d6 53be f818 073e bdd7 f5bd 61ab 073c
00000030: cdb3 643c 0ea4 abbd 428b bf3d 539d a9bd
00000040: 84db 51be bee5 ef3d 00df 1dbe 1831 bbbd
00000050: a049 063e 9388 aa3d 72c5 233d 095f 033e
00000060: ebe9 17be 51a7 93bd cdd6 54bd 0a4a a33d
00000070: 2c8b 90bc e101 0b3d dd75 0c3e e018 1e3e
00000080: 25f6 ac3d de99 bbbd 6127 40bd 028a 1b3e
00000090: 795b 75bd 18ab 2e3e f627 19bd 0d28 703e
000000a0: 9de1 94bc f050 03be 1737 013e 90ba 12bd
000000b0: 2f88 0c3e 6d41 86bd a356 56be 03c3 af3b
000000c0: 4160 253c c041 8bbd 3e77 573e c629 12bd
000000d0: 0bf9 063e b956 6bbd 9bbf 95bc c78a c9bc
000000e0: 5eef d73d 2e7c 9cbd 5860 883b c297 88bd
000000f0: b849 523e 7354 42bc c1c6 81bd caec 48b8
00000100: 557c 1b3c ae61 a13d 6802 e43c 4dd7 cabc
00000110: 9735 5b3e dcda a83d 2607 34be ed52 3bbd
00000120: 8e16 1c3e 9a64 2dbe 3ed9 03be 3af4 be3c
00000130: 1584 b3bd a03c 003e b325 f43d 0adc b5bd
00000140: 1a4f 46bb 8c00 05be bff0 573e 32dc b6bc
00000150: 33e1 173e 06f6 5bbd 7062 83bd 00a1 ff3d
00000160: b425 86bd 3f90 023e 3da8 263e 2bc5 a5bd
00000170: 5399 283d 3886 41be 549c 123e a77d 0fbe
00000180: a38d 40be e182 45bc 2999 153e 7c27 9c3d
00000190: 604b bf3d d329 17be 188c 7a3b 330f 03be
000001a0: 6b0b 1f3e 8639 5abe 7666 b0bd c240 e93d
000001b0: 75a3 313d a44a c2bd a511 a23d cca8 8a3d
000001c0: 524f 853d 4932 e73d 43c8 df3d 37ed 413e
000001d0: 1a59 74bd aaec cfbd b07a 073e 0115 4dbd
000001e0: 8eaa 293d 2746 ed3d 9d9c ac3c 5288 26bd
000001f0: 061d 6b3c a41a 0bbc 553c 073d c33d 07be
00000200: dee7 823d 587e 413e 82d7 40be a400 94bd
00000210: b676 2e3e 1ecc 303e bd5f 1dbe 68e8 ecbb
00000220: 7571 ce3c 2490 27bd 5f58 cb3d aa1b 863c
00000230: 093a f7bc 81f3 a03c 4a32 d4bd 868f 33be
00000240: c23c 5c3e fe3a 8e3c 3ae4 c7bd ff5a 543e
00000250: 81ed 4cbd ef98 f83c 3baf 6d3d 3736 cfbc
00000260: 60b1 3cbd 5632 2a3d d9a4 ecbd 4743 10bd
00000270: 4e6e 573e 2aa3 a53d 20f6 513d ba07 c0bc
00000280: a8a0 e53d 3767 99bd 723d 0e3c aa42 e13d
00000290: 54a0 683d ed51 1fbd 70ac 483d b4d1 e03c
000002a0: d35d d6bd 4037 623d fe92 a63a 7273 f43d
000002b0: 01af f43d 968e 493e 43ff c5bd 43dc 803c
000002c0: b0b2 af3d 5f40 153d 10f8 8d3c 13e7 a23d
000002d0: 15c2 e13d 6cbf bc3d 8eb4 103e db0f 8e3d
000002e0: 37fb a33c 166b 79bd 446c 9dba 657a 113e
000002f0: 3e7f 34be c157 c9bc 7bf8 1ebe 96ae e43c
00000300: 0ab9 5cbe b2df bebd e2eb 113e 40fa 92bd
00000310: c179 073e 6546 6ebe 2bd6 88bd 11b5 dbbd
00000320: 2306 0ebe ea5d c03d 601b 023e 8894 e8bd
00000330: 0663 2a3e 5dd8 63bd 1110 0fbe 91bd 913d
00000340: 2140 973d bbc1 f43c 295e 713c 3f8f 15bd
00000350: 5700 24be 563e 8cbd 6a77 113e f7d6 3abe
00000360: 6640 b63d 571c 85bd b321 513d 8607 3bbe
00000370: a749 26bd c8e9 4cbe f5ad 2d3e 410e f5bc
00000380: f259 69be 590d 163d f3d9 0a3d 1d24 ea3d
00000390: 714c 673d d260 cf3d 7b06 1fbe 74a1 11be
000003a0: 811c 0ebd 7f57 aebd 8347 393e 09aa 2a3c
000003b0: dee0 c4bd 98e5 243e 0fbb 14be fe9a 1f3e
000003c0: fba1 8abd b05e 7cbe 8a60 f73d a760 ddbd
000003d0: 3150 bbbc a5f4 0a3e 9be6 88bd 32d3 81bd
000003e0: abe9 583d aaba b5bd 6d74 123e d2c3 9bbd
000003f0: 3617 25be 6d7e 11be a5f3 033d 9d24 07be
0.012897556 0.01575888 0.17915624 0.04904814 0.11839662 0.0868247 -0.037795994 -0.076901786
-0.20687349 0.13193119 -0.120040394 0.008280606 0.0139588835 -0.083809 0.09352733 -0.0828196
-0.20493895 0.11713742 -0.15417099 -0.09140223 0.13114023 0.08326831 0.03998322 0.12829222
-0.14835326 -0.072096474 -0.051962662 0.07973106 -0.017644487 0.03393734 0.13716836 0.15439177
0.08445386 -0.09160207 -0.046912555 0.15189365 -0.05990169 0.17057455 -0.037391625 0.23452778
-0.018173987 -0.12823844 0.12618671 -0.03582245 0.13723825 -0.06555448 -0.20931487 0.0053638234
0.0100937495 -0.0679965 0.21041581 -0.03568437 0.1318094 -0.057455752 -0.018279841 -0.024602307
0.105437025 -0.07640873 0.0041618757 -0.066695705 0.20535934 -0.011860955 -0.063367374 -4.7904243e-05
0.009490092 0.07879959 0.027833179 -0.024760867 0.21407162 0.08244869 -0.17580852 -0.04573338
0.15242979 -0.16932908 -0.1287584 0.023309816 -0.08765427 0.12523127 0.11921253 -0.0887986
-0.003025955 -0.1298849 0.21087931 -0.022321794 0.14832 -0.053701423 -0.0641526 0.1248188
-0.0655016 0.12750338 0.16275115 -0.080942474 0.041161846 -0.18898857 0.14317447 -0.14012776
-0.1880403 -0.01205513 0.14609207 0.076247185 0.093405485 -0.14762048 0.0038230475 -0.12798767
0.155317 -0.21311006 -0.08613293 0.11389305 0.043368775 -0.09486893 0.07913522 0.06770477
0.0650927 0.11288888 0.10926869 0.18938147 -0.059655286 -0.10152562 0.13230395 -0.05006886
0.04142242 0.11585646 0.021070773 -0.04065735 0.014350181 -0.008490238 0.03301652 -0.13207154
0.063918814 0.18895853 -0.1883221 -0.07226685 0.17037472 0.17265365 -0.15368553 -0.0072298534
0.025200585 -0.040908948 0.09928965 0.016370613 -0.03017904 0.019647362 -0.103611544 -0.17535219
0.21507552 0.017362114 -0.09760328 0.20737837 -0.05003119 0.030346362 0.05802844 -0.025294406
-0.046067595 0.04155191 -0.1155488 -0.03522041 0.21038172 0.08087762 0.051260114 -0.023441184
0.112122834 -0.0749039 0.008681642 0.10999043 0.056793526 -0.03889649 0.048992574 0.027443744
-0.10467114 0.05522847 0.0012708602 0.11936082 0.11947442 0.19683298 -0.09667828 0.015730029
0.08579004 0.036438342 0.0173302 0.0795423 0.11023346 0.09216198 0.14131376 0.06936618
0.02001725 -0.06089314 -0.0012010415 0.14206846 -0.17626664 -0.024577977 -0.15524475 0.02791528
-0.21554962 -0.0932001 0.14250138 -0.07176638 0.13230039 -0.23269041 -0.06681474 -0.10727895
-0.13869528 0.09392913 0.12705755 -0.11356455 0.16639337 -0.055626262 -0.13970973 0.07116235
0.073852785 0.029877534 0.014731922 -0.036513563 -0.16015755 -0.06847827 0.14205709 -0.18246065
0.08899002 -0.06499546 0.05105753 -0.18264589 -0.040597584 -0.20011055 0.1696089 -0.029914023
-0.22788218 0.036633823 0.03389926 0.11432669 0.056469385 0.10125889 -0.15529816 -0.14221746
-0.034695152 -0.08512782 0.18093686 0.010416516 -0.096132025 0.16103208 -0.14524482 0.15586469
-0.067691766 -0.24645495 0.1207896 -0.108094506 -0.022865387 0.13569887 -0.066846095 -0.063391104
0.05295722 -0.08873494 0.14302225 -0.07605709 -0.16122136 -0.14208384 0.03221478 -0.1319756
