Homework2/new ex2/models/cnn_V_a_alpha=0.3.tflite (tflite, 110712 bytes, 8 tensors)

unknown_15 f4 [8]
000000 e2 1e 81 bd 9c a7 c2 3c 86 98 2d bd 09 87 18 3d
       -0.063047186 0.023761563 -0.042381786 0.037238155
000010 d6 6f 6e bc f3 1c 33 3d ec 63 0d 3d 1d 3e a7 3c
       -0.014553031 0.04372878 0.03451912 0.02041536

sequential_1/Btch_Norm-1/FusedBatchNormV3;StatefulPartitionedCall/sequential_1/Btch_Norm-1/FusedBatchNormV3 f4 [38]
000000 4c cb 87 3e da b8 56 3e 8c 48 73 be fb 1d 51 be
       0.2652229 0.20968953 -0.23758143 -0.20421593
000010 73 c2 3f 3d 94 0f 4d be fe f1 65 be 75 71 09 be
       0.0468163 -0.20025474 -0.22455594 -0.13422187
000020 b2 1a 3c 3e 3d 9a 17 3e c3 96 87 3e 4b 3b 59 be
       0.18369558 0.14804931 0.2648221 -0.21214025
000030 88 79 4f 3e eb 7f 5e be de 56 75 3e e7 7d 2a be
       0.20261204 -0.21728484 0.23958918 -0.1664959
000040 45 fc 95 3e 49 d2 5c 3e 08 dc 37 be d5 f5 9a 3e
       0.2929403 0.21564592 -0.17955029 0.3026568
000050 06 5c 65 3e 01 49 7c be f0 a5 db bd aa 06 c6 bd
       0.22398385 -0.24637224 -0.107250094 -0.0966924
000060 25 3e d3 3d 6b 02 89 3e 68 d8 8f 3e bc 3f 2c 3e
       0.103145875 0.26759657 0.28094792 0.16821188
000070 73 02 72 be e0 b4 55 be fa 15 a4 bd 01 6a 52 bd
       -0.23633747 -0.2086978 -0.08012004 -0.051370624
000080 fa 71 28 3e be 84 86 3e 8b 04 73 3e e8 5c 77 3e
       0.16449729 0.2627315 0.23732202 0.24156535
000090 07 10 3c be f9 2d 80 be
       -0.18365489 -0.25035074

sequential_1/Btch_Norm-3/FusedBatchNormV3;StatefulPartitionedCall/sequential_1/Btch_Norm-3/FusedBatchNormV3 f4 [38]
000000 bc 12 dc be d0 85 9f bd ef 04 b5 3e 97 5b fe be
       -0.42983043 -0.077891946 0.35355327 -0.49679253
000010 f5 4e 10 bf 2c 1b f5 be 64 d3 54 bf 52 df 5e bf
       -0.5637048 -0.47872293 -0.83135056 -0.8705951
000020 3c b8 11 3e 88 92 14 bf 88 c0 27 bf dd 59 54 3e
       0.14230436 -0.5803609 -0.65528154 0.20737405
000030 6c c1 9a bf 6e 89 7f bf 0e 2b 7a bd 2f a2 04 bf
       -1.2090278 -0.99819076 -0.061076216 -0.5180997
000040 62 91 5a bf 1d 25 b3 bd 1d ee ed bd 34 8b 57 bf
       -0.85378087 -0.08747313 -0.11617682 -0.8419678
000050 be 9d 86 bd 48 f9 99 bf 46 31 d1 3c 28 88 53 3d
       -0.06573056 -1.20292 0.02553619 0.05164352
000060 25 2d 16 bf 7a 1e dd be 1c 95 a0 bf c4 2e 73 3e
       -0.58662635 -0.43187314 -1.2545505 0.23748308
000070 35 cb 89 bf 3a 26 6b bf c2 eb 88 bf cc cd 6a bf
       -1.0765139 -0.91855204 -1.0696948 -0.9172027
000080 75 d0 0c bf 8f 83 8c 3e 6a ca 5d be 41 d9 66 bf
       -0.5500558 0.2744412 -0.21659246 -0.90175253
000090 c5 da 24 bf e8 87 03 bd
       -0.64396316 -0.032112032

sequential_1/Output-Layer/MatMul;StatefulPartitionedCall/sequential_1/Output-Layer/MatMul f4 [8, 38]
000000 dc b5 94 3e ee e3 99 be 69 28 aa 3d f1 0f 9c 3e
       0.29044998 -0.3005671 0.08308489 0.30480912
000010 6d 18 81 3e b4 24 b6 bc d1 cd ee b9 e4 e5 82 3e
       0.25213948 -0.022234298 -0.00045548243 0.25566018
000020 6d b6 7a bd 0d c0 7e 3e e7 0a 98 3e f1 92 55 bd
       -0.06120913 0.24877949 0.29695818 -0.052142087
000030 2c 10 68 be 08 76 9d be 55 9f 2d be 4d 94 91 3b
       -0.22662419 -0.30754113 -0.16955312 0.0044427277
000040 10 6f 2d ba 2a 4e d0 bd 06 7a 24 be a9 1d 29 3e
       -0.0006615976 -0.101711586 -0.16062173 0.1651522
000050 6a 3c d6 3d ec de ac be a0 b8 8d 3e 0a c1 8a 3e
       0.10460742 -0.33763826 0.2767992 0.27100402
000060 fa f5 db be da b2 a7 bd 37 ba 93 be 12 6a 73 3e
       -0.42961103 -0.0818841 -0.28853008 0.23770931
000070 43 f2 b5 3d 05 83 9a 3c a2 81 be bd d6 32 7a be
       0.088840984 0.018861303 -0.09302069 -0.24433455
000080 c6 ab ed 3d a2 d0 cb 3d c9 f2 37 3e 4f fc b6 be
       0.11605029 0.09951903 0.17963709 -0.3573937
000090 a6 78 8d be 63 49 73 3e c3 3a ae be 19 8b 16 3d
       -0.2763111 0.23758464 -0.34029207 0.036753748
0000a0 b1 8e 10 3e e0 7e 26 bd 6d c4 12 3e 60 21 6b 3e
       0.14116932 -0.04064834 0.14332743 0.2296195
0000b0 10 1f 9f be 07 95 13 3d 79 fd 40 3e 74 11 b9 be
       -0.31078386 0.036030795 0.18846692 -0.36146128
0000c0 23 23 b2 be 09 51 a5 3e a9 fd 3d be aa ec ec bc
       -0.34792432 0.32288387 -0.18553795 -0.028921444
0000d0 b6 81 98 3e e0 ba c8 be b9 6e 63 be 5d ce 5d be
       0.29786462 -0.39205074 -0.22210206 -0.21660753
0000e0 ae a0 b1 3d 54 2d 0d bd a5 92 8d 3d 15 9f e5 be
       0.08673225 -0.034467056 0.06912736 -0.44847932
0000f0 31 4f 59 be 78 d6 e2 bd 8a 84 c1 3e 15 66 ad bd
       -0.21221615 -0.11076063 0.37796432 -0.08466736
000100 a4 93 a0 be be 94 a4 3e 00 19 56 3b 48 e0 a2 be
       -0.3136264 0.3214473 0.003266871 -0.31811738
000110 a9 40 34 3e 52 5e 1c 3e 39 39 33 3c ca 13 bb 3e
       0.17602791 0.15270355 0.010938936 0.36538535
000120 7d 5a 29 be 6d 4f b8 bd 3c 08 4b 3e d3 05 3b 3e
       -0.16538425 -0.08999524 0.1982736 0.1826394
000130 14 5d 32 be f0 32 c7 3e ca 5c a6 3e e5 40 28 3e
       -0.17418319 0.3890605 0.32492667 0.16431005
000140 2b 08 04 3e 6d 14 88 be 8d a2 f9 3d 8a 63 c1 be
       0.12893741 -0.26578084 0.12189207 -0.37771255
000150 3e 30 d7 bc f8 0c 9c 3e d1 8a ed be d2 a8 e0 3d
       -0.02626812 0.30478644 -0.4639497 0.109697
000160 9e c8 c9 be d1 25 8b bd ea ca d0 bd 18 b7 f5 3d
       -0.3941087 -0.06794322 -0.10194953 0.11997813
000170 c7 51 3f bd 55 62 7a bd 33 26 bf 3e cd 05 77 3e
       -0.04670885 -0.061128933 0.3733383 0.24123307
000180 0d be 61 bc 1b 7d 35 3e 39 72 49 bc 0b ab b9 be
       -0.013778222 0.17723505 -0.012295299 -0.36263308
000190 42 8f a8 be f0 bf 31 3d 69 41 02 bd b4 c6 6d be
       -0.32921797 0.043395936 -0.03180066 -0.2322033
0001a0 c1 29 b9 3e e3 0d b6 3e f9 bd d2 be 46 ff c7 3d
       0.36164668 0.3555747 -0.41160563 0.097654864
0001b0 4d 51 1b be 3b 5a a4 be c8 0e 15 3d 63 17 b5 3e
       -0.15167733 -0.3210009 0.03639105 0.35369405
0001c0 82 5c 7c be f8 4e 34 3e 42 17 99 be 45 ac 8e be
       -0.24644664 0.17608249 -0.29900557 -0.27865806
0001d0 a9 2f 50 bd a5 52 9b 3e 18 7c 44 3e 78 61 40 bd
       -0.050826702 0.3033649 0.19187963 -0.046967953
0001e0 66 9c 5e be 8b 22 82 3c 23 82 d6 3b 63 79 c7 be
       -0.21739349 0.015885612 0.006546275 -0.38959798
0001f0 4e e2 8e be e2 10 ad be 7c 94 14 be b2 99 d9 3d
       -0.27907032 -0.33801943 -0.14509767 0.10625018
000200 be 4d 97 be 60 5d e4 3e 77 b6 a7 3e 73 e3 ee bd
       -0.295515 0.4460249 0.32756397 -0.11664476
000210 95 cc 62 bc 21 94 95 3e 40 b2 ab be 47 84 03 3e
       -0.0138427215 0.29214576 -0.3353443 0.12843429
000220 5e 48 a7 be e5 0b 70 be ee f5 b6 3d bd 43 7c be
       -0.326724 -0.23442037 0.08933626 -0.24635215
000230 81 cb 7f bd 28 63 91 be 81 3a 95 3e 8c 1f b2 3e
       -0.062449936 -0.28395963 0.29146197 0.34789693
000240 ba c2 94 3d 61 8c f4 3e d8 67 e2 bd 27 53 a4 be
       0.07263704 0.4776335 -0.11054963 -0.3209469
000250 5b 9a 7e 3d a2 ad 61 3e 20 62 37 3e 6f fc 8a be
       0.062158924 0.22038892 0.17908525 -0.27145717
000260 f6 da ad 3d d5 d9 76 be 66 31 02 3e fb cf 13 3e
       0.08489029 -0.24106534 0.12714157 0.14434807
000270 c5 bf b5 3e 07 d7 56 bd bf c0 bc bd 85 5a 9a 3e
       0.3549787 -0.05245116 -0.09216451 0.30147186
000280 7a 0b b1 be 9a 7b a6 be f3 f6 81 be 0c 3d d9 3d
       -0.34579068 -0.32516176 -0.2538372 0.10607347
000290 1f 99 03 3d f7 7b a1 3e 22 71 92 3e 4c 68 25 be
       0.03212845 0.3153989 0.28601938 -0.16153067
0002a0 bf 93 93 be 81 00 fa bb e2 a7 3c 3e 47 ad 66 be
       -0.2882366 -0.0076294546 0.18423417 -0.22527038
0002b0 94 3c b4 be 3c 38 91 be 95 ce 5d 3e b5 9a b2 3e
       -0.35202467 -0.28363216 0.21660836 0.34883657
0002c0 c1 fa 36 be 35 35 97 3e 19 c4 ee 3d ea 92 a4 3e
       -0.17869093 0.2953278 0.116584964 0.32143337
0002d0 50 c0 42 3e e1 30 0c 3e 01 d4 3a be 1f e9 af be
       0.19018674 0.13690521 -0.18244936 -0.34357545
0002e0 6b dd 6f be f1 86 a9 bd 10 24 b4 3e d3 fb 8a be
       -0.23424308 -0.08277691 0.35183764 -0.27145252
0002f0 52 cf f9 bc 6f ae c9 be 42 52 95 3e f5 1d b4 3e
       -0.030494366 -0.39390895 0.2916432 0.35179105
000300 4c 58 24 3e 5d 60 6b be 45 46 21 be fc c7 6c 3e
       0.16049308 -0.22985978 -0.15749462 0.23123163
000310 df 6f 60 3e 4d 5e ac 3e ec 85 50 be 64 08 a5 3e
       0.21917675 0.33665696 -0.20363587 0.32232964
000320 80 5f 77 3e dc 92 05 be 9f 47 03 3e 97 76 8b be
       0.24157524 -0.13044304 0.1282029 -0.27238914
000330 31 fe 18 be d7 de a7 be 1a 45 60 be ee c6 84 be
       -0.14940716 -0.327872 -0.2190136 -0.2593302
000340 87 1c 41 3e 45 ea 38 3e ff b9 19 3e 37 1c 7b 3d
       0.18858539 0.18058117 0.15012358 0.061306205
000350 e8 7e 82 3c c8 80 ad be 89 92 d5 3c e8 ff 8e 3d
       0.015929654 -0.33887315 0.02607085 0.06982404
000360 dd f9 b6 bd 63 51 9b be b5 6b 81 bd a3 ed 0a bd
       -0.089343764 -0.3033553 -0.063193716 -0.033918034
000370 06 da 8e be 42 e6 54 be 2f 08 46 bd c7 4d 45 3e
       -0.27900714 -0.20790961 -0.04834765 0.19267951
000380 2d 3e b3 be cd 1a 8e 3d a7 0c d2 bd bc af a6 be
       -0.35008374 0.069387056 -0.102563195 -0.3255595
000390 86 49 80 be 02 c2 ac be 65 d6 a5 3d 0d 8f 0d 3e
       -0.25056094 -0.33741766 0.08097533 0.13824101
0003a0 e3 a9 02 be 03 c3 9c bc 81 34 a3 3d 3d 41 77 3e
       -0.12760119 -0.019135958 0.07968999 0.2414598
0003b0 40 af c1 be 33 74 9a 3e be ce 7d 3e 1d 72 52 be
       -0.37829018 0.30166778 0.24785897 -0.20551343
0003c0 dd 9a 8a be 2b fa 91 3e 24 60 64 3d b6 3f d3 bd
       -0.27071276 0.28511176 0.05575575 -0.10314886
0003d0 76 8d 75 3d c5 6d 7f be 2c 12 9b be 70 83 9d 3e
       0.05994936 -0.24944218 -0.30287302 0.3076434
0003e0 d4 74 29 bc ed d3 97 3e 56 24 45 bb 09 20 54 be
       -0.010342795 0.29653874 -0.0030081472 -0.20715345
0003f0 63 99 96 3d 5f 9c bf be 03 c6 db 3e 30 dd 28 3d
       0.07353475 -0.3742399 0.42924508 0.041226566

sequential_1/Btch_Norm-2/FusedBatchNormV3;StatefulPartitionedCall/sequential_1/Btch_Norm-2/FusedBatchNormV3 f4 [38]
000000 2b 5c ea 3e d7 7a 54 bf 34 f7 86 be eb b9 40 3f
       0.45773444 -0.8299994 -0.26360476 0.7528369
000010 18 00 fc 3e ec 86 d0 be 16 d0 0a 3f 4d 43 0f bf
       0.49218822 -0.40727937 0.54223764 -0.5596207
000020 30 9b 25 be c8 e0 37 bf 49 c2 2a 3e 59 5c fb be
       -0.1617248 -0.71827364 0.16675676 -0.49093893
000030 7c 84 95 3e 50 e2 0e 3d 66 3a 2f 3e 84 55 9c 3e
       0.2920264 0.034883797 0.17112121 0.30533993
000040 45 7f 8b bf 8f b5 9e bf 01 b5 15 bf d4 4c 37 bf
       -1.0898215 -1.2399157 -0.58479315 -0.71601605
000050 07 5f b5 bf ce 98 49 bf e7 86 61 be 4b 53 45 3f
       -1.4169625 -0.78748786 -0.22024117 0.7708022
000060 f6 b4 a4 be 1c 3a 12 3f 01 c0 85 3f 2e f9 13 bf
       -0.32169312 0.5711992 1.044922 -0.57802093
000070 13 18 9c 3f 19 0e 70 be f2 0c ea 3e 7b 18 cc 3e
       1.2194847 -0.23442878 0.45713 0.39862427
000080 bf 23 ed be b5 a5 1d 3e 78 45 1a 3e d8 9e f2 3c
       -0.46316335 0.15395243 0.15065563 0.029616758
000090 8a 91 2c 3f 55 02 92 be
       0.67409575 -0.28517404

sequential_1/Conv2D-1/Conv2D;StatefulPartitionedCall/sequential_1/Conv2D-1/Conv2D f4 [38, 3, 3, 1]
000000 68 f3 2a 3d 10 46 29 3c e0 f5 ed bb 4a c2 7e 3d
       0.041736037 0.010331646 -0.0072619766 0.062197007
000010 82 35 1b bc aa 07 7a 3c b7 50 67 bc 3f 80 fa 3b
       -0.0094732065 0.015260616 -0.014118365 0.0076446827
000020 a1 0d 56 bc dc 00 09 3d d0 a1 5b 3b 62 69 40 bb
       -0.013064773 0.033448085 0.0033513196 -0.0029359688
000030 18 92 39 bc 5e 7a 8d bd f5 ea b0 bd e5 94 7c 3d
       -0.011326335 -0.06908105 -0.086385645 0.061665434
000040 7c c8 8d bd 5f a3 bf bb 50 6f f7 bd 73 0f 91 bd
       -0.06923005 -0.005848333 -0.12081778 -0.07083025
000050 26 4a 5d bc da 4f 5f 3d bf 1c 02 bb c5 2d d6 3d
       -0.013506448 0.05451951 -0.001985356 0.104579486
000060 34 a3 ab bc 63 69 33 bd 32 84 58 bd 98 7a f8 bc
       -0.020951845 -0.043801676 -0.052860446 -0.030331895
000070 f2 04 fd bc 40 45 ef 3d 05 56 60 bd cf dd de bc
       -0.030886147 0.1168313 -0.054769535 -0.027205376
000080 66 3c 23 3d 10 2f b8 ba 7f 01 f9 3c 57 8a d8 bc
       0.039852522 -0.0014052112 0.030396221 -0.026433153
000090 be 9e cb 3c d4 11 c1 bd 90 f9 74 3e 0c 90 02 3d
       0.024855968 -0.094272286 0.23923326 0.031875655
0000a0 40 2d 4f be 20 d1 80 3e 63 8c ba bd bf c3 d4 3c
       -0.20232105 0.2515955 -0.09108808 0.025972245
0000b0 5e 3a 79 3d c5 4f 58 bd 04 20 07 be e3 d9 0b bc
       0.06084668 -0.05281045 -0.13195807 -0.008535835
0000c0 85 0d 3b bd 30 3d c6 3d 62 3d 5a 3d 00 83 65 3c
       -0.04566719 0.09679639 0.053281195 0.014008284
0000d0 6e de ed 3d 31 8a 08 bc a8 82 10 bd 22 27 2e 3d
       0.11614691 -0.008333729 -0.035280854 0.04251779
0000e0 1e 2a 45 3d 47 ab 3f 3c 3c b4 a5 3d ff 81 0f bd
       0.04813587 0.011698551 0.080910176 -0.035036083
0000f0 46 4c 68 bd e8 1a aa 3d ee 0e e2 3c ad 45 a9 be
       -0.056713365 0.08305913 0.02759501 -0.3306097
000100 da 1b 57 3b c2 96 a2 bd 3e e5 e5 3e 98 d5 89 be
       0.0032822997 -0.07938911 0.4490146 -0.26920772
000110 9d 39 ed 3d bb 64 38 be fb 8f 8e 3e c0 be d4 3c
       0.115832545 -0.18007176 0.27844223 0.025969863
000120 79 bf ca bd c1 a5 8b 3d 0e 63 03 3d bf 7e 63 bc
       -0.09899802 0.068187244 0.032076888 -0.013885199
000130 a4 18 d0 3d 11 81 1d 3e 87 ad 31 3e 05 19 76 bc
       0.1016095 0.15381266 0.17351352 -0.015020614
000140 0a a8 7c bd f9 08 fe 3b 2c 95 74 bd 86 79 2d bd
       -0.061683692 0.0077525345 -0.059712574 -0.042352222
000150 90 b6 42 3d 4c af 85 38 62 ee 95 bc e0 95 ab 3c
       0.047537386 6.374586e-05 -0.018302146 0.02094549
000160 52 e0 af bd db e5 03 be 45 dc bc 3c 7e 41 ed bb
       -0.085877076 -0.12880652 0.023054251 -0.0072404733
000170 84 84 ad bb 6e 65 ab 3c 44 d4 1e bd b0 c2 ef bb
       -0.005295338 0.020922389 -0.03877665 -0.0073169097
000180 55 59 34 3d 3e a1 4e bd ce 8c 30 3d 23 66 78 bd
       0.044030506 -0.05044674 0.04310303 -0.06064428
000190 97 41 59 bc 54 f5 8a 3c 30 d4 05 3d 72 3d ab bb
       -0.013260267 0.016962685 0.03267306 -0.0052258307
0001a0 e1 cb 57 bb e4 76 73 bd f2 78 f1 3c e8 74 31 3d
       -0.0032927918 -0.059439555 0.029476617 0.04332438
0001b0 4f c1 0f 3d 88 2a a8 3b ca 63 68 3c c9 c5 ef 3c
       0.035096463 0.0051320232 0.014183948 0.029269116
0001c0 f7 6f 1e 3c 36 84 43 bd 1d 60 bc 3c 1d 2a f1 3c
       0.009670249 -0.047733508 0.02299505 0.029439026
0001d0 a5 fb 1a bd af 3f 81 bd 52 80 45 3d 0a fb 06 bd
       -0.037837643 -0.06310975 0.04821808 -0.032954253
0001e0 c8 85 6d bc 3d 10 94 bd 69 8b 6b 3a 71 13 2e bc
       -0.014497228 -0.0722966 0.00089853123 -0.010624752
0001f0 3b ae 53 bd 1c 22 5d 3d 0a 5b 76 3d f7 a3 62 bd
       -0.05167983 0.053987607 0.060145415 -0.05533215
000200 12 be cf bb 07 86 cc 3d 04 08 72 3c b2 6f 9d bd
       -0.006339797 0.09986501 0.014772419 -0.0768732
000210 bb 8f 9b bd cd f4 a5 bd a0 8e e0 3d ae e6 92 bc
       -0.07595774 -0.08103333 0.109647036 -0.017932262
000220 fb f9 01 bd 52 c4 92 3d db 15 47 bd d5 2e 77 bd
       -0.03173254 0.071663514 -0.048604827 -0.060347397
000230 b7 f1 b7 3d c7 64 a4 bc 65 b3 4f bc cf 8b 9e bb
       0.0898165 -0.020067586 -0.012677048 -0.004838444
000240 38 8f 44 3d 94 e6 11 3d 47 85 36 bd 52 b5 17 3d
       0.047988147 0.035620287 -0.044560697 0.037038155
000250 d9 79 5e bd 32 b9 0d 3d 97 9c 32 3b 68 ed 7b bd
       -0.05431542 0.034600444 0.002725398 -0.061505705
000260 bf 08 7e bd 22 dd 69 3d 6e e4 86 3d b1 75 7e bc
       -0.06202006 0.057095654 0.06586538 -0.0155309895
000270 83 6f cd bb e1 13 e1 3b fe 39 9e 3c 51 b2 18 3d
       -0.0062693967 0.006868825 0.019314762 0.03727943
000280 5b 8c 7e 3b 71 1c 02 bc 4a 73 3a bd f5 39 40 3d
       0.0038840983 -0.007941351 -0.045520104 0.046930272
000290 11 c8 89 bc 30 3c 0c 3d 97 72 54 3d a2 79 2d 3d
       -0.016819032 0.034237087 0.051867094 0.042352326
0002a0 64 75 99 bd 8c d3 b9 bc f9 2d f4 bc 21 02 88 3d
       -0.074930936 -0.022683881 -0.029807078 0.06641031
0002b0 ca 45 72 bd 60 37 cb 3d 6d c6 23 b9 6f b4 39 bc
       -0.059148587 0.09922671 -0.0001561881 -0.011334523
0002c0 42 22 bf 3d c6 f9 94 3c 90 5f c2 bd 17 55 8e 3c
       0.09332706 0.018185508 -0.09490883 0.017374558
0002d0 35 49 2a 3d 7c a5 52 3b f4 4c bd 3d 88 b3 d9 3c
       0.041573722 0.0032142093 0.09243193 0.026574865
0002e0 f6 7b c1 bd 75 7e e9 bd db bc 9f 3c cd 24 33 3d
       -0.09447472 -0.11401073 0.019499233 0.043736268
0002f0 6d c7 0f bd f0 61 35 bd 75 8b 5d bd a3 68 24 bd
       -0.035102297 -0.044282854 -0.054088075 -0.04013885
000300 9d 5a 80 ba e2 ba 4d bd 43 e8 a8 bc 78 b8 2e bd
       -0.000979263 -0.050227053 -0.020618564 -0.04265639
000310 31 c3 13 bc 33 a5 8a 3b d2 c2 80 3e 90 76 af bd
       -0.009018705 0.004231119 0.25148636 -0.08567536
000320 35 2e 81 3d df e4 ca bc 32 42 85 3d 14 2d 69 be
       0.063076414 -0.024767337 0.065067664 -0.22771102
000330 81 4e 6a be 5f c0 02 be ec 84 00 3c c0 32 1e be
       -0.2288151 -0.12768696 0.007844191 -0.15449047
000340 26 27 1a bd e7 43 be 3d a7 eb cc bd 77 55 e0 3d
       -0.03763499 0.09290295 -0.100058846 0.10953801
000350 36 44 00 3e fd 2f 42 3e cb 93 2e be 6a b7 2b bb
       0.1252602 0.18963619 -0.17048566 -0.0026201853
000360 c1 e9 7e bd 19 67 1c be ee 26 a1 be 03 b1 2a 3d
       -0.062234644 -0.15273704 -0.31475013 0.041672718
000370 9a 01 4c 3e 48 ed 0c be 4a ec ac 3d f0 94 32 3e
       0.19922486 -0.1376239 0.08443506 0.17439628
000380 3a a8 3d 3e eb 2d 60 3d ca 98 ad 3d 51 4d aa bc
       0.18521205 0.05473129 0.08476408 -0.02078882
000390 a6 64 13 bd 38 ac fc bb 80 3e 70 3b 13 82 8f 3d
       -0.035984658 -0.0077109598 0.0036658347 0.070072316
0003a0 e3 b4 6d bd 9c a8 86 bd 91 00 43 3d 63 a1 93 3c
       -0.058033835 -0.065751284 0.047607962 0.018021291
0003b0 28 9a 0b bd 4a 59 1f 3d dc c1 d0 3b 7a bb 06 3d
       -0.03408256 0.038903512 0.006370766 0.032893635
0003c0 01 1e a9 3b 01 c9 91 3c 04 33 a5 bc 92 d6 2e be
       0.0051610474 0.017796041 -0.020165928 -0.1707404
0003d0 5e 62 c9 bd 6b 2f 3c 3e 6f 5d 76 3c 21 39 56 be
       -0.09833215 0.18377464 0.015036925 -0.2092023
0003e0 df ec 45 3e 7b 39 2e 3e 70 fa 23 bd ca 34 2d 3c
       0.1932864 0.17014115 -0.040033758 0.010571668
0003f0 75 85 0d bd be 4e be 3c ad b5 73 bb ff 5e e0 bc
       -0.034551103 0.023230907 -0.0037187145 -0.027389048

sequential_1/Conv2D-2/Conv2D;StatefulPartitionedCall/sequential_1/Conv2D-2/Conv2D f4 [38, 3, 3, 38]
000000 72 c9 b9 3d 47 21 b5 3d a5 09 38 bd ba 3b 5c be
       0.09071626 0.08844238 -0.044931073 -0.21507159
000010 99 d7 8f bc 54 99 74 be c3 e7 23 bd e9 d3 c2 3d
       -0.01755886 -0.23886615 -0.040015947 0.09513075
000020 d9 b3 61 be dc f2 04 3e a2 9c b1 bd 6b db 90 bd
       -0.22041263 0.12983268 -0.086724535 -0.07073101
000030 95 88 62 be 76 33 43 be ed 4f a7 3c 75 cf 86 3d
       -0.22122414 -0.190626 0.020423854 0.06582538
000040 c7 fa b8 3d 7f 74 6a be e3 7d 35 3e fb 69 7e be
       0.09032207 -0.22896002 0.17723803 -0.24845116
000050 74 7b e5 bd 7b 18 fb 3d 68 42 a2 3d 18 64 2e 3e
       -0.112051874 0.12260529 0.07922822 0.1703037
000060 2a 84 fb bd 76 d4 d1 bd 15 4c 80 be 0a e7 87 3e
       -0.12281068 -0.10245602 -0.25058046 0.26543456
000070 98 81 fc bd e3 5b c8 3d 3a c8 d6 3d cf 17 04 3e
       -0.123294055 0.09783151 0.10487409 0.12899707
000080 0a c5 5b be a8 59 f1 bd 5d 8c ae 3c 1a ce 07 be
       -0.21461883 -0.11784679 0.021307165 -0.13262215
000090 e6 39 0f 3e 9c 94 bd 3d f4 67 37 bd 50 e1 c4 3d
       0.1398693 0.092568606 -0.04477687 0.096132874
0000a0 24 6c 6e bb ff 4a 35 be a5 94 b4 bd 50 02 35 3e
       -0.0036380375 -0.1770439 -0.08817414 0.17676663
0000b0 c3 47 f1 3d 9f c0 b8 3e ca d5 98 3d ff e8 33 3e
       0.117812656 0.36084458 0.07462652 0.1756935
0000c0 15 4c bd 3d 01 ba 61 3e 51 ee 6e be 87 e9 74 3e
       0.09243027 0.22043611 -0.23333098 0.23917209
0000d0 c2 10 11 3d 4d 54 0c bd 63 22 15 be a4 e6 24 bd
       0.035416372 -0.034260083 -0.14563899 -0.04025902
0000e0 80 ce de bd c3 06 2e 3e 19 91 b8 3c ff c0 80 3e
       -0.108792305 0.16994767 0.022530125 0.25147244
0000f0 41 60 35 3d 83 dc 61 3d 0b d8 2d bd ea a4 96 be
       0.044281248 0.055141937 -0.042442363 -0.29422694
000100 de be 8b be ab 70 5e 3e 18 4c 52 3e 82 00 4f 3d
       -0.27294058 0.21722667 0.2053684 0.050537594
000110 84 33 11 3e 41 46 cf 3c 56 d5 61 be a1 a1 63 3d
       0.14179808 0.025302054 -0.22054037 0.055574063
000120 10 a3 5c be be 14 81 be ed 17 1e be 7c cc 3f be
       -0.21546578 -0.25211138 -0.15438814 -0.18730348
000130 f2 aa d5 bd b6 3a a0 bd da 1a 8c bd 11 b4 bf 3d
       -0.10432996 -0.07823698 -0.06841059 0.09360517
000140 b9 06 20 bd 3a 82 f7 3b 2d f1 4c be 17 ae be 3d
       -0.03906891 0.007553366 -0.20013876 0.09310549
000150 87 3d 5e be 15 d8 1d 3d 98 8e 0b bd 03 29 3d 3e
       -0.21703158 0.03853615 -0.034071535 0.18472676
000160 85 51 35 be 17 a5 0e 3e 5d e0 2d be fc 4a 44 3e
       -0.17706878 0.13930164 -0.16980119 0.1916923
000170 75 3d be 3d e6 3d 08 be 6a 2a 5d be 7b 21 7d 3d
       0.09289066 -0.13304862 -0.21598211 0.061799508
000180 97 f8 29 3e c5 21 fd 3d d8 05 0b 3d b9 31 fa bd
       0.16598736 0.12359957 0.03394112 -0.12216515
000190 a7 33 bf 3d fb 59 04 3d a3 5a 6f 3d e4 f4 52 3e
       0.09336024 0.032312375 0.058436047 0.20601231
0001a0 19 89 1b be fa 8d 13 be 73 fc f0 bd cf 5d 40 3e
       -0.15189017 -0.14409629 -0.11766901 0.18785785
0001b0 cd f1 1d be 2c d2 3d 3e 59 8d 78 bd d5 9a c5 bd
       -0.15424271 0.18537205 -0.060681675 -0.096486725
0001c0 e3 71 48 be d2 43 12 3d 21 5c e4 bd 26 4d 4f be
       -0.19574694 0.03570921 -0.11150385 -0.20244274
0001d0 fd 3b d5 bc 61 e9 37 3e 6b 3d 45 be e1 c5 5d be
       -0.026029581 0.1796012 -0.1926171 -0.21657516
0001e0 a9 ea 8f ba d7 f1 4b 3e e6 67 c6 bd 68 52 48 bd
       -0.0010979968 0.19916473 -0.09687786 -0.048906714
0001f0 05 b9 05 be bb 5c ee bc 49 ad 73 be 35 03 33 be
       -0.1305886 -0.029096952 -0.23796572 -0.17481692
000200 d2 67 15 bc 5c 5e 19 3e 15 1a 77 3d 49 96 32 bd
       -0.009118991 0.14977401 0.06032761 -0.043600354
000210 f9 51 5e 3e 51 71 eb 3d 10 9b dc 3d 9c 4d 5a 3e
       0.21710958 0.11496223 0.10771763 0.21318668
000220 48 51 17 be 67 4f ce b9 f7 5d 0e 3e cb b3 94 3d
       -0.147771 -0.0003935054 0.13903032 0.07260855
000230 df 1b 5a 3d 61 ba b9 bb 35 b7 78 bd 41 4d 9d bd
       0.053249236 -0.00566797 -0.060721595 -0.07680751
000240 c8 7d 05 3e 9f b4 11 3e af de 04 3e a1 1a 87 bd
       0.13036263 0.14229058 0.12975572 -0.06596876
000250 b1 36 53 be 6e 8f df 3d 2d f9 8d bd 45 eb 7b 3d
       -0.20626332 0.10916029 -0.06932292 0.061503667
000260 9f c5 95 3d f4 0c 6f be 8c 27 03 3c 20 16 dd 3d
       0.07313084 -0.23344785 0.008005034 0.10795236
000270 d7 df 02 bd 15 58 e4 3d 62 53 91 bd 9d c7 ae 3e
       -0.03195175 0.11149613 -0.07095982 0.34136668
000280 35 03 28 3e 6e ca 74 be a6 59 42 be 15 02 10 3e
       0.16407473 -0.23905346 -0.1897951 0.14063294
000290 d3 47 f6 3d f7 20 5f 3e bd ea 9e bd db e3 90 bd
       0.12025418 0.21789919 -0.077596165 -0.0707471
0002a0 75 67 04 be 5f aa f2 3d 6a 95 02 3d f5 33 ad 3d
       -0.1293009 0.11848902 0.031880774 0.08457176
0002b0 1f 8b 90 bd 6e 5e ad 3d 0b de 43 be 7d 76 dc 3c
       -0.07057785 0.08465277 -0.19127671 0.026911968
0002c0 1a f7 0d 3d 77 32 3f 3e cd d8 23 3e 13 2f 9a bd
       0.034659483 0.18671595 0.16000672 -0.0752851
0002d0 bf 1f ef 3d 08 71 33 3e c0 4d 9a 3e 64 fb 8d ba
       0.11675977 0.17523587 0.30137444 -0.0010832367
0002e0 1e 64 0b bd dc 0e 1b be 47 15 94 3c 00 ca 5a be
       -0.034031026 -0.15142387 0.018076552 -0.2136612
0002f0 98 1d 50 3e 8c 6b 5a be 11 74 3a 3e 13 04 f0 3c
       0.20323789 -0.21330088 0.18208338 0.029298818
000300 6f 19 06 3e 02 7e 53 be 70 6c a3 3c 40 be 4c 3d
       0.1309564 -0.20653537 0.019949168 0.049986124
000310 b0 ba 89 be c3 dc 3c 3e bc 1f 4b 3e 1a 33 21 3e
       -0.26900244 0.18443589 0.19836324 0.1574215
000320 9a be 20 be 87 52 63 3c eb 33 16 3d 58 65 bb 3b
       -0.15697709 0.0138746565 0.036670607 0.005718868
000330 95 97 18 3e fb d3 64 3a 51 e5 8f 3d 4d d3 b4 3b
       0.14901574 0.00087290973 0.070261605 0.005518353
000340 2d eb b0 be e1 8a 0b 3e 48 82 30 be 48 5b d1 bd
       -0.34554425 0.13627197 -0.17237198 -0.10222489
000350 37 78 ce 3d dd e2 d3 3d 1b f9 29 3b 35 20 aa bd
       0.10081523 0.10346005 0.0025935832 -0.08306924
000360 19 47 90 bd 68 a9 93 3d eb 51 86 3d 99 fc 47 be
       -0.07044811 0.07210046 0.06558593 -0.19529952
000370 2d c8 0a be 4a 4b cd bd 2b 76 49 be 8d 44 10 3e
       -0.13552924 -0.10024126 -0.19673984 0.1408865
000380 da 6a 02 3e 4b e4 cd bd 6c c5 f9 bd 9e 59 a9 3d
       0.12736073 -0.10053309 -0.12195858 0.08269046
000390 a5 fe c2 3c 91 93 80 bd d3 54 c7 bc 8b 10 50 3e
       0.023803065 -0.06278146 -0.02433244 0.2031881
0003a0 63 a1 12 3e 05 52 5c be b4 c4 fb 39 09 85 24 be
       0.14319377 -0.21515663 0.00048021006 -0.16066374
0003b0 83 db 1a 3e 32 28 1b be 19 ae 51 3d bd 94 8b bd
       0.151228 -0.15152052 0.051191423 -0.06815479
0003c0 1c c9 a6 bd 82 a9 f4 3d a6 e6 ec bc 0a ea 2e 3e
       -0.08143827 0.119463935 -0.028918575 0.17081466
0003d0 15 d2 16 3e 50 8c 4d 3e bc 09 26 bd 66 c0 88 3d
       0.14728577 0.20073056 -0.040536627 0.06677322
0003e0 e5 e9 cb 3c 01 d2 9a bd c7 68 02 3c e7 44 0f 3b
       0.024891803 -0.07559586 0.007959551 0.0021861137
0003f0 7b 76 44 be 0f 48 86 bd 7e 19 83 3e ca 21 55 3e
       -0.19185822 -0.06556713 0.25605386 0.20813671

sequential_1/Conv2D-3/Conv2D;StatefulPartitionedCall/sequential_1/Conv2D-3/Conv2D f4 [38, 3, 3, 38]
000000 3c d7 09 3e 8d 36 c8 bd 9d d7 49 bd d5 0c 51 3c
       0.13461012 -0.0977603 -0.04927789 0.012759407
000010 cb 6a 00 be 7a 9b 06 be f7 5a c5 bd 91 4c 99 bd
       -0.12540738 -0.13145247 -0.09636491 -0.07485307
000020 15 ee 14 3e b5 de 11 3e 6b f7 d1 3d 78 3f f7 3d
       0.14543946 0.14245112 0.10252269 0.120726526
000030 ba 06 02 3e 7d d3 51 bc 8c 26 65 3c 22 13 fe bd
       0.12697878 -0.01280677 0.013986241 -0.12405993
000040 f1 0c 0c 3d 38 87 f9 3d d4 d6 91 bd 95 1f 2c bd
       0.03419203 0.12183994 -0.07121053 -0.042022306
000050 73 bb 2f 3e 7d 78 88 3b fb 61 3c bc 9a 49 ff bd
       0.1716135 0.004164754 -0.01149797 -0.1246521
000060 d9 65 bc bc af f1 80 bd 9b e5 42 bc 9b 90 30 be
       -0.022997783 -0.062960975 -0.0118955625 -0.17242663
000070 b1 42 47 3d 27 2d 23 bc 0c 2a ad bd 03 7f 62 bd
       0.048647586 -0.009959496 -0.084552854 -0.05529691
000080 30 78 ec 3d 76 a6 6a bd 15 69 e5 3d 35 45 ce bd
       0.115463614 -0.057287656 0.112016834 -0.10071794
000090 3d ac 5a bc ab 88 17 be 1e 81 ea bd 3f fc 35 bb
       -0.013346729 -0.14798228 -0.114504084 -0.0027768759
0000a0 71 49 ac bd 1c c5 d7 bd a0 a5 f0 bd 12 71 fc 3d
       -0.08412445 -0.105356425 -0.117503405 0.12326254
0000b0 60 c1 b2 3d cd 92 d8 3d 72 60 1f 3e f0 b7 44 bc
       0.087282896 0.10574875 0.15564135 -0.012006745
0000c0 48 c1 6c bd ff e0 04 be 01 0d 29 3e b8 24 81 3d
       -0.057801515 -0.12976454 0.16508867 0.06305832
0000d0 6d 21 66 bd 74 0b be bd 77 6b 2f 3d 11 bd a4 bd
       -0.05618422 -0.09279528 0.042827096 -0.08043874
0000e0 75 a0 bf bd bc 16 e8 bd e4 5d 1e 3c 84 a1 2c bd
       -0.093567766 -0.11332461 0.00966594 -0.04214622
0000f0 99 7d 82 bd ee 8d 1f be b9 e4 14 be 1f cd 23 be
       -0.06371612 -0.15581486 -0.14540376 -0.15996216
000100 41 aa 63 bd fe 19 06 3e 56 53 79 3d 17 32 cc 3d
       -0.05558229 0.13095853 0.06087049 0.099704914
000110 fe 7d 32 3d 36 2f 9c 3d 36 4e a7 bc ed d3 56 3d
       0.043577187 0.07626192 -0.020423036 0.052448202
000120 f1 b0 04 be 6d 6d a4 bd a8 5f 73 3d 6d be ea 3d
       -0.12958123 -0.08028684 0.059417397 0.11462102
000130 a8 fd f4 bd 7c f8 f7 3d 41 54 60 3c a0 71 b2 3d
       -0.119624436 0.121079415 0.013691963 0.087130785
000140 07 a2 37 3e 87 6d 53 bd 6d 9e 21 3d 5e 5b 1b be
       0.17932902 -0.051618125 0.039457727 -0.15171573
000150 21 ec 4a be 3b 1d 12 3e 4f 15 a8 bc 62 e4 1f be
       -0.19816639 0.14268963 -0.020517973 -0.15614465
000160 37 e7 2f be 25 fb 89 bd d0 86 80 ba 6b 8e cc 3d
       -0.17178045 -0.06737355 -0.0009805802 0.099881016
000170 88 a5 99 3c 1e 09 7e 3d 59 5a 8b 3d 5e 55 62 ba
       0.01875569 0.062020414 0.06804342 -0.00086339365
000180 f6 14 c0 3d b5 18 ac 3d e6 22 af 3d e6 12 63 bc
       0.09378998 0.0840315 0.08551578 -0.013859486
000190 97 20 9a 3b d7 7a b3 bd b1 f3 fa 3d 67 da ef 3d
       0.004703592 -0.08763664 0.12253512 0.11711579
0001a0 24 92 27 3e b6 1f 95 bd d8 26 fb bd a7 bb 31 3e
       0.16364342 -0.07281439 -0.12263268 0.1735674
0001b0 1e 90 90 bd a7 5d f5 3d 99 05 be 3d 85 5d 92 3d
       -0.07058738 0.119807534 0.092784114 0.07146744
0001c0 da 18 90 3c 79 c9 18 3d ca c2 04 3e c5 7e db 3d
       0.017589975 0.037301514 0.12964931 0.10717539
0001d0 da 22 ff 3d dc 05 a4 3d 11 45 8d 3a a1 4e 97 bd
       0.12457819 0.0800893 0.001077803 -0.07388044
0001e0 e4 60 94 bc 36 cf c6 3c 63 74 1a 3e 44 d7 bb 3d
       -0.018112607 0.024268728 0.1508346 0.09171918
0001f0 86 d1 0c bd 7b 1c 11 3e df 91 94 bd 74 3a c8 3d
       -0.034379505 0.1417102 -0.07254385 0.09776774
000200 7b 9e 22 bd a1 9e b4 bd 35 2e d7 bd a6 32 c5 bd
       -0.03970192 -0.088193186 -0.1050686 -0.09628801
000210 91 88 f5 bc 83 f7 ad 3d e3 d8 27 3e df 1d 23 bd
       -0.029972346 0.08494475 0.1639133 -0.03982341
000220 6e 3c 01 3d eb 28 b3 3c ac eb c5 3d 4f 23 c3 bd
       0.03155177 0.021870097 0.096640915 -0.09528219
000230 af 0b 3a bb b0 b4 94 3d 98 5d 18 3e 55 ef a5 bd
       -0.0028388312 0.07261026 0.14879453 -0.081022896
000240 31 55 44 bc 5f 96 04 3e 87 5a 91 bc 73 2d 38 3d
       -0.011983202 0.12947987 -0.017743362 0.04496522
000250 42 1e aa 3d 9f ef d2 3d c4 d7 fa 3d de 9b e2 bd
       0.083065525 0.1029961 0.12248185 -0.110648856
000260 1a 9e df 3d 50 f3 db 3c 01 e5 b0 3d 11 20 40 be
       0.10918827 0.026849419 0.08637429 -0.18762232
000270 c2 19 b7 3d 71 a9 04 3e a9 99 d9 bc 93 99 0b be
       0.0894046 0.12955262 -0.026562529 -0.13632803
000280 7d 52 9b 3d 35 5b 5d bd e4 3a 3c be a2 6a 3a ba
       0.07584093 -0.05404206 -0.1838184 -0.00071112264
000290 31 a7 24 3e 92 50 8c 3d 19 d8 c7 bc 09 d7 1a be
       0.16079403 0.06851305 -0.024395036 -0.15121092
0002a0 93 c1 0f bd 8a e2 9b bc 4f eb f9 3d a8 5b 96 3d
       -0.035096716 -0.01902892 0.12203085 0.07341701
0002b0 d0 29 1b 3c 8f 9e c9 3c 7d d8 2a 3c 19 4f 9e 3d
       0.009470418 0.02461174 0.010427591 0.077299304
0002c0 15 a4 26 3b 26 e0 dd bc d1 5e 2b bd 23 c9 7e bb
       0.002542739 -0.027084421 -0.04183847 -0.003887721
0002d0 ee 57 0e 3e 61 b7 0c be 1b 56 0d be c3 11 08 be
       0.1390073 -0.13741829 -0.13802378 -0.13288026
0002e0 9e 2a f8 3d f6 af b4 bd 24 a2 b2 3d 92 cc 97 3d
       0.121175036 -0.088226244 0.08722332 0.074120656
0002f0 d5 cb b6 3d 8b f4 d5 bd 3c d8 db 3d 50 7d f1 bc
       0.089255966 -0.104470335 0.10734603 -0.029478699
000300 84 af f1 3d ac de 59 bd fc 94 4a bd 48 2b 3d be
       0.11801055 -0.053190872 -0.04945849 -0.18473542
000310 b6 fe a4 3d 20 41 63 3c 4f a4 a8 3d ca 22 3c bc
       0.08056395 0.0138705075 0.082344644 -0.011482904
000320 6e 80 dc 3d b5 1e 05 3e 78 7b b3 3d e6 85 e1 3d
       0.107666835 0.12999995 0.08763784 0.11011867
000330 c0 1b b9 bd 2b 1a d9 bd 4a 81 20 be 03 b7 23 be
       -0.09038496 -0.10600694 -0.1567432 -0.15987782
000340 c4 ae ea 3c d2 4b d3 bd c6 3d 1b 3e 5e 62 eb 3c
       0.028647788 -0.10317196 0.15160283 0.028733429
000350 5c 8c c4 3b cf dd 95 bd bc 89 fd bc 8e 3e 0f 3e
       0.0059981775 -0.07317697 -0.030949466 0.13988706
000360 c4 13 ca bd b1 a0 5d 3d 0e ec bb 3d d7 17 aa 3c
       -0.09867051 0.054108325 0.09175883 0.02076332
000370 d5 ae 12 ba 54 d5 83 3d d5 e7 c0 3d 33 2d db bd
       -0.000559551 0.064371735 0.094192185 -0.107019804
000380 e0 97 ab bd 01 13 32 bd 04 22 e6 bd 9a dd e1 bd
       -0.08378577 -0.043475155 -0.11236957 -0.11028595
000390 70 a2 3f 3c 0a b2 a7 3d 61 8f ea 3d df b9 17 3d
       0.011696443 0.08188255 0.114531286 0.037042495
0003a0 a8 2e ab bc 05 1e 23 bd 62 d2 79 bb 8e 7a d9 bd
       -0.02089627 -0.03982355 -0.0038119783 -0.106190786
0003b0 26 92 b5 3d 11 a9 5f bd 95 7d 01 3c db d4 43 bd
       0.08865766 -0.054604594 0.007903476 -0.047810417
0003c0 a7 12 d2 3d c0 a5 7c 3b 2d 5a e1 bd 88 63 99 bb
       0.10257464 0.0038550943 -0.11003528 -0.0046810545
0003d0 c5 8c e5 3d 04 90 40 3d 59 2b 0b bd 39 f7 be bd
       0.1120849 0.047012344 -0.033976886 -0.09324498
0003e0 7b f1 30 3e 50 2b 0c 3e 2c b0 85 bd e7 31 f3 3d
       0.17279617 0.13688397 -0.06527743 0.118747525
0003f0 2e 1c 1c 3d e1 ed 10 3e 83 3b 1a 3e 26 98 85 bc
       0.03811281 0.14153244 0.15061764 -0.016307902
