Homework2/new ex2/models/PQT_cnn_V_a_alpha=0.3.tflite (tflite, 32992 bytes, 8 tensors)

unknown_15 f4 [8]
000000 e2 1e 81 bd 9c a7 c2 3c 86 98 2d bd 09 87 18 3d
       -0.063047186 0.023761563 -0.042381786 0.037238155
000010 d6 6f 6e bc f3 1c 33 3d ec 63 0d 3d 1d 3e a7 3c
       -0.014553031 0.04372878 0.03451912 0.02041536

sequential_1/Btch_Norm-1/FusedBatchNormV3;StatefulPartitionedCall/sequential_1/Btch_Norm-1/FusedBatchNormV3 f4 [38]
000000 4c cb 87 3e da b8 56 3e 8c 48 73 be fb 1d 51 be
       0.2652229 0.20968953 -0.23758143 -0.20421593
000010 73 c2 3f 3d 94 0f 4d be fe f1 65 be 75 71 09 be
       0.0468163 -0.20025474 -0.22455594 -0.13422187
000020 b2 1a 3c 3e 3d 9a 17 3e c3 96 87 3e 4b 3b 59 be
       0.18369558 0.14804931 0.2648221 -0.21214025
000030 88 79 4f 3e eb 7f 5e be de 56 75 3e e7 7d 2a be
       0.20261204 -0.21728484 0.23958918 -0.1664959
000040 45 fc 95 3e 49 d2 5c 3e 08 dc 37 be d5 f5 9a 3e
       0.2929403 0.21564592 -0.17955029 0.3026568
000050 06 5c 65 3e 01 49 7c be f0 a5 db bd aa 06 c6 bd
       0.22398385 -0.24637224 -0.107250094 -0.0966924
000060 25 3e d3 3d 6b 02 89 3e 68 d8 8f 3e bc 3f 2c 3e
       0.103145875 0.26759657 0.28094792 0.16821188
000070 73 02 72 be e0 b4 55 be fa 15 a4 bd 01 6a 52 bd
       -0.23633747 -0.2086978 -0.08012004 -0.051370624
000080 fa 71 28 3e be 84 86 3e 8b 04 73 3e e8 5c 77 3e
       0.16449729 0.2627315 0.23732202 0.24156535
000090 07 10 3c be f9 2d 80 be
       -0.18365489 -0.25035074

sequential_1/Btch_Norm-3/FusedBatchNormV3;StatefulPartitionedCall/sequential_1/Btch_Norm-3/FusedBatchNormV3 f4 [38]
000000 bc 12 dc be d0 85 9f bd ef 04 b5 3e 97 5b fe be
       -0.42983043 -0.077891946 0.35355327 -0.49679253
000010 f5 4e 10 bf 2c 1b f5 be 64 d3 54 bf 52 df 5e bf
       -0.5637048 -0.47872293 -0.83135056 -0.8705951
000020 3c b8 11 3e 88 92 14 bf 88 c0 27 bf dd 59 54 3e
       0.14230436 -0.5803609 -0.65528154 0.20737405
000030 6c c1 9a bf 6e 89 7f bf 0e 2b 7a bd 2f a2 04 bf
       -1.2090278 -0.99819076 -0.061076216 -0.5180997
000040 62 91 5a bf 1d 25 b3 bd 1d ee ed bd 34 8b 57 bf
       -0.85378087 -0.08747313 -0.11617682 -0.8419678
000050 be 9d 86 bd 48 f9 99 bf 46 31 d1 3c 28 88 53 3d
       -0.06573056 -1.20292 0.02553619 0.05164352
000060 25 2d 16 bf 7a 1e dd be 1c 95 a0 bf c4 2e 73 3e
       -0.58662635 -0.43187314 -1.2545505 0.23748308
000070 35 cb 89 bf 3a 26 6b bf c2 eb 88 bf cc cd 6a bf
       -1.0765139 -0.91855204 -1.0696948 -0.9172027
000080 75 d0 0c bf 8f 83 8c 3e 6a ca 5d be 41 d9 66 bf
       -0.5500558 0.2744412 -0.21659246 -0.90175253
000090 c5 da 24 bf e8 87 03 bd
       -0.64396316 -0.032112032

sequential_1/Output-Layer/MatMul;StatefulPartitionedCall/sequential_1/Output-Layer/MatMul f4 [8, 38]
000000 dc b5 94 3e ee e3 99 be 69 28 aa 3d f1 0f 9c 3e
       0.29044998 -0.3005671 0.08308489 0.30480912
000010 6d 18 81 3e b4 24 b6 bc d1 cd ee b9 e4 e5 82 3e
       0.25213948 -0.022234298 -0.00045548243 0.25566018
000020 6d b6 7a bd 0d c0 7e 3e e7 0a 98 3e f1 92 55 bd
       -0.06120913 0.24877949 0.29695818 -0.052142087
000030 2c 10 68 be 08 76 9d be 55 9f 2d be 4d 94 91 3b
       -0.22662419 -0.30754113 -0.16955312 0.0044427277
000040 10 6f 2d ba 2a 4e d0 bd 06 7a 24 be a9 1d 29 3e
       -0.0006615976 -0.101711586 -0.16062173 0.1651522
000050 6a 3c d6 3d ec de ac be a0 b8 8d 3e 0a c1 8a 3e
       0.10460742 -0.33763826 0.2767992 0.27100402
000060 fa f5 db be da b2 a7 bd 37 ba 93 be 12 6a 73 3e
       -0.42961103 -0.0818841 -0.28853008 0.23770931
000070 43 f2 b5 3d 05 83 9a 3c a2 81 be bd d6 32 7a be
       0.088840984 0.018861303 -0.09302069 -0.24433455
000080 c6 ab ed 3d a2 d0 cb 3d c9 f2 37 3e 4f fc b6 be
       0.11605029 0.09951903 0.17963709 -0.3573937
000090 a6 78 8d be 63 49 73 3e c3 3a ae be 19 8b 16 3d
       -0.2763111 0.23758464 -0.34029207 0.036753748
0000a0 b1 8e 10 3e e0 7e 26 bd 6d c4 12 3e 60 21 6b 3e
       0.14116932 -0.04064834 0.14332743 0.2296195
0000b0 10 1f 9f be 07 95 13 3d 79 fd 40 3e 74 11 b9 be
       -0.31078386 0.036030795 0.18846692 -0.36146128
0000c0 23 23 b2 be 09 51 a5 3e a9 fd 3d be aa ec ec bc
       -0.34792432 0.32288387 -0.18553795 -0.028921444
0000d0 b6 81 98 3e e0 ba c8 be b9 6e 63 be 5d ce 5d be
       0.29786462 -0.39205074 -0.22210206 -0.21660753
0000e0 ae a0 b1 3d 54 2d 0d bd a5 92 8d 3d 15 9f e5 be
       0.08673225 -0.034467056 0.06912736 -0.44847932
0000f0 31 4f 59 be 78 d6 e2 bd 8a 84 c1 3e 15 66 ad bd
       -0.21221615 -0.11076063 0.37796432 -0.08466736
000100 a4 93 a0 be be 94 a4 3e 00 19 56 3b 48 e0 a2 be
       -0.3136264 0.3214473 0.003266871 -0.31811738
000110 a9 40 34 3e 52 5e 1c 3e 39 39 33 3c ca 13 bb 3e
       0.17602791 0.15270355 0.010938936 0.36538535
000120 7d 5a 29 be 6d 4f b8 bd 3c 08 4b 3e d3 05 3b 3e
       -0.16538425 -0.08999524 0.1982736 0.1826394
000130 14 5d 32 be f0 32 c7 3e ca 5c a6 3e e5 40 28 3e
       -0.17418319 0.3890605 0.32492667 0.16431005
000140 2b 08 04 3e 6d 14 88 be 8d a2 f9 3d 8a 63 c1 be
       0.12893741 -0.26578084 0.12189207 -0.37771255
000150 3e 30 d7 bc f8 0c 9c 3e d1 8a ed be d2 a8 e0 3d
       -0.02626812 0.30478644 -0.4639497 0.109697
000160 9e c8 c9 be d1 25 8b bd ea ca d0 bd 18 b7 f5 3d
       -0.3941087 -0.06794322 -0.10194953 0.11997813
000170 c7 51 3f bd 55 62 7a bd 33 26 bf 3e cd 05 77 3e
       -0.04670885 -0.061128933 0.3733383 0.24123307
000180 0d be 61 bc 1b 7d 35 3e 39 72 49 bc 0b ab b9 be
       -0.013778222 0.17723505 -0.012295299 -0.36263308
000190 42 8f a8 be f0 bf 31 3d 69 41 02 bd b4 c6 6d be
       -0.32921797 0.043395936 -0.03180066 -0.2322033
0001a0 c1 29 b9 3e e3 0d b6 3e f9 bd d2 be 46 ff c7 3d
       0.36164668 0.3555747 -0.41160563 0.097654864
0001b0 4d 51 1b be 3b 5a a4 be c8 0e 15 3d 63 17 b5 3e
       -0.15167733 -0.3210009 0.03639105 0.35369405
0001c0 82 5c 7c be f8 4e 34 3e 42 17 99 be 45 ac 8e be
       -0.24644664 0.17608249 -0.29900557 -0.27865806
0001d0 a9 2f 50 bd a5 52 9b 3e 18 7c 44 3e 78 61 40 bd
       -0.050826702 0.3033649 0.19187963 -0.046967953
0001e0 66 9c 5e be 8b 22 82 3c 23 82 d6 3b 63 79 c7 be
       -0.21739349 0.015885612 0.006546275 -0.38959798
0001f0 4e e2 8e be e2 10 ad be 7c 94 14 be b2 99 d9 3d
       -0.27907032 -0.33801943 -0.14509767 0.10625018
000200 be 4d 97 be 60 5d e4 3e 77 b6 a7 3e 73 e3 ee bd
       -0.295515 0.4460249 0.32756397 -0.11664476
000210 95 cc 62 bc 21 94 95 3e 40 b2 ab be 47 84 03 3e
       -0.0138427215 0.29214576 -0.3353443 0.12843429
000220 5e 48 a7 be e5 0b 70 be ee f5 b6 3d bd 43 7c be
       -0.326724 -0.23442037 0.08933626 -0.24635215
000230 81 cb 7f bd 28 63 91 be 81 3a 95 3e 8c 1f b2 3e
       -0.062449936 -0.28395963 0.29146197 0.34789693
000240 ba c2 94 3d 61 8c f4 3e d8 67 e2 bd 27 53 a4 be
       0.07263704 0.4776335 -0.11054963 -0.3209469
000250 5b 9a 7e 3d a2 ad 61 3e 20 62 37 3e 6f fc 8a be
       0.062158924 0.22038892 0.17908525 -0.27145717
000260 f6 da ad 3d d5 d9 76 be 66 31 02 3e fb cf 13 3e
       0.08489029 -0.24106534 0.12714157 0.14434807
000270 c5 bf b5 3e 07 d7 56 bd bf c0 bc bd 85 5a 9a 3e
       0.3549787 -0.05245116 -0.09216451 0.30147186
000280 7a 0b b1 be 9a 7b a6 be f3 f6 81 be 0c 3d d9 3d
       -0.34579068 -0.32516176 -0.2538372 0.10607347
000290 1f 99 03 3d f7 7b a1 3e 22 71 92 3e 4c 68 25 be
       0.03212845 0.3153989 0.28601938 -0.16153067
0002a0 bf 93 93 be 81 00 fa bb e2 a7 3c 3e 47 ad 66 be
       -0.2882366 -0.0076294546 0.18423417 -0.22527038
0002b0 94 3c b4 be 3c 38 91 be 95 ce 5d 3e b5 9a b2 3e
       -0.35202467 -0.28363216 0.21660836 0.34883657
0002c0 c1 fa 36 be 35 35 97 3e 19 c4 ee 3d ea 92 a4 3e
       -0.17869093 0.2953278 0.116584964 0.32143337
0002d0 50 c0 42 3e e1 30 0c 3e 01 d4 3a be 1f e9 af be
       0.19018674 0.13690521 -0.18244936 -0.34357545
0002e0 6b dd 6f be f1 86 a9 bd 10 24 b4 3e d3 fb 8a be
       -0.23424308 -0.08277691 0.35183764 -0.27145252
0002f0 52 cf f9 bc 6f ae c9 be 42 52 95 3e f5 1d b4 3e
       -0.030494366 -0.39390895 0.2916432 0.35179105
000300 4c 58 24 3e 5d 60 6b be 45 46 21 be fc c7 6c 3e
       0.16049308 -0.22985978 -0.15749462 0.23123163
000310 df 6f 60 3e 4d 5e ac 3e ec 85 50 be 64 08 a5 3e
       0.21917675 0.33665696 -0.20363587 0.32232964
000320 80 5f 77 3e dc 92 05 be 9f 47 03 3e 97 76 8b be
       0.24157524 -0.13044304 0.1282029 -0.27238914
000330 31 fe 18 be d7 de a7 be 1a 45 60 be ee c6 84 be
       -0.14940716 -0.327872 -0.2190136 -0.2593302
000340 87 1c 41 3e 45 ea 38 3e ff b9 19 3e 37 1c 7b 3d
       0.18858539 0.18058117 0.15012358 0.061306205
000350 e8 7e 82 3c c8 80 ad be 89 92 d5 3c e8 ff 8e 3d
       0.015929654 -0.33887315 0.02607085 0.06982404
000360 dd f9 b6 bd 63 51 9b be b5 6b 81 bd a3 ed 0a bd
       -0.089343764 -0.3033553 -0.063193716 -0.033918034
000370 06 da 8e be 42 e6 54 be 2f 08 46 bd c7 4d 45 3e
       -0.27900714 -0.20790961 -0.04834765 0.19267951
000380 2d 3e b3 be cd 1a 8e 3d a7 0c d2 bd bc af a6 be
       -0.35008374 0.069387056 -0.102563195 -0.3255595
000390 86 49 80 be 02 c2 ac be 65 d6 a5 3d 0d 8f 0d 3e
       -0.25056094 -0.33741766 0.08097533 0.13824101
0003a0 e3 a9 02 be 03 c3 9c bc 81 34 a3 3d 3d 41 77 3e
       -0.12760119 -0.019135958 0.07968999 0.2414598
0003b0 40 af c1 be 33 74 9a 3e be ce 7d 3e 1d 72 52 be
       -0.37829018 0.30166778 0.24785897 -0.20551343
0003c0 dd 9a 8a be 2b fa 91 3e 24 60 64 3d b6 3f d3 bd
       -0.27071276 0.28511176 0.05575575 -0.10314886
0003d0 76 8d 75 3d c5 6d 7f be 2c 12 9b be 70 83 9d 3e
       0.05994936 -0.24944218 -0.30287302 0.3076434
0003e0 d4 74 29 bc ed d3 97 3e 56 24 45 bb 09 20 54 be
       -0.010342795 0.29653874 -0.0030081472 -0.20715345
0003f0 63 99 96 3d 5f 9c bf be 03 c6 db 3e 30 dd 28 3d
       0.07353475 -0.3742399 0.42924508 0.041226566

sequential_1/Btch_Norm-2/FusedBatchNormV3;StatefulPartitionedCall/sequential_1/Btch_Norm-2/FusedBatchNormV3 f4 [38]
000000 2b 5c ea 3e d7 7a 54 bf 34 f7 86 be eb b9 40 3f
       0.45773444 -0.8299994 -0.26360476 0.7528369
000010 18 00 fc 3e ec 86 d0 be 16 d0 0a 3f 4d 43 0f bf
       0.49218822 -0.40727937 0.54223764 -0.5596207
000020 30 9b 25 be c8 e0 37 bf 49 c2 2a 3e 59 5c fb be
       -0.1617248 -0.71827364 0.16675676 -0.49093893
000030 7c 84 95 3e 50 e2 0e 3d 66 3a 2f 3e 84 55 9c 3e
       0.2920264 0.034883797 0.17112121 0.30533993
000040 45 7f 8b bf 8f b5 9e bf 01 b5 15 bf d4 4c 37 bf
       -1.0898215 -1.2399157 -0.58479315 -0.71601605
000050 07 5f b5 bf ce 98 49 bf e7 86 61 be 4b 53 45 3f
       -1.4169625 -0.78748786 -0.22024117 0.7708022
000060 f6 b4 a4 be 1c 3a 12 3f 01 c0 85 3f 2e f9 13 bf
       -0.32169312 0.5711992 1.044922 -0.57802093
000070 13 18 9c 3f 19 0e 70 be f2 0c ea 3e 7b 18 cc 3e
       1.2194847 -0.23442878 0.45713 0.39862427
000080 bf 23 ed be b5 a5 1d 3e 78 45 1a 3e d8 9e f2 3c
       -0.46316335 0.15395243 0.15065563 0.029616758
000090 8a 91 2c 3f 55 02 92 be
       0.67409575 -0.28517404

sequential_1/Conv2D-1/Conv2D;StatefulPartitionedCall/sequential_1/Conv2D-1/Conv2D f4 [38, 3, 3, 1]
000000 68 f3 2a 3d 10 46 29 3c e0 f5 ed bb 4a c2 7e 3d
       0.041736037 0.010331646 -0.0072619766 0.062197007
000010 82 35 1b bc aa 07 7a 3c b7 50 67 bc 3f 80 fa 3b
       -0.0094732065 0.015260616 -0.014118365 0.0076446827
000020 a1 0d 56 bc dc 00 09 3d d0 a1 5b 3b 62 69 40 bb
       -0.013064773 0.033448085 0.0033513196 -0.0029359688
000030 18 92 39 bc 5e 7a 8d bd f5 ea b0 bd e5 94 7c 3d
       -0.011326335 -0.06908105 -0.086385645 0.061665434
000040 7c c8 8d bd 5f a3 bf bb 50 6f f7 bd 73 0f 91 bd
       -0.06923005 -0.005848333 -0.12081778 -0.07083025
000050 26 4a 5d bc da 4f 5f 3d bf 1c 02 bb c5 2d d6 3d
       -0.013506448 0.05451951 -0.001985356 0.104579486
000060 34 a3 ab bc 63 69 33 bd 32 84 58 bd 98 7a f8 bc
       -0.020951845 -0.043801676 -0.052860446 -0.030331895
000070 f2 04 fd bc 40 45 ef 3d 05 56 60 bd cf dd de bc
       -0.030886147 0.1168313 -0.054769535 -0.027205376
000080 66 3c 23 3d 10 2f b8 ba 7f 01 f9 3c 57 8a d8 bc
       0.039852522 -0.0014052112 0.030396221 -0.026433153
000090 be 9e cb 3c d4 11 c1 bd 90 f9 74 3e 0c 90 02 3d
       0.024855968 -0.094272286 0.23923326 0.031875655
0000a0 40 2d 4f be 20 d1 80 3e 63 8c ba bd bf c3 d4 3c
       -0.20232105 0.2515955 -0.09108808 0.025972245
0000b0 5e 3a 79 3d c5 4f 58 bd 04 20 07 be e3 d9 0b bc
       0.06084668 -0.05281045 -0.13195807 -0.008535835
0000c0 85 0d 3b bd 30 3d c6 3d 62 3d 5a 3d 00 83 65 3c
       -0.04566719 0.09679639 0.053281195 0.014008284
0000d0 6e de ed 3d 31 8a 08 bc a8 82 10 bd 22 27 2e 3d
       0.11614691 -0.008333729 -0.035280854 0.04251779
0000e0 1e 2a 45 3d 47 ab 3f 3c 3c b4 a5 3d ff 81 0f bd
       0.04813587 0.011698551 0.080910176 -0.035036083
0000f0 46 4c 68 bd e8 1a aa 3d ee 0e e2 3c ad 45 a9 be
       -0.056713365 0.08305913 0.02759501 -0.3306097
000100 da 1b 57 3b c2 96 a2 bd 3e e5 e5 3e 98 d5 89 be
       0.0032822997 -0.07938911 0.4490146 -0.26920772
000110 9d 39 ed 3d bb 64 38 be fb 8f 8e 3e c0 be d4 3c
       0.115832545 -0.18007176 0.27844223 0.025969863
000120 79 bf ca bd c1 a5 8b 3d 0e 63 03 3d bf 7e 63 bc
       -0.09899802 0.068187244 0.032076888 -0.013885199
000130 a4 18 d0 3d 11 81 1d 3e 87 ad 31 3e 05 19 76 bc
       0.1016095 0.15381266 0.17351352 -0.015020614
000140 0a a8 7c bd f9 08 fe 3b 2c 95 74 bd 86 79 2d bd
       -0.061683692 0.0077525345 -0.059712574 -0.042352222
000150 90 b6 42 3d 4c af 85 38 62 ee 95 bc e0 95 ab 3c
       0.047537386 6.374586e-05 -0.018302146 0.02094549
000160 52 e0 af bd db e5 03 be 45 dc bc 3c 7e 41 ed bb
       -0.085877076 -0.12880652 0.023054251 -0.0072404733
000170 84 84 ad bb 6e 65 ab 3c 44 d4 1e bd b0 c2 ef bb
       -0.005295338 0.020922389 -0.03877665 -0.0073169097
000180 55 59 34 3d 3e a1 4e bd ce 8c 30 3d 23 66 78 bd
       0.044030506 -0.05044674 0.04310303 -0.06064428
000190 97 41 59 bc 54 f5 8a 3c 30 d4 05 3d 72 3d ab bb
       -0.013260267 0.016962685 0.03267306 -0.0052258307
0001a0 e1 cb 57 bb e4 76 73 bd f2 78 f1 3c e8 74 31 3d
       -0.0032927918 -0.059439555 0.029476617 0.04332438
0001b0 4f c1 0f 3d 88 2a a8 3b ca 63 68 3c c9 c5 ef 3c
       0.035096463 0.0051320232 0.014183948 0.029269116
0001c0 f7 6f 1e 3c 36 84 43 bd 1d 60 bc 3c 1d 2a f1 3c
       0.009670249 -0.047733508 0.02299505 0.029439026
0001d0 a5 fb 1a bd af 3f 81 bd 52 80 45 3d 0a fb 06 bd
       -0.037837643 -0.06310975 0.04821808 -0.032954253
0001e0 c8 85 6d bc 3d 10 94 bd 69 8b 6b 3a 71 13 2e bc
       -0.014497228 -0.0722966 0.00089853123 -0.010624752
0001f0 3b ae 53 bd 1c 22 5d 3d 0a 5b 76 3d f7 a3 62 bd
       -0.05167983 0.053987607 0.060145415 -0.05533215
000200 12 be cf bb 07 86 cc 3d 04 08 72 3c b2 6f 9d bd
       -0.006339797 0.09986501 0.014772419 -0.0768732
000210 bb 8f 9b bd cd f4 a5 bd a0 8e e0 3d ae e6 92 bc
       -0.07595774 -0.08103333 0.109647036 -0.017932262
000220 fb f9 01 bd 52 c4 92 3d db 15 47 bd d5 2e 77 bd
       -0.03173254 0.071663514 -0.048604827 -0.060347397
000230 b7 f1 b7 3d c7 64 a4 bc 65 b3 4f bc cf 8b 9e bb
       0.0898165 -0.020067586 -0.012677048 -0.004838444
000240 38 8f 44 3d 94 e6 11 3d 47 85 36 bd 52 b5 17 3d
       0.047988147 0.035620287 -0.044560697 0.037038155
000250 d9 79 5e bd 32 b9 0d 3d 97 9c 32 3b 68 ed 7b bd
       -0.05431542 0.034600444 0.002725398 -0.061505705
000260 bf 08 7e bd 22 dd 69 3d 6e e4 86 3d b1 75 7e bc
       -0.06202006 0.057095654 0.06586538 -0.0155309895
000270 83 6f cd bb e1 13 e1 3b fe 39 9e 3c 51 b2 18 3d
       -0.0062693967 0.006868825 0.019314762 0.03727943
000280 5b 8c 7e 3b 71 1c 02 bc 4a 73 3a bd f5 39 40 3d
       0.0038840983 -0.007941351 -0.045520104 0.046930272
000290 11 c8 89 bc 30 3c 0c 3d 97 72 54 3d a2 79 2d 3d
       -0.016819032 0.034237087 0.051867094 0.042352326
0002a0 64 75 99 bd 8c d3 b9 bc f9 2d f4 bc 21 02 88 3d
       -0.074930936 -0.022683881 -0.029807078 0.06641031
0002b0 ca 45 72 bd 60 37 cb 3d 6d c6 23 b9 6f b4 39 bc
       -0.059148587 0.09922671 -0.0001561881 -0.011334523
0002c0 42 22 bf 3d c6 f9 94 3c 90 5f c2 bd 17 55 8e 3c
       0.09332706 0.018185508 -0.09490883 0.017374558
0002d0 35 49 2a 3d 7c a5 52 3b f4 4c bd 3d 88 b3 d9 3c
       0.041573722 0.0032142093 0.09243193 0.026574865
0002e0 f6 7b c1 bd 75 7e e9 bd db bc 9f 3c cd 24 33 3d
       -0.09447472 -0.11401073 0.019499233 0.043736268
0002f0 6d c7 0f bd f0 61 35 bd 75 8b 5d bd a3 68 24 bd
       -0.035102297 -0.044282854 -0.054088075 -0.04013885
000300 9d 5a 80 ba e2 ba 4d bd 43 e8 a8 bc 78 b8 2e bd
       -0.000979263 -0.050227053 -0.020618564 -0.04265639
000310 31 c3 13 bc 33 a5 8a 3b d2 c2 80 3e 90 76 af bd
       -0.009018705 0.004231119 0.25148636 -0.08567536
000320 35 2e 81 3d df e4 ca bc 32 42 85 3d 14 2d 69 be
       0.063076414 -0.024767337 0.065067664 -0.22771102
000330 81 4e 6a be 5f c0 02 be ec 84 00 3c c0 32 1e be
       -0.2288151 -0.12768696 0.007844191 -0.15449047
000340 26 27 1a bd e7 43 be 3d a7 eb cc bd 77 55 e0 3d
       -0.03763499 0.09290295 -0.100058846 0.10953801
000350 36 44 00 3e fd 2f 42 3e cb 93 2e be 6a b7 2b bb
       0.1252602 0.18963619 -0.17048566 -0.0026201853
000360 c1 e9 7e bd 19 67 1c be ee 26 a1 be 03 b1 2a 3d
       -0.062234644 -0.15273704 -0.31475013 0.041672718
000370 9a 01 4c 3e 48 ed 0c be 4a ec ac 3d f0 94 32 3e
       0.19922486 -0.1376239 0.08443506 0.17439628
000380 3a a8 3d 3e eb 2d 60 3d ca 98 ad 3d 51 4d aa bc
       0.18521205 0.05473129 0.08476408 -0.02078882
000390 a6 64 13 bd 38 ac fc bb 80 3e 70 3b 13 82 8f 3d
       -0.035984658 -0.0077109598 0.0036658347 0.070072316
0003a0 e3 b4 6d bd 9c a8 86 bd 91 00 43 3d 63 a1 93 3c
       -0.058033835 -0.065751284 0.047607962 0.018021291
0003b0 28 9a 0b bd 4a 59 1f 3d dc c1 d0 3b 7a bb 06 3d
       -0.03408256 0.038903512 0.006370766 0.032893635
0003c0 01 1e a9 3b 01 c9 91 3c 04 33 a5 bc 92 d6 2e be
       0.0051610474 0.017796041 -0.020165928 -0.1707404
0003d0 5e 62 c9 bd 6b 2f 3c 3e 6f 5d 76 3c 21 39 56 be
       -0.09833215 0.18377464 0.015036925 -0.2092023
0003e0 df ec 45 3e 7b 39 2e 3e 70 fa 23 bd ca 34 2d 3c
       0.1932864 0.17014115 -0.040033758 0.010571668
0003f0 75 85 0d bd be 4e be 3c ad b5 73 bb ff 5e e0 bc
       -0.034551103 0.023230907 -0.0037187145 -0.027389048

sequential_1/Conv2D-2/Conv2D;StatefulPartitionedCall/sequential_1/Conv2D-2/Conv2D i1 [38, 3, 3, 38] scale=0.0032415742 zero_point=0
000000 1c 1b f2 be fb b6 f4 1d bc 28 e5 ea bc c5 06 14
       0.090764076 0.0875225 -0.045382038 -0.2139439 -0.01620787 -0.2398765 -0.03889889 0.09400565 -0.22042704 0.12966296 -0.0875225 -0.07131463 -0.22042704 -0.19125287 0.019449444 0.06483148
000010 1c b9 37 b3 dd 26 18 35 da e0 b3 52 da 1e 20 28
       0.090764076 -0.23015177 0.17828658 -0.24960122 -0.113455094 0.123179816 0.07779778 0.17180343 -0.123179816 -0.10373037 -0.24960122 0.2658091 -0.123179816 0.09724723 0.10373037 0.12966296
000020 be dc 07 d7 2b 1d f2 1e ff c9 e5 37 24 6f 17 36
       -0.2139439 -0.11669667 0.022691019 -0.13290454 0.13938768 0.09400565 -0.045382038 0.09724723 -0.0032415742 -0.17828658 -0.0875225 0.17828658 0.11669667 0.35981473 0.07455621 0.175045
000030 1d 44 b8 4a 0b f5 d3 f4 de 34 07 4e 0e 11 f3 a5
       0.09400565 0.22042704 -0.23339334 0.2398765 0.035657316 -0.035657316 -0.14587083 -0.03889889 -0.11021352 0.16856186 0.022691019 0.25284278 0.045382038 0.05510676 -0.042140465 -0.29498324
000040 ac 43 3f 10 2c 08 bc 11 be b2 d0 c6 e0 e8 eb 1d
       -0.27229223 0.21718547 0.20421918 0.051865187 0.14262927 0.025932593 -0.22042704 0.05510676 -0.2139439 -0.25284278 -0.15559556 -0.1880113 -0.10373037 -0.07779778 -0.06807306 0.09400565
000050 f4 02 c2 1d bd 0c f5 39 c9 2b cc 3b 1d d7 bd 13
       -0.03889889 0.0064831483 -0.2009776 0.09400565 -0.21718547 0.03889889 -0.035657316 0.18476972 -0.17828658 0.13938768 -0.16856186 0.19125287 0.09400565 -0.13290454 -0.21718547 0.061589908
000060 33 26 0a da 1d 0a 12 40 d1 d4 dc 3a d0 39 ed e2
       0.16532028 0.123179816 0.03241574 -0.123179816 0.09400565 0.03241574 0.058348335 0.20746075 -0.15235399 -0.14262927 -0.11669667 0.1880113 -0.15559556 0.18476972 -0.061589908 -0.09724723
000070 c4 0b de c2 f8 37 c5 bd 00 3d e2 f1 d8 f7 b7 ca
       -0.19449446 0.035657316 -0.11021352 -0.2009776 -0.025932593 0.17828658 -0.19125287 -0.21718547 0.0 0.19773602 -0.09724723 -0.048623614 -0.12966296 -0.029174168 -0.23663491 -0.175045
000080 fd 2e 13 f3 43 23 21 42 d2 00 2b 16 10 fe ed e8
       -0.009724722 0.14911242 0.061589908 -0.042140465 0.21718547 0.113455094 0.10697195 0.2139439 -0.14911242 0.0 0.13938768 0.07131463 0.051865187 -0.0064831483 -0.061589908 -0.07779778
000090 28 2c 28 ec c0 22 eb 13 17 b8 02 21 f6 22 ea 69
       0.12966296 0.14262927 0.12966296 -0.06483148 -0.20746075 0.11021352 -0.06807306 0.061589908 0.07455621 -0.23339334 0.0064831483 0.10697195 -0.03241574 0.11021352 -0.07131463 0.3403653
0000a0 33 b6 c5 2b 25 43 e8 ea d8 25 0a 1a ea 1a c5 08
       0.16532028 -0.2398765 -0.19125287 0.13938768 0.11993825 0.21718547 -0.07779778 -0.07131463 -0.12966296 0.11993825 0.03241574 0.08428093 -0.07131463 0.08428093 -0.19125287 0.025932593
0000b0 0b 3a 31 e9 24 36 5d 00 f6 d1 06 be 3f be 38 09
       0.035657316 0.1880113 0.15883714 -0.07455621 0.11669667 0.175045 0.3014664 0.0 -0.03241574 -0.15235399 0.019449444 -0.2139439 0.20421918 -0.2139439 0.18152815 0.029174168
0000c0 28 c0 06 0f ad 39 3d 31 d0 04 0b 02 2e 00 16 02
       0.12966296 -0.20746075 0.019449444 0.048623614 -0.26905066 0.18476972 0.19773602 0.15883714 -0.15559556 0.012966297 0.035657316 0.0064831483 0.14911242 0.0 0.07131463 0.0064831483
0000d0 95 2a cb e0 1f 20 01 e6 ea 16 14 c4 d6 e1 c3 2b
       -0.34684843 0.13614611 -0.17180343 -0.10373037 0.1004888 0.10373037 0.0032415742 -0.08428093 -0.07131463 0.07131463 0.06483148 -0.19449446 -0.13614611 -0.1004888 -0.19773602 0.13938768
0000e0 27 e1 da 1a 07 ed f8 3f 2c be 00 ce 2f d1 10 eb
       0.12642139 -0.1004888 -0.123179816 0.08428093 0.022691019 -0.061589908 -0.025932593 0.20421918 0.14262927 -0.2139439 0.0 -0.16207871 0.15235399 -0.15235399 0.051865187 -0.06807306
0000f0 e7 25 f7 35 2d 3e f3 15 08 e9 02 01 c5 ec 4f 40
       -0.081039354 0.11993825 -0.029174168 0.17180343 0.14587083 0.2009776 -0.042140465 0.06807306 0.025932593 -0.07455621 0.0064831483 0.0032415742 -0.19125287 -0.06483148 0.25608435 0.20746075

sequential_1/Conv2D-3/Conv2D;StatefulPartitionedCall/sequential_1/Conv2D-3/Conv2D i1 [38, 3, 3, 38] scale=0.0031455136 zero_point=0
000000 2b e1 f0 04 d8 d6 e1 e8 2e 2d 21 26 28 fc 04 d9
       0.13525708 -0.09751092 -0.050328217 0.012582054 -0.12582055 -0.13211156 -0.09751092 -0.07549232 0.14469363 0.14154811 0.10380195 0.119529516 0.12582055 -0.012582054 0.012582054 -0.12267503
000010 0b 27 e9 f3 37 01 fc d8 f9 ec fc c9 0f fd e5 ee
       0.03460065 0.12267503 -0.072346814 -0.040891677 0.17300324 0.0031455136 -0.012582054 -0.12582055 -0.022018595 -0.06291027 -0.012582054 -0.17300324 0.047182705 -0.00943654 -0.08492887 -0.056619246
000020 25 ee 24 e0 fc d1 dc ff e5 df db 27 1c 22 31 fc
       0.116384 -0.056619246 0.11323849 -0.100656435 -0.012582054 -0.14783914 -0.11323849 -0.0031455136 -0.08492887 -0.10380195 -0.116384 0.12267503 0.08807438 0.10694746 0.15413016 -0.012582054
000030 ee d7 34 14 ee e2 0e e6 e2 dc 03 f3 ec ce d2 cd
       -0.056619246 -0.12896606 0.16356671 0.06291027 -0.056619246 -0.09436541 0.04403719 -0.081783354 -0.09436541 -0.11323849 0.00943654 -0.040891677 -0.06291027 -0.15727568 -0.14469363 -0.1604212
000040 ee 2a 13 20 0e 18 fa 11 d7 e6 13 24 da 26 04 1c
       -0.056619246 0.13211156 0.059764758 0.100656435 0.04403719 0.07549232 -0.01887308 0.05347373 -0.12896606 -0.081783354 0.059764758 0.11323849 -0.119529516 0.119529516 0.012582054 0.08807438
000050 39 f0 0d d0 c1 2d f9 ce c9 eb 00 20 06 14 16 00
       0.17929427 -0.050328217 0.040891677 -0.15098464 -0.19816735 0.14154811 -0.022018595 -0.15727568 -0.17300324 -0.06605578 0.0 0.100656435 0.01887308 0.06291027 0.0692013 0.0
000060 1e 1b 1b fc 01 e4 27 25 34 e9 d9 37 ea 26 1d 17
       0.09436541 0.08492887 0.08492887 -0.012582054 0.0031455136 -0.08807438 0.12267503 0.116384 0.16356671 -0.072346814 -0.12267503 0.17300324 -0.0692013 0.119529516 0.091219895 0.072346814
000070 06 0c 29 22 28 19 00 e9 fa 08 30 1d f5 2d e9 1f
       0.01887308 0.03774616 0.12896606 0.10694746 0.12582055 0.07863784 0.0 -0.072346814 -0.01887308 0.025164109 0.15098464 0.091219895 -0.03460065 0.14154811 -0.072346814 0.09751092
000080 f3 e4 df e1 f6 1b 34 f3 0a 07 1f e2 ff 17 2f e6
       -0.040891677 -0.08807438 -0.10380195 -0.09751092 -0.031455137 0.08492887 0.16356671 -0.040891677 0.031455137 0.022018595 0.09751092 -0.09436541 -0.0031455136 0.072346814 0.14783914 -0.081783354
000090 fc 29 fa 0e 1a 21 27 dd 23 09 1b c4 1c 29 f8 d5
       -0.012582054 0.12896606 -0.01887308 0.04403719 0.081783354 0.10380195 0.12267503 -0.110092975 0.110092975 0.028309623 0.08492887 -0.18873082 0.08807438 0.12896606 -0.025164109 -0.13525708
0000a0 18 ef c6 00 33 16 f8 d0 f5 fa 27 17 03 08 03 19
       0.07549232 -0.05347373 -0.18243979 0.0 0.1604212 0.0692013 -0.025164109 -0.15098464 -0.03460065 -0.01887308 0.12267503 0.072346814 0.00943654 0.025164109 0.00943654 0.07863784
0000b0 01 f7 f3 ff 2c d4 d4 d6 27 e4 1c 18 1c df 22 f7
       0.0031455136 -0.028309623 -0.040891677 -0.0031455136 0.1384026 -0.1384026 -0.1384026 -0.13211156 0.12267503 -0.08807438 0.08807438 0.07549232 0.08807438 -0.10380195 0.10694746 -0.028309623
0000c0 26 ef f0 c5 1a 04 1a fc 22 29 1c 23 e3 de ce cd
       0.119529516 -0.05347373 -0.050328217 -0.1855853 0.081783354 0.012582054 0.081783354 -0.012582054 0.10694746 0.12896606 0.08807438 0.110092975 -0.091219895 -0.10694746 -0.15727568 -0.1604212
0000d0 09 df 30 09 02 e9 f6 2c e1 11 1d 07 00 14 1e de
       0.028309623 -0.10380195 0.15098464 0.028309623 0.006291027 -0.072346814 -0.031455137 0.1384026 -0.09751092 0.05347373 0.091219895 0.022018595 0.0 0.06291027 0.09436541 -0.10694746
0000e0 e5 f2 dc dd 04 1a 24 0c f9 f3 ff de 1c ef 03 f1
       -0.08492887 -0.04403719 -0.11323849 -0.110092975 0.012582054 0.081783354 0.11323849 0.03774616 -0.022018595 -0.040891677 -0.0031455136 -0.10694746 0.08807438 -0.05347373 0.00943654 -0.047182705
0000f0 21 01 dd ff 24 0f f5 e2 37 2c eb 26 0c 2d 30 fb
       0.10380195 0.0031455136 -0.110092975 -0.0031455136 0.11323849 0.047182705 -0.03460065 -0.09436541 0.17300324 0.1384026 -0.06605578 0.119529516 0.03774616 0.14154811 0.15098464 -0.015727568
