Homework2/new ex2/models/PQT_cnn_V_a_alpha=0.3.tflite (tflite, 33040 bytes, 8 tensors)

unknown_15 f4 [8]
0	0x3bcd941c	0.0062737595
1	0x3c01dc1d	0.007926014
2	0x3c8d88e7	0.017277194
3	0x3a1cc77c	0.0005980653
4	0xbc67eb54	-0.014155228
5	0xbce97682	-0.028498892
6	0x3b4a8ceb	0.0030906748
7	0x3ca458c9	0.020061867

sequential_34/Btch_Norm-1/FusedBatchNormV3;StatefulPartitionedCall/sequential_34/Btch_Norm-1/FusedBatchNormV3 f4 [38]
0	0xbe6c8650	-0.23098111
1	0xbe8fda6e	-0.28096336
2	0x3eaaccb8	0.33359313
3	0xbe98ea7d	-0.298664
4	0xbd3d557e	-0.04622411
5	0x3e9d0dad	0.30674496
6	0xbea1001d	-0.314454
7	0xbe9c28e8	-0.3049996
8	0x3ea72f47	0.32653257
9	0x3eb40c21	0.35165504
10	0x3eb570f2	0.35437733
11	0x3e59c437	0.21266256
12	0x3eac1d14	0.33615935
13	0xbeae8d29	-0.34092072
14	0xbc900354	-0.017579712
15	0x3c5416c0	0.012944877
16	0xbea21094	-0.31653273
17	0xbea24ddc	-0.31700027
18	0xbe9ff383	-0.31240472
19	0x3eae6c97	0.34067222
20	0x3ec6adfd	0.38804618
21	0x3e9754db	0.29556927
22	0xbe9f07c2	-0.31060606
23	0x3ea09b3e	0.3136844
24	0xbea0eb18	-0.31429362
25	0x3eb68087	0.35644934
26	0xbeb6ebf1	-0.35726884
27	0x3ea70be0	0.32626247
28	0x3e95c58a	0.29252273
29	0x3eb5cf4c	0.35509717
30	0xbea31367	-0.3185074
31	0x3eb994a1	0.36246207
32	0xbdc5e01e	-0.096618876
33	0xbeb42e38	-0.35191512
34	0xbe9c051b	-0.30472645
35	0xbe8ee242	-0.27906996
36	0xbe00cc08	-0.12577832
37	0x3c881ee4	0.016616292

sequential_34/Btch_Norm-3/FusedBatchNormV3;StatefulPartitionedCall/sequential_34/Btch_Norm-3/FusedBatchNormV3 f4 [38]
0	0xbe94ca3e	-0.2906055
1	0x3ee07281	0.4383736
2	0x3dba73d7	0.09104126
3	0xbf2e0bef	-0.6798696
4	0x3e762a0e	0.2403948
5	0x3ea409ab	0.32038626
6	0xbb458d34	-0.0030143978
7	0x3e42700c	0.18988055
8	0x3f11329a	0.56717837
9	0xbe014c45	-0.12626751
10	0xbcf53410	-0.029932052
11	0x3ee10394	0.43948042
12	0xbf11f0c7	-0.5700802
13	0x3d00b364	0.03142108
14	0xbeb5a331	-0.35476068
15	0xbdd79308	-0.10526091
16	0xbf28fa07	-0.6600651
17	0x3e7fbe7d	0.2497501
18	0xbe9ef54f	-0.3104653
19	0x3f23654b	0.63826436
20	0xbd0f5936	-0.034997188
21	0xbebc4b38	-0.36776137
22	0xbf32583a	-0.69665873
23	0xbf85e494	-1.0460382
24	0xbeb4a154	-0.35279334
25	0xbf715c88	-0.94281816
26	0x3dc89a2c	0.09795031
27	0xbed218a5	-0.41034427
28	0xbead062d	-0.33793774
29	0xbebf345b	-0.37344632
30	0xbefeb819	-0.4974983
31	0xbf652744	-0.8951304
32	0xbf4e6533	-0.8062317
33	0xbee3b696	-0.4447524
34	0xbeac4a8a	-0.3365062
35	0xbee2d899	-0.44305876
36	0xbe0ef46c	-0.13960427
37	0xbed8ed2a	-0.42368442

sequential_34/Output-Layer/MatMul;StatefulPartitionedCall/sequential_34/Output-Layer/MatMul f4 [8, 38]
0	0x3e7e81ad	0.24854155
1	0x3ea14250	0.31495905
2	0x3c105f41	0.008811773
3	0xbd80180f	-0.06254589
4	0xbe6324f6	-0.22182068
5	0x3d6e4de9	0.05817977
6	0xbd26143a	-0.040546633
7	0xbd62f61c	-0.05541049
8	0xbe8cc66f	-0.27495143
9	0xbe51429c	-0.20435566
10	0xbea81e41	-0.32835582
11	0x3d964661	0.073376425
12	0x3ed45541	0.41471294
13	0x3d95ad7b	0.073084794
14	0xbc98246a	-0.018572051
15	0x3d93364a	0.07188089
16	0xbe747f5d	-0.2387671
17	0x3e1aa5fa	0.15102378
18	0x3e9bdcc5	0.3044187
19	0x3e99723b	0.29969963
20	0x3dcd29a1	0.10017706
21	0x3e6c4d98	0.23076475
22	0xbd79d777	-0.0609965
23	0xbe5521f6	-0.20813736
24	0x3d562108	0.052277595
25	0xbe9e51d8	-0.30921817
26	0x3e403d52	0.18773392
27	0xbe2af22d	-0.16693945
28	0xbe625e98	-0.22106397
29	0x3db23da0	0.0870316
30	0x3e9ed12a	0.31018955
31	0xbb1264e6	-0.0022337972
32	0xbea54508	-0.3227923
33	0xbd58f9c0	-0.052972555
34	0xbda5eeac	-0.08102164
35	0xbe2204e9	-0.15822186
36	0x3e0865b7	0.13320051
37	0x3dff8845	0.12477163
38	0x3cb47cd1	0.022032173
39	0xbe541b6f	-0.2071359
40	0xbe62b056	-0.2213758
41	0x3ded3ea6	0.11584215
42	0x3e289bc4	0.1646567
43	0xbded96e9	-0.116010495
44	0x3ec01c30	0.37521505
45	0xbe09982c	-0.13436955
46	0x3e514378	0.20435894
47	0x3e85823b	0.2607592
48	0x3e55c8ad	0.20877333
49	0x3d63eb97	0.055644598
50	0x3ebe8b42	0.3721562
51	0xbd7ec20a	-0.06219677
52	0x3e5b457a	0.21413222
53	0x3e887c2e	0.26657242
54	0x3e33e2a8	0.17566931
55	0xbe7396ab	-0.23787944
56	0xbe0f5a5a	-0.1399931
57	0xbe5d423d	-0.21607299
58	0xbcb17211	-0.021660836
59	0x3d0b4fd8	0.03401169
60	0xbe9025b5	-0.28153768
61	0xbd7d20da	-0.061798908
62	0x3dc7751a	0.09739132
63	0xbe507ba2	-0.20359662
64	0xbe95a005	-0.29223648
65	0xbca1b2f9	-0.019738661
66	0xbe0ce82c	-0.13760442
67	0xbe824b58	-0.25448108
68	0xbe84251c	-0.25809562
69	0x3d536b13	0.051615786
70	0x3ea54070	0.32275724
71	0x3e96e774	0.2947346
72	0xbe9d5bdc	-0.30734146
73	0x3df7fe06	0.12108998
74	0x3e83df29	0.25756195
75	0xbd5b93bf	-0.0536077
76	0x3dcf0789	0.10108859
77	0xbea31fb2	-0.3186012
78	0x3ec67a69	0.38765267
79	0xbea4ac6d	-0.321628
80	0xbe4ed6ed	-0.20199175
81	0x3d08abce	0.03336697
82	0x3e243266	0.1603485
83	0x3da71576	0.0815839
84	0xbe16d10e	-0.14728186
85	0x3e812cd0	0.25229502
86	0x3e1f2efa	0.15545264
87	0xbe2759f4	-0.16342908
88	0xbe0caaac	-0.13736981
89	0xbddf56bf	-0.109052174
90	0x3e210c09	0.15727247
91	0xbe9ef802	-0.3104859
92	0xbe967466	-0.2938568
93	0xbe68b7f4	-0.22726423
94	0xbe7e5b58	-0.24839532
95	0xbc986584	-0.018603094
96	0xbe05e213	-0.13074522
97	0xbd5f419f	-0.05450594
98	0xbe7df60b	-0.24800889
99	0x3decca3f	0.11562013
100	0x3e99cedf	0.30040643
101	0x3e3b8e4b	0.18315999
102	0x3e8a2e08	0.26988244
103	0x3eab56a3	0.33464536
104	0xbde569b7	-0.11201804
105	0x3e758f83	0.23980527
106	0x3e74aeb7	0.23894773
107	0xbeb3badb	-0.35103497
108	0x3c64fb5b	0.013975943
109	0x3e3a0625	0.18166406
110	0xbc290648	-0.010316439
111	0x3d884e3e	0.066555485
112	0x3e69c7e6	0.22830161
113	0xbd556940	-0.052102327
114	0x3ea91236	0.33021706
115	0x3e793867	0.24337922
116	0xbc76a7d4	-0.015054662
117	0x3e9c9d84	0.30588925
118	0xbeae4c33	-0.3404251
119	0xbeabdab0	-0.33565283
120	0x3c4df26f	0.012570008
121	0x3cfce960	0.030873
122	0x3e8729bc	0.26399028
123	0xbe843ea6	-0.25829047
124	0xbda32226	-0.07965498
125	0xbe276caa	-0.16350046
126	0xbe5bceb7	-0.21465574
127	0xbcf82004	-0.030288704
128	0xbebe64f5	-0.371864
129	0xbe5941ff	-0.21216582
130	0x3e5cfff6	0.21582016
131	0xbe0d9afd	-0.13828655
132	0x3dffc6d8	0.12489098
133	0x3e3be66e	0.1834962
134	0xbdb6eb38	-0.08931583
135	0x3eb537a5	0.35394016
136	0xbdc10447	-0.09424644
137	0x3ea6011b	0.32422718
138	0x3dd6181d	0.10453818
139	0x3cedd4dc	0.029032163
140	0xbe8bda60	-0.27315044
141	0xbe3e685a	-0.18594494
142	0x3dc79f41	0.09747172
143	0xbe81da68	-0.25361943
144	0x3e6a22a2	0.22864774
145	0x3eae9798	0.34100032
146	0x3e84e2ce	0.25954288
147	0x3ea43e13	0.3207861
148	0xbe8890a7	-0.2667286
149	0xbdee3209	-0.11630637
150	0xbe2d9037	-0.16949545
151	0x3da3e7a5	0.08003167
152	0xbdb94ed3	-0.09048238
153	0x3e8c1074	0.27356303
154	0x3dfbce8d	0.12295256
155	0x3e27b017	0.16375767
156	0xbdfcd33f	-0.123449795
157	0x3e99aae6	0.30013198
158	0x3dc332ff	0.09531211
159	0x3d1bf462	0.03807486
160	0xbd2cdf57	-0.04220518
161	0xbe91544d	-0.2838463
162	0xbc558c2a	-0.013033906
163	0x3e951e3f	0.29124638
164	0x3e0ab9bb	0.13547413
165	0xbc929899	-0.01789503
166	0x3baf45d7	0.0053489017
167	0x3dfbc5c3	0.122935794
168	0x3b64bd88	0.0034903008
169	0xbe0994c0	-0.1343565
170	0xbe9cd398	-0.30630183
171	0xbe91e398	-0.28493953
172	0xbea55edd	-0.32298937
173	0x3e43af67	0.1910988
174	0x3e5b8c99	0.21440352
175	0xbccd5371	-0.025064202
176	0x3e029ffe	0.12756345
177	0x3e8d93d8	0.27651858
178	0x3ea89220	0.32923985
179	0xbdd0a626	-0.1018794
180	0x3d990bfb	0.07472988
181	0x3df37d1d	0.11889098
182	0xbe5dd7fc	-0.21664423
183	0xbe5dd8ba	-0.21664706
184	0x3e8ab1f4	0.27088892
185	0xbeacdd31	-0.33762506
186	0x3e381f21	0.17980625
187	0xbdceeb19	-0.10103435
188	0xbde1ecc5	-0.11031488
189	0xbe0bd36d	-0.13654871
190	0xbdc10f5a	-0.09426756
191	0xbed68fb4	-0.41906512
192	0x3e880b9b	0.26571354
193	0xbd1d135b	-0.038348537
194	0x3db08a38	0.08620113
195	0xbe5a2321	-0.21302463
196	0xbcf4feb8	-0.029906616
197	0xbe75edf0	-0.24016547
198	0xbd0a9a68	-0.03383866
199	0x3e394f47	0.18096648
200	0x3e886ad2	0.26643997
201	0xbd5d9a3d	-0.05410217
202	0xbd92b048	-0.07162529
203	0xbea8c256	-0.32960767
204	0x3ca4cb09	0.020116346
205	0x3eb51c51	0.35373166
206	0x3d350226	0.044191502
207	0x3ca61389	0.020272987
208	0x3e6bb002	0.2301636
209	0x3e919ba7	0.28439066
210	0x3bee2249	0.0072672707
211	0xbe8d6fca	-0.2762435
212	0xbd7abf1b	-0.06121741
213	0x3cdb9425	0.02680404
214	0xbe54cd0c	-0.20781344
215	0x3e8fd299	0.2809036
216	0xbe7d392e	-0.24728844
217	0x3e0504bb	0.12990086
218	0xbe1ed300	-0.15510178
219	0xbe896b78	-0.26839805
220	0x3e9d83b4	0.30764544
221	0x3e85b277	0.2611272
222	0xbcf03063	-0.029319948
223	0xbd3e5c80	-0.046474934
224	0x3c3bd3e2	0.011464091
225	0x3e85da00	0.26142883
226	0x3d1ab8e5	0.037773985
227	0xbd4fe905	-0.050759334
228	0xbe80c2fb	-0.25148758
229	0xbd7b284d	-0.06131773
230	0x3e3830db	0.17987387
231	0x3e605a5d	0.21909471
232	0x3ea788c5	0.32721534
233	0xbe5ace48	-0.21367753
234	0xbea921be	-0.33033556
235	0x3db2305e	0.087006316
236	0xbbc78160	-0.0060884207
237	0xbd9717fb	-0.07377621
238	0xbd8c33bb	-0.06845804
239	0xbe896bb4	-0.26839983
240	0xbcd6a7dc	-0.026203088
241	0xbdd4a13e	-0.10382317
242	0xbea16438	-0.31521773
243	0xbead54c8	-0.33853745
244	0x3cde85c4	0.027163394
245	0x3e75454a	0.23952213
246	0x3e0ef85e	0.13961932
247	0xbeb88dcd	-0.36045685
248	0x3ec5c1cc	0.38624418
249	0x3e96dd08	0.29465508
250	0xbca4e0d4	-0.020126738
251	0x3e21aa54	0.15787631
252	0xbd83931a	-0.06424542
253	0x3dfef3d6	0.12448852
254	0xbec4df7d	-0.38451758
255	0x3eaa2c9f	0.33237168

sequential_34/Btch_Norm-2/FusedBatchNormV3;StatefulPartitionedCall/sequential_34/Btch_Norm-2/FusedBatchNormV3 f4 [38]
0	0x3f4aa91c	0.7916429
1	0xbe24161f	-0.16024064
2	0x3dafe4ec	0.08588585
3	0x3e68115c	0.22662872
4	0xbe7d5306	-0.24738702
5	0xbec73f10	-0.389153
6	0xbf505921	-0.81386
7	0xbe04d593	-0.12972097
8	0x3f38125c	0.71903014
9	0xbefe9094	-0.4971968
10	0x3f3b8990	0.7325678
11	0x3f00d48a	0.5032431
12	0x3f2e43cf	0.6807222
13	0xbf401fda	-0.750486
14	0x3f5d693e	0.8648871
15	0x3f585758	0.84508276
16	0x3db33570	0.08750427
17	0x3d5d440c	0.054019973
18	0xbea84a5f	-0.3286924
19	0xbe5df204	-0.21674353
20	0x3f2a357d	0.66487867
21	0x3fe51d14	1.7899499
22	0xc0059f68	-2.0878544
23	0x3e8a20fd	0.26978293
24	0xbf00c4a6	-0.5030006
25	0x3eeded9e	0.4647035
26	0xbfa42c72	-1.2826064
27	0xbfd939cf	-1.6970767
28	0xbf04bee2	-0.51853764
29	0x4030eec7	2.7645738
30	0x3f2d842a	0.6777979
31	0xbcf63ac3	-0.030057317
32	0x3cc72d14	0.024313487
33	0x40174749	2.363726
34	0xbe73ea55	-0.2381986
35	0x40196b69	2.3971808
36	0xbfe5a17d	-1.7939907
37	0xbf35de7f	-0.7104263

sequential_34/Conv2D-1/Conv2D;StatefulPartitionedCall/sequential_34/Conv2D-1/Conv2D f4 [38, 3, 3, 1]
0	0x3e313a0e	0.17307302
1	0x3d815d7c	0.06316659
2	0xbd6d5cbd	-0.05794977
3	0xbe40535c	-0.18781799
4	0x3ddd1f10	0.1079694
5	0xbd887468	-0.06662828
6	0xbd33632b	-0.043795746
7	0x3e16dc97	0.14732586
8	0xbda0a940	-0.07844782
9	0x3dd830d1	0.10556186
10	0xbd521b67	-0.051295664
11	0xbbbcf777	-0.005766805
12	0xbda760ee	-0.08172785
13	0x3dc88aa7	0.09792071
14	0x3c169d27	0.0091927415
15	0xbdb5fc68	-0.08886033
16	0xbdb45a6b	-0.08806308
17	0x3d961743	0.073286556
18	0x3d871386	0.06595521
19	0x3d63d419	0.055622194
20	0xbbf0b369	-0.007345606
21	0xbcc54c85	-0.024084339
22	0xbc9d2574	-0.019182898
23	0xbc6f8e48	-0.014621325
24	0x3cf3d762	0.029765788
25	0xbcaadaa2	-0.020856205
26	0x3d1cb530	0.03825873
27	0xbd21e367	-0.03952351
28	0x3cc84fd4	0.024452128
29	0xbb3c8d64	-0.0028770799
30	0x3cc0f604	0.02355481
31	0xbe0f5542	-0.13997367
32	0x3dc557e3	0.09635904
33	0xbd5b0e02	-0.053480156
34	0xbcef33f9	-0.029199587
35	0x3d22d678	0.039755315
36	0xbe9c9cb4	-0.30588305
37	0xbe2a39d1	-0.16623618
38	0x3d30c23b	0.043153983
39	0x3c2fdaaf	0.010733291
40	0xbe2052ae	-0.1565654
41	0x3e14abf0	0.14518714
42	0x3e90ad90	0.28257418
43	0x3e193dcd	0.14964981
44	0xbe3a8645	-0.18215282
45	0xbc6dc17f	-0.014511465
46	0xbd987181	-0.07443524
47	0x3da8b7f4	0.08238211
48	0xbd2825dd	-0.041051734
49	0x3dc77aec	0.09740242
50	0xbd9c4ac1	-0.07631446
51	0x3dfa7923	0.12230136
52	0xbc9150f6	-0.0177388
53	0x3d701adf	0.058619376
54	0xbc952ba5	-0.018209288
55	0x3dc2ac59	0.09505529
56	0xbe40ae1f	-0.18816422
57	0xbba625ee	-0.0050704395
58	0xbe217ad1	-0.15769507
59	0xbe0b0dbe	-0.13579461
60	0xbd305171	-0.04304642
61	0x3e3eab49	0.18620028
62	0xbd3cb7ff	-0.04607391
63	0x3cb720e6	0.022354554
64	0x3c183858	0.009290777
65	0xbd84674d	-0.064650156
66	0xbd4d8b31	-0.05018157
67	0x3ca2f0d9	0.019890236
68	0xbce54785	-0.027988205
69	0xbd318ce3	-0.04334725
70	0x3d8cfc2d	0.06884036
71	0x3c2c0644	0.010499541
72	0x3d6bdb3d	0.05758213
73	0x3bd132d1	0.0063842316
74	0x3bcefd46	0.0063168136
75	0x3d3334e4	0.043751612
76	0xbd923bac	-0.07140288
77	0xbd3c635b	-0.04599319
78	0xbd072280	-0.032991886
79	0x3c857ac1	0.016293885
80	0xbd8666ff	-0.06562614
81	0x3cfafc8c	0.030638002
82	0xbcc54be8	-0.024084046
83	0x3cc7e94f	0.024403242
84	0x3ccf2ceb	0.025289973
85	0xbb363530	-0.0027802698
86	0x3cb7465d	0.022372419
87	0x3c964365	0.018342683
88	0x3c42c60c	0.011888038
89	0xbc09be13	-0.008407134
90	0x3c3ab7fd	0.011396405
91	0x3d290d90	0.0412727
92	0x3c7322ba	0.014839822
93	0x3d42cf3c	0.047560915
94	0x3d183e53	0.037168812
95	0xbcce9033	-0.025215244
96	0x3c5d8ee3	0.013522836
97	0x3caf393a	0.021389592
98	0x3d07d2db	0.03316007
99	0xbe5966ef	-0.21230672
100	0x3e224f2c	0.15850514
101	0x3dfba1b8	0.12286705
102	0x3d3530de	0.044236057
103	0xbda30c5c	-0.07961342
104	0x3dba3345	0.0909181
105	0x3e55a5be	0.20864007
106	0x3e2b0468	0.167009
107	0x3d14ae4c	0.036299035
108	0xbc8f0977	-0.017460568
109	0xbd31a069	-0.04336587
110	0xbd0a8140	-0.03381467
111	0x3d687046	0.056747697
112	0x3d9299ff	0.07158279
113	0xbcb9bbfc	-0.022672646
114	0x3d08abf7	0.033367123
115	0x3d92a4c5	0.071603335
116	0xbd6a4eec	-0.057204172
117	0xbd20d7d5	-0.039268333
118	0xbcd19d4c	-0.0255877
119	0xbd1bfd46	-0.038083337
120	0x3c74e3c2	0.01494688
121	0x3cf91f44	0.030410416
122	0x3d1f01aa	0.038819946
123	0xbd3feef7	-0.046858754
124	0x3d420c56	0.047375046
125	0xbccbd964	-0.024883933
126	0xbe5870fb	-0.21136849
127	0xbe675679	-0.2259158
128	0xbe5e9d19	-0.21739615
129	0x3d235d01	0.039883617
130	0xbd2e5671	-0.042562906
131	0xbe4e5ae1	-0.20151855
132	0x3e4679ad	0.19382353
133	0xbe644505	-0.22291954
134	0xbde513aa	-0.11185391
135	0x3e70dfbc	0.23522848
136	0xbde41c42	-0.11138202
137	0xbd97f468	-0.07419664
138	0x3dd0f8bb	0.102036916
139	0xbe307e07	-0.17235576
140	0x3d5d331d	0.054003824
141	0xbea6b44f	-0.3255944
142	0x3e7d5184	0.24738127
143	0x3e15e81b	0.14639322
144	0x3ccda0b9	0.025101053
145	0x3d886896	0.06660573
146	0x3dcd5d45	0.100275554
147	0xbd64b80c	-0.055839583
148	0xbd3e14a7	-0.046406414
149	0x3d961f4c	0.07330188
150	0xbd1631d0	-0.0366686
151	0xbd598507	-0.05310538
152	0xbd89f3af	-0.06735932
153	0xbd753a9e	-0.059870355
154	0xbcdbb421	-0.02681929
155	0x3d0bb646	0.034109376
156	0x3d086eea	0.0333089
157	0x3da34449	0.07972009
158	0xbc9fb771	-0.019496651
159	0xbd312963	-0.04325236
160	0x3d874954	0.06605783
161	0x3d442329	0.047885094
162	0xbbdcaac3	-0.0067342236
163	0xbc0cac90	-0.008586064
164	0x3c3aeca1	0.011408956
165	0xbccf13f6	-0.025278073
166	0xbbca2b93	-0.0061697452
167	0x3c6188be	0.013765512
168	0xbd17f463	-0.0370983
169	0xbc34ee64	-0.011043165
170	0x3d1ec31c	0.03876029
171	0x3d767329	0.06016842
172	0xbd9b5fc4	-0.07586625
173	0xbd94d6b8	-0.07267517
174	0xbd0a186b	-0.033714693
175	0xbd5ee4e2	-0.0544175
176	0x3d8c4c11	0.06850446
177	0x3d365cf0	0.044522226
178	0xbaff1d38	-0.0019463664
179	0x3d02092c	0.03174703
180	0x3cb77f9c	0.022399716
181	0x3c51cddc	0.012805428
182	0xbbb8eeb7	-0.0056436914
183	0x3d368eab	0.044569653
184	0xbcfa5600	-0.030558586
185	0xbcf31093	-0.02967099
186	0x3bc244d5	0.0059286156
187	0xbc8b1c7f	-0.016981361
188	0x3d42ce4c	0.04756002
189	0x3d131bfb	0.035915356
190	0xbd82b993	-0.06383052
191	0xbd0faa22	-0.03507436
192	0xbca3c03c	-0.019989125
193	0x3d9e58f3	0.077318095
194	0xbccb8ffb	-0.024848929
195	0x3d59a268	0.0531334
196	0x3d6702e1	0.05639923
197	0x3c76abd5	0.015055616
198	0xbc343645	-0.010999267
199	0x3d16781a	0.03673563
200	0x3d6687a8	0.056281716
201	0xbd9ce72d	-0.07661281
202	0xbe0961d2	-0.13416222
203	0x3d7c2e06	0.06156733
204	0x3cb0a28b	0.021561882
205	0xbe095374	-0.13410741
206	0x3d406b2a	0.0469772
207	0x3c892c61	0.016744794
208	0x3ca3740a	0.019952793
209	0x3cd08699	0.025454806
210	0x3d04428a	0.03229002
211	0x3cd9731f	0.026544152
212	0xbce8ef24	-0.028434344
213	0x3cb80755	0.022464434
214	0xbc8683e2	-0.016420309
215	0x3d059c7a	0.03261993
216	0xbd111a65	-0.035425562
217	0x3c9aaf2b	0.018882355
218	0xbcdbfdea	-0.026854474
219	0xbd172d88	-0.036908656
220	0x3bcc03a8	0.006226022
221	0xbd21da5e	-0.03951489
222	0x3a98abdd	0.0011647899
223	0xbc9fd7a1	-0.019512
224	0xbd23f59a	-0.040029146
225	0x3d25f1a3	0.040513646
226	0xbd9d7b68	-0.076895535
227	0x3d3fc7f6	0.046821557
228	0x3cd5304f	0.026024012
229	0xbc0473f0	-0.008084282
230	0x3b0584b0	0.0020373277
231	0x3bc82d62	0.0061089257
232	0xbc90f856	-0.01769654
233	0xbd153e87	-0.036436584
234	0xbd0107da	-0.03150163
235	0x3dafc70d	0.08582888
236	0x3d44065b	0.047857624
237	0xbd01cde8	-0.031690508
238	0x3d03a0d5	0.032135803
239	0x3c22c0f7	0.009933702
240	0xbc05e774	-0.0081728585
241	0x3d775ad3	0.06038935
242	0xbd3468da	-0.044045307
243	0x3d1b9e17	0.037992563
244	0x3b44dd15	0.0030039002
245	0xbc45bdb0	-0.012069151
246	0x3d34ea3a	0.04416869
247	0xbcc68edf	-0.024238048
248	0xbc17d6b7	-0.009267501
249	0xbc0064df	-0.00783655
250	0x3c8bf9a2	0.017086808
251	0xbc10fa75	-0.008848776
252	0x3d13c9ca	0.036081113
253	0xbb7be3f6	-0.0038435436
254	0xbb9d82c7	-0.0048068496
255	0x3bd39963	0.006457494

sequential_34/Conv2D-2/Conv2D;StatefulPartitionedCall/sequential_34/Conv2D-2/Conv2D i1 [38, 3, 3, 38] scale=0.00538387 zero_point=0
0	0xfa	-0.03230322
1	0xfb	-0.02691935
2	0xe1	-0.16689998
3	0x0a	0.0538387
4	0x19	0.13459675
5	0xea	-0.11844514
6	0x07	0.03768709
7	0x01	0.00538387
8	0xf5	-0.05922257
9	0x00	0.0
10	0xe9	-0.123829015
11	0xf8	-0.04307096
12	0x09	0.048454832
13	0xf9	-0.03768709
14	0x0d	0.069990315
15	0x15	0.11306127
16	0xe5	-0.1453645
17	0xf8	-0.04307096
18	0xe5	-0.1453645
19	0x0d	0.069990315
20	0x14	0.1076774
21	0xe6	-0.13998063
22	0x02	0.01076774
23	0x0f	0.08075805
24	0x13	0.10229353
25	0x0f	0.08075805
26	0xff	-0.00538387
27	0xf1	-0.08075805
28	0x0a	0.0538387
29	0xf3	-0.069990315
30	0xed	-0.10229353
31	0x0f	0.08075805
32	0xf0	-0.08614192
33	0x15	0.11306127
34	0x16	0.11844514
35	0xff	-0.00538387
36	0x05	0.02691935
37	0x05	0.02691935
38	0x08	0.04307096
39	0x02	0.01076774
40	0xe6	-0.13998063
41	0x22	0.18305159
42	0xf7	-0.048454832
43	0xeb	-0.11306127
44	0xfe	-0.01076774
45	0x0c	0.06460644
46	0x19	0.13459675
47	0xff	-0.00538387
48	0x01	0.00538387
49	0xf7	-0.048454832
50	0x09	0.048454832
51	0x06	0.03230322
52	0x09	0.048454832
53	0x0f	0.08075805
54	0x17	0.123829015
55	0xf4	-0.06460644
56	0x0f	0.08075805
57	0x0c	0.06460644
58	0xf2	-0.07537418
59	0x11	0.09152579
60	0x04	0.02153548
61	0x14	0.1076774
62	0x09	0.048454832
63	0xec	-0.1076774
64	0xfe	-0.01076774
65	0xfd	-0.01615161
66	0xfc	-0.02153548
67	0xdd	-0.18843545
68	0xef	-0.09152579
69	0xe8	-0.12921289
70	0x23	0.18843545
71	0x16	0.11844514
72	0x1f	0.16689998
73	0x11	0.09152579
74	0x12	0.096909665
75	0xf3	-0.069990315
76	0xf7	-0.048454832
77	0xf5	-0.05922257
78	0x16	0.11844514
79	0xff	-0.00538387
80	0xf0	-0.08614192
81	0x03	0.01615161
82	0x0c	0.06460644
83	0x06	0.03230322
84	0x11	0.09152579
85	0xe7	-0.13459675
86	0xec	-0.1076774
87	0xe6	-0.13998063
88	0xe2	-0.1615161
89	0x0c	0.06460644
90	0xed	-0.10229353
91	0xeb	-0.11306127
92	0xe8	-0.12921289
93	0x1a	0.13998063
94	0x0c	0.06460644
95	0x16	0.11844514
96	0xe7	-0.13459675
97	0xfc	-0.02153548
98	0x21	0.1776677
99	0xea	-0.11844514
100	0x1b	0.1453645
101	0x15	0.11306127
102	0xe6	-0.13998063
103	0x0f	0.08075805
104	0xea	-0.11844514
105	0x00	0.0
106	0x1d	0.15613224
107	0x04	0.02153548
108	0xfa	-0.03230322
109	0x02	0.01076774
110	0xf4	-0.06460644
111	0x1b	0.1453645
112	0xf8	-0.04307096
113	0xf7	-0.048454832
114	0xf7	-0.048454832
115	0x04	0.02153548
116	0xf1	-0.08075805
117	0x10	0.08614192
118	0xf5	-0.05922257
119	0xe6	-0.13998063
120	0x1a	0.13998063
121	0x05	0.02691935
122	0x18	0.12921289
123	0xf5	-0.05922257
124	0xe5	-0.1453645
125	0xdb	-0.1992032
126	0xe9	-0.123829015
127	0xe2	-0.1615161
128	0xf1	-0.08075805
129	0x1b	0.1453645
130	0x11	0.09152579
131	0x06	0.03230322
132	0xe9	-0.123829015
133	0xe9	-0.123829015
134	0x04	0.02153548
135	0xf3	-0.069990315
136	0x12	0.096909665
137	0xe9	-0.123829015
138	0xe2	-0.1615161
139	0xe9	-0.123829015
140	0xff	-0.00538387
141	0xde	-0.18305159
142	0xe9	-0.123829015
143	0xf9	-0.03768709
144	0xe6	-0.13998063
145	0xff	-0.00538387
146	0x24	0.19381933
147	0x13	0.10229353
148	0x18	0.12921289
149	0x00	0.0
150	0x12	0.096909665
151	0xe5	-0.1453645
152	0x14	0.1076774
153	0xff	-0.00538387
154	0xf9	-0.03768709
155	0xf3	-0.069990315
156	0x14	0.1076774
157	0x01	0.00538387
158	0xf2	-0.07537418
159	0x09	0.048454832
160	0xde	-0.18305159
161	0xe1	-0.16689998
162	0x08	0.04307096
163	0xf6	-0.0538387
164	0x17	0.123829015
165	0x0a	0.0538387
166	0xfd	-0.01615161
167	0xe0	-0.17228384
168	0x19	0.13459675
169	0x08	0.04307096
170	0x14	0.1076774
171	0xe3	-0.15613224
172	0x0e	0.07537418
173	0xea	-0.11844514
174	0xfe	-0.01076774
175	0xf6	-0.0538387
176	0x18	0.12921289
177	0x11	0.09152579
178	0x07	0.03768709
179	0xe1	-0.16689998
180	0xe4	-0.15074836
181	0x07	0.03768709
182	0x1c	0.15074836
183	0xff	-0.00538387
184	0xf5	-0.05922257
185	0xe1	-0.16689998
186	0x1b	0.1453645
187	0x19	0.13459675
188	0x14	0.1076774
189	0xe0	-0.17228384
190	0xfc	-0.02153548
191	0xe9	-0.123829015
192	0xea	-0.11844514
193	0x16	0.11844514
194	0xfa	-0.03230322
195	0xed	-0.10229353
196	0xfb	-0.02691935
197	0xf9	-0.03768709
198	0x18	0.12921289
199	0x05	0.02691935
200	0x19	0.13459675
201	0x02	0.01076774
202	0xed	-0.10229353
203	0xf7	-0.048454832
204	0x05	0.02691935
205	0xfd	-0.01615161
206	0xe9	-0.123829015
207	0x11	0.09152579
208	0x02	0.01076774
209	0xfe	-0.01076774
210	0x19	0.13459675
211	0xea	-0.11844514
212	0x0f	0.08075805
213	0x0e	0.07537418
214	0x00	0.0
215	0x05	0.02691935
216	0x0b	0.05922257
217	0x00	0.0
218	0x02	0.01076774
219	0x07	0.03768709
220	0xe9	-0.123829015
221	0xf0	-0.08614192
222	0xfe	-0.01076774
223	0x09	0.048454832
224	0xee	-0.096909665
225	0xe9	-0.123829015
226	0x08	0.04307096
227	0x00	0.0
228	0x1e	0.1615161
229	0x17	0.123829015
230	0xf9	-0.03768709
231	0x0b	0.05922257
232	0x0e	0.07537418
233	0x16	0.11844514
234	0xf3	-0.069990315
235	0xea	-0.11844514
236	0x0c	0.06460644
237	0x00	0.0
238	0x0c	0.06460644
239	0x08	0.04307096
240	0x0a	0.0538387
241	0xea	-0.11844514
242	0x13	0.10229353
243	0x05	0.02691935
244	0x0c	0.06460644
245	0x18	0.12921289
246	0xe8	-0.12921289
247	0x16	0.11844514
248	0xe0	-0.17228384
249	0xfb	-0.02691935
250	0x05	0.02691935
251	0x0b	0.05922257
252	0x18	0.12921289
253	0xe8	-0.12921289
254	0x0f	0.08075805
255	0xdf	-0.1776677

sequential_34/Conv2D-3/Conv2D;StatefulPartitionedCall/sequential_34/Conv2D-3/Conv2D i1 [38, 3, 3, 38] scale=0.0028610693 zero_point=0
0	0x05	0.014305347
1	0x06	0.017166415
2	0x3f	0.18024737
3	0x11	0.048638176
4	0x29	0.11730384
5	0x1e	0.08583208
6	0xf3	-0.0371939
7	0xe5	-0.07724887
8	0xb8	-0.20599699
9	0x2e	0.13160919
10	0xd6	-0.12016491
11	0x03	0.008583208
12	0x05	0.014305347
13	0xe3	-0.08297101
14	0x21	0.094415285
15	0xe3	-0.08297101
16	0xb8	-0.20599699
17	0x29	0.11730384
18	0xca	-0.15449774
19	0xe0	-0.09155422
20	0x2e	0.13160919
21	0x1d	0.08297101
22	0x0e	0.04005497
23	0x2d	0.12874812
24	0xcc	-0.1487756
25	0xe7	-0.07152673
26	0xee	-0.051499248
27	0x1c	0.08010994
28	0xfa	-0.017166415
29	0x0c	0.03433283
30	0x30	0.13733132
31	0x36	0.15449774
32	0x1e	0.08583208
33	0xe0	-0.09155422
34	0xf0	-0.04577711
35	0x35	0.15163668
36	0xeb	-0.060082454
37	0x3c	0.17166416
38	0xf3	-0.0371939
39	0x52	0.23460768
40	0xfa	-0.017166415
41	0xd3	-0.12874812
42	0x2c	0.12588705
43	0xf3	-0.0371939
44	0x30	0.13733132
45	0xe9	-0.06580459
46	0xb7	-0.20885806
47	0x02	0.0057221386
48	0x04	0.011444277
49	0xe8	-0.06866566
50	0x4a	0.21171913
51	0xf4	-0.03433283
52	0x2e	0.13160919
53	0xec	-0.057221387
54	0xfa	-0.017166415
55	0xf7	-0.025749624
56	0x25	0.10585956
57	0xe5	-0.07724887
58	0x01	0.0028610693
59	0xe9	-0.06580459
60	0x48	0.20599699
61	0xfc	-0.011444277
62	0xea	-0.062943526
63	0x00	0.0
64	0x03	0.008583208
65	0x1c	0.08010994
66	0x0a	0.028610693
67	0xf7	-0.025749624
68	0x4b	0.2145802
69	0x1d	0.08297101
70	0xc3	-0.17452523
71	0xf0	-0.04577711
72	0x35	0.15163668
73	0xc5	-0.16880308
74	0xd3	-0.12874812
75	0x08	0.022888554
76	0xe1	-0.08869315
77	0x2c	0.12588705
78	0x2a	0.12016491
79	0xe1	-0.08869315
80	0xff	-0.0028610693
81	0xd3	-0.12874812
82	0x4a	0.21171913
83	0xf8	-0.022888554
84	0x34	0.1487756
85	0xed	-0.054360315
86	0xea	-0.062943526
87	0x2c	0.12588705
88	0xe9	-0.06580459
89	0x2d	0.12874812
90	0x39	0.16308095
91	0xe4	-0.08010994
92	0x0e	0.04005497
93	0xbe	-0.18883057
94	0x32	0.14305346
95	0xcf	-0.14019239
96	0xbe	-0.18883057
97	0xfc	-0.011444277
98	0x33	0.14591454
99	0x1b	0.07724887
100	0x21	0.094415285
101	0xcc	-0.1487756
102	0x01	0.0028610693
103	0xd3	-0.12874812
104	0x36	0.15449774
105	0xb6	-0.21171913
106	0xe2	-0.08583208
107	0x28	0.11444277
108	0x0f	0.04291604
109	0xdf	-0.094415285
110	0x1c	0.08010994
111	0x18	0.06866566
112	0x17	0.06580459
113	0x27	0.111581706
114	0x26	0.10872063
115	0x42	0.18883057
116	0xeb	-0.060082454
117	0xdd	-0.10013743
118	0x2e	0.13160919
119	0xee	-0.051499248
120	0x0e	0.04005497
121	0x28	0.11444277
122	0x07	0.020027485
123	0xf2	-0.04005497
124	0x05	0.014305347
125	0xfd	-0.008583208
126	0x0c	0.03433283
127	0xd2	-0.13160919
128	0x16	0.062943526
129	0x42	0.18883057
130	0xbe	-0.18883057
131	0xe7	-0.07152673
132	0x3c	0.17166416
133	0x3c	0.17166416
134	0xca	-0.15449774
135	0xfd	-0.008583208
136	0x09	0.025749624
137	0xf2	-0.04005497
138	0x23	0.10013743
139	0x06	0.017166415
140	0xf5	-0.031471763
141	0x07	0.020027485
142	0xdc	-0.102998495
143	0xc3	-0.17452523
144	0x4b	0.2145802
145	0x06	0.017166415
146	0xde	-0.09727635
147	0x48	0.20599699
148	0xef	-0.048638176
149	0x0b	0.031471763
150	0x14	0.057221387
151	0xf7	-0.025749624
152	0xf0	-0.04577711
153	0x0f	0.04291604
154	0xd8	-0.11444277
155	0xf4	-0.03433283
156	0x4a	0.21171913
157	0x1c	0.08010994
158	0x12	0.051499248
159	0xf8	-0.022888554
160	0x27	0.111581706
161	0xe6	-0.0743878
162	0x03	0.008583208
163	0x26	0.10872063
164	0x14	0.057221387
165	0xf2	-0.04005497
166	0x11	0.048638176
167	0x0a	0.028610693
168	0xdb	-0.10585956
169	0x13	0.054360315
170	0x00	0.0
171	0x2a	0.12016491
172	0x2a	0.12016491
173	0x45	0.19741379
174	0xde	-0.09727635
175	0x05	0.014305347
176	0x1e	0.08583208
177	0x0d	0.0371939
178	0x06	0.017166415
179	0x1c	0.08010994
180	0x27	0.111581706
181	0x20	0.09155422
182	0x31	0.14019239
183	0x18	0.06866566
184	0x07	0.020027485
185	0xeb	-0.060082454
186	0x00	0.0
187	0x32	0.14305346
188	0xc2	-0.1773863
189	0xf7	-0.025749624
190	0xca	-0.15449774
191	0x0a	0.028610693
192	0xb5	-0.2145802
193	0xdf	-0.094415285
194	0x32	0.14305346
195	0xe7	-0.07152673
196	0x2e	0.13160919
197	0xaf	-0.23174661
198	0xe9	-0.06580459
199	0xdb	-0.10585956
200	0xd0	-0.13733132
201	0x21	0.094415285
202	0x2c	0.12588705
203	0xd8	-0.11444277
204	0x3a	0.16594201
205	0xed	-0.054360315
206	0xcf	-0.14019239
207	0x19	0.07152673
208	0x1a	0.0743878
209	0x0a	0.028610693
210	0x05	0.014305347
211	0xf3	-0.0371939
212	0xc8	-0.16021988
213	0xe8	-0.06866566
214	0x32	0.14305346
215	0xc0	-0.18310843
216	0x1f	0.08869315
217	0xe9	-0.06580459
218	0x12	0.051499248
219	0xc0	-0.18310843
220	0xf2	-0.04005497
221	0xba	-0.20027485
222	0x3b	0.16880308
223	0xf6	-0.028610693
224	0xb0	-0.22888555
225	0x0d	0.0371939
226	0x0c	0.03433283
227	0x28	0.11444277
228	0x14	0.057221387
229	0x23	0.10013743
230	0xca	-0.15449774
231	0xce	-0.14305346
232	0xf4	-0.03433283
233	0xe2	-0.08583208
234	0x3f	0.18024737
235	0x04	0.011444277
236	0xde	-0.09727635
237	0x38	0.16021988
238	0xcd	-0.14591454
239	0x36	0.15449774
240	0xe8	-0.06866566
241	0xaa	-0.24605195
242	0x2a	0.12016491
243	0xda	-0.10872063
244	0xf8	-0.022888554
245	0x2f	0.13447025
246	0xe9	-0.06580459
247	0xea	-0.062943526
248	0x13	0.054360315
249	0xe1	-0.08869315
250	0x32	0.14305346
251	0xe5	-0.07724887
252	0xc8	-0.16021988
253	0xce	-0.14305346
254	0x0b	0.031471763
255	0xd2	-0.13160919
