Homework2/new ex2/models/Q_AWARE_Training_cnn_V_a_alpha=0.3.tflite (tflite, 35448 bytes, 4 tensors)

sequential_4/quant_Conv2D-1/Conv2D;StatefulPartitionedCall/sequential_4/quant_Conv2D-1/Conv2D;sequential_4/quant_Conv2D-1/LastValueQuant/FakeQuantWithMinMaxVarsPerChannel;StatefulPartitionedCall/sequential_4/quant_Conv2D-1/LastValueQuant/FakeQuantWithMinMaxVarsPerChannel i1 [38, 3, 3, 1]
90 -20 12 95 -25 40 -127 41
-71 67 -21 4 44 -101 -127 106
-82 55 -127 -32 30 41 -20 30
19 -40 -69 40 -8 99 -127 -50
65 22 82 -121 56 -40 83 9
-71 127 -87 16 -7 -36 -127 -19
-26 49 41 41 78 10 -20 64
13 16 127 -23 -44 82 29 -79
2 -20 127 -46 -16 -48 42 25
-93 12 48 7 78 67 98 -50
-127 11 -52 -17 63 -19 -51 41
-49 -127 20 -14 -31 84 -83 -11
82 -127 119 -110 -17 19 127 19
-30 -115 29 82 21 -29 56 70
37 -116 55 36 -127 -50 127 -39
-37 -85 -46 -13 -58 34 61 -10
-53 83 23 -44 -109 -54 127 12
-12 111 -73 -68 127 -49 -35 18
107 96 -99 98 -67 60 -24 -114
-127 127 45 -52 26 -25 -7 113
-34 -37 -5 17 2 65 127 126
-100 -98 -104 76 -33 75 26 -21
112 0 -127 -32 8 13 81 36
-86 -127 -11 44 27 -87 -127 -65
-20 -112 -13 -123 -41 89 127 -19
68 -5 23 -74 -121 -26 -12 -93
-1 10 -45 45 59 127 -68 27
-16 -59 -127 17 45 -44 23 56
96 45 123 -13 9 15 -3 43
-107 -127 80 -4 -85 75 53 127
-122 27 -41 -102 -57 109 4 -127
101 108 -12 4 -60 82 42 -37
00000000: 5aec 0c5f e728 8129 b943 eb04 2c9b 816a
00000010: ae37 81e0 1e29 ec1e 13d8 bb28 f863 81ce
00000020: 4116 5287 38d8 5309 b97f a910 f9dc 81ed
00000030: e631 2929 4e0a ec40 0d10 7fe9 d452 1db1
00000040: 02ec 7fd2 f0d0 2a19 a30c 3007 4e43 62ce
00000050: 810b ccef 3fed cd29 cf81 14f2 e154 adf5
00000060: 5281 7792 ef13 7f13 e28d 1d52 15e3 3846
00000070: 258c 3724 81ce 7fd9 dbab d2f3 c622 3df6
00000080: cb53 17d4 93ca 7f0c f46f b7bc 7fcf dd12
00000090: 6b60 9d62 bd3c e88e 817f 2dcc 1ae7 f971
000000a0: dedb fb11 0241 7f7e 9c9e 984c df4b 1aeb
000000b0: 7000 81e0 080d 5124 aa81 f52c 1ba9 81bf
000000c0: ec90 f385 d759 7fed 44fb 17b6 87e6 f4a3
000000d0: ff0a d32d 3b7f bc1b f0c5 8111 2dd4 1738
000000e0: 602d 7bf3 090f fd2b 9581 50fc ab4b 357f
000000f0: 861b d79a c76d 0481 656c f404 c452 2adb

sequential_4/quant_Conv2D-2/Conv2D;StatefulPartitionedCall/sequential_4/quant_Conv2D-2/Conv2D;sequential_4/quant_Conv2D-2/LastValueQuant/FakeQuantWithMinMaxVarsPerChannel;StatefulPartitionedCall/sequential_4/quant_Conv2D-2/LastValueQuant/FakeQuantWithMinMaxVarsPerChannel i1 [38, 3, 3, 38]
-20 4 -24 -43 32 -28 -41 -12
-44 20 -43 -15 -56 -46 -13 14
-10 -48 -6 -58 -50 18 55 37
-4 -25 -63 46 -40 9 50 51
-11 -16 -14 -28 24 -20 -67 10
-12 -77 -48 49 47 -19 14 18
35 60 -89 64 -19 -30 -91 -38
11 38 -25 64 -1 10 -9 -123
-102 6 75 -36 64 60 -29 17
-64 -97 -58 -20 -34 -16 18 32
54 3 -29 12 -44 8 12 63
-52 36 -30 70 -12 -41 -29 20
19 44 -58 -12 7 -33 2 45
-8 -69 -15 26 -7 21 -16 -12
-20 -7 -27 -47 -14 19 -39 -32
-13 23 -33 -16 -33 -4 -31 -39
-45 22 -18 2 25 12 9 30
-23 17 30 5 17 1 -23 -20
47 54 20 -3 -63 14 -18 -2
9 -39 7 2 -23 18 -20 21
9 -55 3 42 12 66 -29 -32
-45 25 29 36 -23 17 -62 -7
4 7 21 -42 54 -4 61 24
-21 5 36 -59 0 -61 30 0
28 -8 39 -14 -20 12 40 36
-37 0 16 -20 -5 -12 13 -3
-24 17 -29 -36 4 23 -30 -2
-8 -18 41 -101 -17 -37 -12 12
36 29 -48 17 16 -18 -9 9
-11 -28 -17 1 -14 -39 3 -15
-7 13 -47 11 13 46 -28 -1
15 -30 -39 33 -43 -6 62 46
00000000: ec04 e8d5 20e4 d7f4 d414 d5f1 c8d2 f30e
00000010: f6d0 fac6 ce12 3725 fce7 c12e d809 3233
00000020: f5f0 f2e4 18ec bd0a f4b3 d031 2fed 0e12
00000030: 233c a740 ede2 a5da 0b26 e740 ff0a f785
00000040: 9a06 4bdc 403c e311 c09f c6ec def0 1220
00000050: 3603 e30c d408 0c3f cc24 e246 f4d7 e314
00000060: 132c c6f4 07df 022d f8bb f11a f915 f0f4
00000070: ecf9 e5d1 f213 d9e0 f317 dff0 dffc e1d9
00000080: d316 ee02 190c 091e e911 1e05 1101 e9ec
00000090: 2f36 14fd c10e eefe 09d9 0702 e912 ec15
000000a0: 09c9 032a 0c42 e3e0 d319 1d24 e911 c2f9
000000b0: 0407 15d6 36fc 3d18 eb05 24c5 00c3 1e00
000000c0: 1cf8 27f2 ec0c 2824 db00 10ec fbf4 0dfd
000000d0: e811 e3dc 0417 e2fe f8ee 299b efdb f40c
000000e0: 241d d011 10ee f709 f5e4 ef01 f2d9 03f1
000000f0: f90d d10b 0d2e e4ff 0fe2 d921 d5fa 3e2e

sequential_4/quant_Conv2D-3/Conv2D;StatefulPartitionedCall/sequential_4/quant_Conv2D-3/Conv2D;sequential_4/quant_Conv2D-3/LastValueQuant/FakeQuantWithMinMaxVarsPerChannel;StatefulPartitionedCall/sequential_4/quant_Conv2D-3/LastValueQuant/FakeQuantWithMinMaxVarsPerChannel i1 [38, 3, 3, 38]
81 -14 -12 17 -38 -24 29 -11
74 61 -27 5 34 -95 -20 8
-2 15 -27 10 33 17 20 -92
9 -24 -49 42 25 -25 -52 -94
-23 -46 -10 23 35 -39 -8 20
-4 -19 3 32 45 9 -8 -35
-18 -26 67 -72 7 -16 1 21
36 -44 -20 -2 0 -55 1 -30
-49 48 33 -20 38 -10 2 1
-48 59 34 53 -62 26 9 13
35 18 48 -64 28 -23 -8 -15
11 -18 6 14 8 -63 -11 -3
4 22 34 -20 75 -29 20 16
57 9 -2 46 5 28 -45 67
29 47 58 4 21 26 -41 -2
31 14 78 50 -21 9 0 -42
-26 25 -21 -1 -14 30 23 -6
35 -41 10 -32 -46 33 27 -17
-26 -77 -48 -12 -10 9 26 -34
1 26 28 -21 11 32 9 -23
14 -35 -32 -14 56 -37 -3 -34
-6 13 67 -4 -23 -5 3 -9
4 -18 -32 11 28 -60 -5 -47
6 -8 -18 66 29 14 -50 7
40 -26 3 -10 62 -19 69 -12
15 16 50 15 -19 18 -15 -95
-17 -5 8 17 -16 -23 35 -19
-5 -5 22 23 6 26 23 -21
-72 52 -12 21 66 32 10 13
-33 13 35 -9 70 28 0 -39
14 -45 -61 22 23 39 -9 -18
49 19 13 45 -3 -2 -23 20
00000000: 51f2 f411 dae8 1df5 4a3d e505 22a1 ec08
00000010: fe0f e50a 2111 14a4 09e8 cf2a 19e7 cca2
00000020: e9d2 f617 23d9 f814 fced 0320 2d09 f8dd
00000030: eee6 43b8 07f0 0115 24d4 ecfe 00c9 01e2
00000040: cf30 21ec 26f6 0201 d03b 2235 c21a 090d
00000050: 2312 30c0 1ce9 f8f1 0bee 060e 08c1 f5fd
00000060: 0416 22ec 4be3 1410 3909 fe2e 051c d343
00000070: 1d2f 3a04 151a d7fe 1f0e 4e32 eb09 00d6
00000080: e619 ebff f21e 17fa 23d7 0ae0 d221 1bef
00000090: e6b3 d0f4 f609 1ade 011a 1ceb 0b20 09e9
000000a0: 0edd e0f2 38db fdde fa0d 43fc e9fb 03f7
000000b0: 04ee e00b 1cc4 fbd1 06f8 ee42 1d0e ce07
000000c0: 28e6 03f6 3eed 45f4 0f10 320f ed12 f1a1
000000d0: effb 0811 f0e9 23ed fbfb 1617 061a 17eb
000000e0: b834 f415 4220 0a0d df0d 23f7 461c 00d9
000000f0: 0ed3 c316 1727 f7ee 3113 0d2d fdfe e914

sequential_4/quant_Output-Layer/MatMul;StatefulPartitionedCall/sequential_4/quant_Output-Layer/MatMul;sequential_4/quant_Output-Layer/LastValueQuant/FakeQuantWithMinMaxVars;StatefulPartitionedCall/sequential_4/quant_Output-Layer/LastValueQuant/FakeQuantWithMinMaxVars i1 [8, 38] scale=0.00819322 zero_point=0
0.7373898 -0.819322 -0.10651186 0.6964237 0.4834 -0.09831864 -0.30314913 0.17205761
0.13109152 0.39327455 0.6144915 -0.10651186 -0.6636508 -0.8111288 -0.38508135 0.0
-0.2867627 -0.2949559 -0.75377625 0.23760338 0.42604744 -0.86848134 0.7373898 0.68003726
-0.819322 -0.4915932 -0.68823045 0.5817186 -0.13928474 -0.36050168 -0.34411523 -0.5981051
0.26218304 0.35230845 0.43424067 -0.9504135 -0.5899118 0.5981051 -0.6636508 -0.21302372
-0.01638644 -0.27037627 0.23760338 0.5243661 -0.9668 -0.1638644 0.5817186 -0.9831864
-0.63907117 0.6554576 -0.43424067 -0.19663727 0.64726436 -0.75377625 -0.38508135 -0.38508135
-0.21302372 -0.22941016 0.2048305 -0.9176406 -0.5243661 -0.00819322 0.76196945 -0.19663727
-0.60629827 0.6554576 -0.22941016 -0.86848134 0.33592203 0.35230845 -0.04915932 0.745583
-0.3686949 -0.38508135 0.5489457 0.36050168 -0.37688813 0.7865491 0.83570844 0.21302372
0.06554576 -0.86848134 0.2867627 -0.9586067 -0.17205761 0.54075253 -1.0405389 -0.09012542
-0.86848134 -0.22941016 -0.15567118 0.14747795 -0.5325593 -0.14747795 0.7373898 0.39327455
-0.40146777 0.36050168 0.14747795 -0.63907117 -0.83570844 0.22121695 0.11470508 -0.5161729
0.80293554 0.7373898 -0.9831864 -0.30314913 -0.6144915 -0.7865491 0.17205761 0.8111288
-0.68823045 0.36050168 -0.72100335 -0.63907117 -0.46701354 0.5981051 0.31134236 -0.36050168
-0.7701627 0.01638644 0.0409661 -0.9586067 -0.68003726 -0.6636508 -0.1228983 0.3277288
-0.5489457 0.9831864 0.819322 -0.3277288 -0.2867627 0.43424067 -0.87667453 -0.07373898
-0.68003726 -0.34411523 0.4834 -0.409661 -0.27037627 -0.5325593 0.5817186 0.68823045
0.17205761 0.9586067 -0.4915932 -0.6554576 0.1228983 0.17205761 0.60629827 -0.71281016
0.0 -0.2867627 0.2457966 0.13928474 0.6144915 -0.5489457 -0.41785422 0.67184407
-0.68003726 -0.83570844 -0.83570844 -0.11470508 0.22941016 0.71281016 0.7046169 -0.1228983
-0.60629827 -0.1638644 0.40146777 -0.60629827 -1.0323458 -0.6308779 0.42604744 0.64726436
-0.4834 0.79474235 0.2949559 0.409661 0.4506271 0.42604744 -0.64726436 -0.5817186
-0.7865491 -0.33592203 0.745583 -0.4506271 0.09831864 -0.84390163 0.6554576 0.75377625
0.27037627 -0.76196945 -0.6964237 0.4915932 0.4997864 0.7046169 -0.4834 0.47520676
0.4424339 -0.18844406 0.4834 -0.5325593 -0.31953558 -0.60629827 -0.36050168 -0.27037627
0.38508135 0.13109152 0.36050168 0.1228983 0.1228983 -0.64726436 -0.05735254 0.34411523
-0.22941016 -0.75377625 -0.38508135 -0.2785695 -0.42604744 -0.409661 -0.14747795 0.34411523
-0.72100335 0.11470508 -0.23760338 -0.83570844 -0.5489457 -0.5489457 0.1228983 0.22121695
-0.63907117 -0.17205761 0.23760338 0.25398982 -0.7865491 0.5735254 0.50797963 -0.5981051
-0.5161729 0.54075253 -0.04915932 -0.2785695 0.17205761 -0.41785422 -0.6554576 0.745583
-0.00819322 0.67184407 -0.07373898 -0.50797963 0.22941016 -0.67184407 0.9340271 -0.09831864
00000000: 5a9c f355 3bf4 db15 1030 4bf3 af9d d100
00000010: dddc a41d 3496 5a53 9cc4 ac47 efd4 d6b7
00000020: 202b 358c b849 afe6 fedf 1d40 8aec 4788
00000030: b250 cbe8 4fa4 d1d1 e6e4 1990 c0ff 5de8
00000040: b650 e496 292b fa5b d3d1 432c d260 661a
00000050: 0896 238b eb42 81f5 96e4 ed12 bfee 5a30
00000060: cf2c 12b2 9a1b 0ec1 625a 88db b5a0 1563
00000070: ac2c a8b2 c749 26d4 a202 058b adaf f128
00000080: bd78 64d8 dd35 95f7 add6 3bce dfbf 4754
00000090: 1575 c4b0 0f15 4aa9 00dd 1e11 4bbd cd52
000000a0: ad9a 9af2 1c57 56f1 b6ec 31b6 82b3 344f
000000b0: c561 2432 3734 b1b9 a0d7 5bc9 0c99 505c
000000c0: 21a3 ab3c 3d56 c53a 36e9 3bbf d9b6 d4df
000000d0: 2f10 2c0f 0fb1 f92a e4a4 d1de ccce ee2a
000000e0: a80e e39a bdbd 0f1b b2eb 1d1f a046 3eb7
000000f0: c142 fade 15cd b05b ff52 f7c2 1cae 72f4
