Homework2/new ex2/models/WAPQT_cnn_V_a_alpha=0.3.tflite (tflite, 35552 bytes, 4 tensors)

sequential_4/Output-Layer/MatMul;StatefulPartitionedCall/sequential_4/Output-Layer/MatMul i1 [8, 38] scale=0.0037608938 zero_point=0
00000000: 4db0 1651 43fa 0044 f042 4ff2 c4ae d301
00000010: 00e5 d52c 1ca6 4a48 8eea b33f 1805 e7bf
00000020: 1f1a 30a1 b73f a60a 26f5 263d ad0a 32a0
00000030: a356 cff8 4f98 c5c6 17f7 1289 c8e3 64e9
00000040: ad55 01ab 2f29 0361 d4e8 3531 d267 562c
00000050: 22b9 209c f951 851d 97ee e520 f4f0 6340
00000060: fc2f fda0 a80c f8c2 605f 931a d8ab 0a5e
00000070: be2f b0b6 f251 33f4 c604 0298 b6a6 d91c
00000080: b177 57e1 fc4e a722 a9c2 18be efb4 4d5d
00000090: 137f e3ab 113b 30b8 17c0 2226 5ef2 e750
000000a0: a4aa bd1c 0954 4cd5 b3fe 31c4 a2b5 3a5d
000000b0: d04f 1f55 3324 cfa5 c2ea 5eb8 f897 4e5e
000000c0: 2bc3 d63d 3a5a ca56 40dd 22b8 d8a9 c6bb
000000d0: 3230 2810 04a6 0713 e8af eff7 b6c9 f333
000000e0: a312 e5a9 bda6 1625 defb 1540 9b50 42c9
000000f0: b84c 0fe5 10be af52 fd4f ffc9 149c 720b
0.28958884 -0.3008715 0.082739666 0.3046324 0.2519799 -0.022565363 0.0 0.2557408
-0.0601743 0.248219 0.29711062 -0.052652515 -0.22565363 -0.3083933 -0.16924022 0.0037608938
0.0 -0.101544134 -0.16171843 0.16547933 0.10530503 -0.33848044 0.27830616 0.27078435
-0.4287419 -0.082739666 -0.28958884 0.23693632 0.09026145 0.018804468 -0.09402235 -0.2444581
0.116587706 0.09778324 0.1805229 -0.3572849 -0.27454525 0.23693632 -0.33848044 0.037608936
0.14291397 -0.041369833 0.14291397 0.22941452 -0.31215417 0.037608936 0.1880447 -0.3610458
-0.34976313 0.32343686 -0.1842838 -0.03008715 0.29711062 -0.39113295 -0.22189273 -0.21813184
0.086500555 -0.033848044 0.06769609 -0.44754636 -0.21061006 -0.10906592 0.3760894 -0.086500555
-0.31215417 0.31967598 0.0037608938 -0.31967598 0.17676201 0.15419665 0.0112826815 0.3648067
-0.16547933 -0.09026145 0.19932738 0.1842838 -0.17300111 0.38737208 0.32343686 0.16547933
0.1278704 -0.26702347 0.1203486 -0.3760894 -0.026326258 0.3046324 -0.46258995 0.10906592
-0.39489385 -0.06769609 -0.101544134 0.1203486 -0.045130726 -0.0601743 0.3723285 0.2406972
-0.015043575 0.17676201 -0.0112826815 -0.3610458 -0.33095866 0.045130726 -0.03008715 -0.23317541
0.3610458 0.3572849 -0.40993744 0.09778324 -0.15043575 -0.31967598 0.037608936 0.35352403
-0.248219 0.17676201 -0.3008715 -0.27830616 -0.052652515 0.3046324 0.19180559 -0.045130726
-0.21813184 0.015043575 0.0075217877 -0.39113295 -0.27830616 -0.33848044 -0.14667486 0.10530503
-0.29711062 0.44754636 0.32719776 -0.116587706 -0.015043575 0.2933497 -0.33471954 0.1278704
-0.32719776 -0.23317541 0.09026145 -0.248219 -0.0639352 -0.28582793 0.28958884 0.34976313
0.07145698 0.4776335 -0.10906592 -0.31967598 0.0639352 0.22189273 0.1805229 -0.27078435
0.086500555 -0.2406972 0.1278704 0.14291397 0.35352403 -0.052652515 -0.09402235 0.3008715
-0.34600222 -0.32343686 -0.2519799 0.10530503 0.033848044 0.31591508 0.28582793 -0.16171843
-0.28958884 -0.0075217877 0.1842838 -0.22565363 -0.35352403 -0.28206703 0.21813184 0.34976313
-0.1805229 0.29711062 0.116587706 0.31967598 0.19180559 0.13539217 -0.1842838 -0.34224135
-0.23317541 -0.082739666 0.35352403 -0.27078435 -0.03008715 -0.39489385 0.2933497 0.35352403
0.16171843 -0.22941452 -0.15795754 0.22941452 0.21813184 0.33848044 -0.20308827 0.32343686
0.2406972 -0.13163128 0.1278704 -0.27078435 -0.15043575 -0.32719776 -0.21813184 -0.25950167
0.1880447 0.1805229 0.15043575 0.0601743 0.015043575 -0.33848044 0.026326258 0.07145698
-0.09026145 -0.3046324 -0.0639352 -0.033848044 -0.27830616 -0.20684916 -0.04889162 0.19180559
-0.34976313 0.06769609 -0.101544134 -0.32719776 -0.2519799 -0.33848044 0.082739666 0.13915308
-0.1278704 -0.018804468 0.07897877 0.2406972 -0.37985027 0.3008715 0.248219 -0.20684916
-0.27078435 0.28582793 0.05641341 -0.101544134 0.0601743 -0.248219 -0.3046324 0.3083933
-0.0112826815 0.29711062 -0.0037608938 -0.20684916 0.07521787 -0.3760894 0.4287419 0.041369833

sequential_4/Conv2D-1/Conv2D;StatefulPartitionedCall/sequential_4/Conv2D-1/Conv2D i1 [38, 3, 3, 1]
00000000: 5515 f17f ed1f e310 e531 05fc ef9a 815b
00000010: 9af7 81b6 f239 fe6e ead2 c8df de7f c4e2
00000020: 2bfe 21e3 0dd0 7910 9a7f d20d 1fcd 81f8
00000030: d45d 330d 70f8 ca41 4a12 7cca a97f 2aa2
00000040: 01ea 7fb4 21cd 4f07 b832 17f6 4a71 7ff5
00000050: d308 c5d6 2f00 ee15 ab81 3aee f335 9eee
00000060: 6f81 6d81 e424 44f5 f984 3e5b 5d0e 264e
00000070: 1a81 3d4e 9b91 55c6 e781 02ed a55f 46c0
00000080: f974 11a7 a8a2 7fe7 d365 bbab 7fe4 eef9
00000090: 6249 a54c 9147 0682 816e 7fe2 f40d 2548
000000a0: 07f1 b350 e33a 5848 81da cd55 b47f 00f1
000000b0: 7717 8716 2e04 671e 9781 1631 d998 81a2
000000c0: fe8a d09c eb0a 7fd5 20f3 218d 8cc0 0499
000000d0: e73e bd49 547f 8efe e7c2 8111 50c8 2246
000000e0: 4b52 7fe1 caf4 0569 a99d 7f30 a568 1158
000000f0: 0e2f ca98 c470 0981 7567 e806 b135 f7c1
85 21 -15 127 -19 31 -29 16
-27 49 5 -4 -17 -102 -127 91
-102 -9 -127 -74 -14 57 -2 110
-22 -46 -56 -33 -34 127 -60 -30
43 -2 33 -29 13 -48 121 16
-102 127 -46 13 31 -51 -127 -8
-44 93 51 13 112 -8 -54 65
74 18 124 -54 -87 127 42 -94
1 -22 127 -76 33 -51 79 7
-72 50 23 -10 74 113 127 -11
-45 8 -59 -42 47 0 -18 21
-85 -127 58 -18 -13 53 -98 -18
111 -127 109 -127 -28 36 68 -11
-7 -124 62 91 93 14 38 78
26 -127 61 78 -101 -111 85 -58
-25 -127 2 -19 -91 95 70 -64
-7 116 17 -89 -88 -94 127 -25
-45 101 -69 -85 127 -28 -18 -7
98 73 -91 76 -111 71 6 -126
-127 110 127 -30 -12 13 37 72
7 -15 -77 80 -29 58 88 72
-127 -38 -51 85 -76 127 0 -15
119 23 -121 22 46 4 103 30
-105 -127 22 49 -39 -104 -127 -94
-2 -118 -48 -100 -21 10 127 -43
32 -13 33 -115 -116 -64 4 -103
-25 62 -67 73 84 127 -114 -2
-25 -62 -127 17 80 -56 34 70
75 82 127 -31 -54 -12 5 105
-87 -99 127 48 -91 104 17 88
14 47 -54 -104 -60 112 9 -127
117 103 -24 6 -79 53 -9 -63

sequential_4/Conv2D-2/Conv2D;StatefulPartitionedCall/sequential_4/Conv2D-2/Conv2D i1 [38, 3, 3, 38]
00000000: 201f f0b4 faac f221 b22e e1e7 b2bd 0717
00000010: 20af 3ea9 d92b 1c3c d5dc a85d d522 252d
00000020: b4d7 07d1 3121 f022 ffc2 e13e 297f 1a3e
00000030: 214e ae54 0cf4 cdf2 da3c 0859 1013 f198
00000040: a04c 4812 3209 b214 b4a7 cabe dbe4 e821
00000050: f203 ba21 b40e f441 c231 c443 21d1 b416
00000060: 3a2c 0cd5 210b 1549 cbcd d742 ca41 ebde
00000070: bb0d d9b9 f73f bcb4 0046 deef d2f6 acc2
00000080: fd35 15f1 4c28 264b cc00 311a 13fe ebe5
00000090: 2e32 2ee9 b726 e816 1aae 0326 f527 e778
000000a0: 3aac bd31 2a4d e5e7 d22a 0b1e e71e bd09
000000b0: 0c42 38e6 293e 6a00 f4cb 06b5 48b5 400a
000000c0: 2eb7 0712 a141 4637 c905 0d02 3400 1902
000000d0: 8630 c3dc 2324 01e3 e719 17bb d0dd bb32
000000e0: 2ddd d51d 08ea f748 32b4 00c7 35cb 12e8
000000f0: e32a f63c 3447 f218 09e5 0301 bce9 5a49
32 31 -16 -76 -6 -84 -14 33
-78 46 -31 -25 -78 -67 7 23
32 -81 62 -87 -39 43 28 60
-43 -36 -88 93 -43 34 37 45
-76 -41 7 -47 49 33 -16 34
-1 -62 -31 62 41 127 26 62
33 78 -82 84 12 -12 -51 -14
-38 60 8 89 16 19 -15 -104
-96 76 72 18 50 9 -78 20
-76 -89 -54 -66 -37 -28 -24 33
-14 3 -70 33 -76 14 -12 65
-62 49 -60 67 33 -47 -76 22
58 44 12 -43 33 11 21 73
-53 -51 -41 66 -54 65 -21 -34
-69 13 -39 -71 -9 63 -68 -76
0 70 -34 -17 -46 -10 -84 -62
-3 53 21 -15 76 40 38 75
-52 0 49 26 19 -2 -21 -27
46 50 46 -23 -73 38 -24 22
26 -82 3 38 -11 39 -25 120
58 -84 -67 49 42 77 -27 -25
-46 42 11 30 -25 30 -67 9
12 66 56 -26 41 62 106 0
-12 -53 6 -75 72 -75 64 10
46 -73 7 18 -95 65 70 55
-55 5 13 2 52 0 25 2
-122 48 -61 -36 35 36 1 -29
-25 25 23 -69 -48 -35 -69 50
45 -35 -43 29 8 -22 -9 72
50 -76 0 -57 53 -53 18 -24
-29 42 -10 60 52 71 -14 24
9 -27 3 1 -68 -23 90 73

sequential_4/Conv2D-3/Conv2D;StatefulPartitionedCall/sequential_4/Conv2D-3/Conv2D i1 [38, 3, 3, 38]
00000000: 56c1 e008 b0ac c2d0 5d5b 424d 51f8 09b0
00000010: 164e d2e5 6e03 f9b0 f1d8 f891 1ffa cadd
00000020: 4adb 48bf f7a1 b7fe cabc b54f 3844 64f8
00000030: dbad 6a28 dcc5 1bcc c4b7 06e5 d79c a399
00000040: dc54 2740 1c31 f322 adcd 2649 b34e 0938
00000050: 73df 199f 815b f39c 92d5 ff40 0c28 2cff
00000060: 3c36 37f7 03c8 4f4b 69d1 b16f d34d 3b2e
00000070: 0b18 5345 5033 01d1 f410 613b ea5b d23f
00000080: e7c7 bdc2 ed36 69e6 140e 3ec3 fe2f 5fcc
00000090: f853 f51d 3542 4eb9 4611 3788 3953 efa9
000000a0: 31dd 8a00 672c f09f eaf4 4e2f 0610 0732
000000b0: 02ef e5fe 59a8 a8ab 4ec7 3830 39bd 45ed
000000c0: 4cde e08a 3409 35f9 4553 3847 c6bc 9c9a
000000d0: 12be 6112 04d1 ec5a c123 3b0d 0029 3cbb
000000e0: cae4 b8b9 0734 4918 f3e6 febc 39dd 05e1
000000f0: 4202 b9fd 481e eac4 6f58 d64c 185b 61f6
86 -63 -32 8 -80 -84 -62 -48
93 91 66 77 81 -8 9 -80
22 78 -46 -27 110 3 -7 -80
-15 -40 -8 -111 31 -6 -54 -35
74 -37 72 -65 -9 -95 -73 -2
-54 -68 -75 79 56 68 100 -8
-37 -83 106 40 -36 -59 27 -52
-60 -73 6 -27 -41 -100 -93 -103
-36 84 39 64 28 49 -13 34
-83 -51 38 73 -77 78 9 56
115 -33 25 -97 -127 91 -13 -100
-110 -43 -1 64 12 40 44 -1
60 54 55 -9 3 -56 79 75
105 -47 -79 111 -45 77 59 46
11 24 83 69 80 51 1 -47
-12 16 97 59 -22 91 -46 63
-25 -57 -67 -62 -19 54 105 -26
20 14 62 -61 -2 47 95 -52
-8 83 -11 29 53 66 78 -71
70 17 55 -120 57 83 -17 -87
49 -35 -118 0 103 44 -16 -97
-22 -12 78 47 6 16 7 50
2 -17 -27 -2 89 -88 -88 -85
78 -57 56 48 57 -67 69 -19
76 -34 -32 -118 52 9 53 -7
69 83 56 71 -58 -68 -100 -102
18 -66 97 18 4 -47 -20 90
-63 35 59 13 0 41 60 -69
-54 -28 -72 -71 7 52 73 24
-13 -26 -2 -68 57 -35 5 -31
66 2 -71 -3 72 30 -22 -60
111 88 -42 76 24 91 97 -10
