Homework3/ex1/part 4/mlp.tflite (tflite, 3064 bytes, 6 tensors)

sequential/Dense1/BiasAdd/ReadVariableOp/resource f4 [3]
0	0x407ad3c5	3.9191754
1	0x3e3dfa3e	0.18552491
2	0x407a767d	3.913482

sequential/Dense2/BiasAdd/ReadVariableOp/resource f4 [3]
0	0x404567bf	3.0844572
1	0x4010a628	2.2601414
2	0xbdb79bc8	-0.0896526

sequential/Output_layes/BiasAdd/ReadVariableOp/resource f4 [2]
0	0x3ff9ebab	1.9525045
1	0x3fc7707e	1.5581205

sequential/Dense1/MatMul f4 [3, 12]
0	0x3de58dfd	0.11208723
1	0x3c96fc4c	0.018430851
2	0xbea7a1d4	-0.32740653
3	0xbd748f5e	-0.059707038
4	0x3eb69683	0.35661706
5	0x3d0178b9	0.03160927
6	0xbec350bc	-0.38147533
7	0x3ccec450	0.025240093
8	0x3eddab9c	0.4329499
9	0xbe768389	-0.24073614
10	0x3f6de922	0.9293386
11	0x3f88efc1	1.0698167
12	0xbf26e97e	-0.6520003
13	0x3e777559	0.24165858
14	0xbf4064dd	-0.75153905
15	0xbe34321a	-0.17597237
16	0xbe8e0ed4	-0.27745688
17	0x3f4004f2	0.75007546
18	0x3f4316b4	0.7620652
19	0xbe329ac4	-0.17441851
20	0x3eae1c1a	0.34005815
21	0xbec3fcff	-0.38278958
22	0x3f24d035	0.643802
23	0xbeda5482	-0.426426
24	0x3d88c5d6	0.06678359
25	0xbbc80567	-0.0061041596
26	0xbdad684d	-0.084671594
27	0xb982013a	-0.00024796446
28	0x3e2e8529	0.17042984
29	0x3d432b1f	0.047648545
30	0xbe7272fd	-0.23676677
31	0x3dceb6cf	0.10093462
32	0x3f48c4a7	0.7842507
33	0xbef4ad8a	-0.4778865
34	0xbf73b9f1	-0.952056
35	0x3fb40885	1.40651

sequential/Dense2/MatMul f4 [3, 3]
0	0x40284082	2.6289372
1	0xbdc42be5	-0.09578685
2	0x3f8eb2b6	1.1148288
3	0xbee05680	-0.43815994
4	0xbe834b98	-0.2564361
5	0x4054beb2	3.324139
6	0x39134a9d	0.00014046808
7	0xbe39c9aa	-0.18143335
8	0xbeca4ea2	-0.39513117

sequential/Output_layes/MatMul f4 [2, 3]
0	0x4006ff3c	2.1093283
1	0xc00f8f45	-2.2431195
2	0x3ec77b59	0.38961294
3	0x3fd71b0b	1.6805128
4	0x4053b2a0	3.3077774
5	0xbf1d7c15	-0.6151746
