Homework2/ex1/lstm_V(b).tflite (tflite, 76776 bytes, 14 tensors)

dense_2/bias f4 [18]
00000000: e9af e43e a846 b83f b337 fb3e a2a3 bc3f
00000010: 5e7f fb3e c25a b33f 1472 e83e 0f2a b73f
00000020: 4dc2 f63e 7783 bd3f 2764 033f 9f5c ba3f
00000030: 0bd9 f03e 07dd c13f fe6b e33e 2f1c be3f
00000040: f084 e83e 1d6c bb3f
0.4466546 1.4396563 0.49065933 1.4737437 0.4912061 1.4012072 0.45399535 1.430971
0.48195115 1.4805745 0.51324695 1.4559516 0.4704059 1.5145577 0.4441833 1.4852351
0.45413923 1.4642369

std.constant3 f4 [64, 64]
00000000: 2299 103e b607 febd d3e7 bc3d 982d 1e3e
00000010: 9d46 0b3e 065c 523e a493 e23d c430 28be
00000020: 1fbd 84be 42ec 323e 7635 adbe 2736 0fbe
00000030: 3e4a 623e f86b c3bd c06a 84bd fa60 0bbd
00000040: f238 acbd 884d a1be a1a2 a33e f803 8c3d
00000050: f6fc dc3d 6538 2ebe f47b 35be 6ea6 4abe
00000060: 00c1 b23d ca52 52be f683 74bd 6a71 88bd
00000070: d19c 1abe ff12 7a3e b2e6 6cbe d8a0 49be
00000080: 4dd8 4ebe abd0 0b3e a825 1f3e d64e 39be
00000090: adfb 4b3e 8d48 34be b757 563e 39c3 0abd
000000a0: 32ca 5bbe 30b1 1f3e 3f1e 79be 55d4 5b3e
000000b0: 7ce8 1fbe 81bd 53be 74b8 cf3c 0c53 1ebe
000000c0: 7d55 883e b31b c73d 62a5 19be 4b02 2cbe
000000d0: a9f1 4b3e 255f 93bd aec5 66bd 80d2 543e
000000e0: 86ac 85be 41b6 bb3d 6743 3b3e 9540 77be
000000f0: d679 a9be 957c 0ebe a253 e13e 0465 233e
00000100: f58d 343d 5425 89bb 644c 36be 494c 463d
00000110: 7e05 773e c1b6 363e 72cd 953d 33db e4bd
00000120: ae36 92be 0b30 c4bd 7001 51be 5011 5dbd
00000130: 094c ac3e 9325 50be e241 4e3d 98d5 81bd
00000140: ca60 99bd 2a22 f2bd d578 a43c f6bc aabd
00000150: 8a9b a2bd 9efb a0bd 8760 82bd 6c22 e6bd
00000160: be41 08bd bd08 aabc 2c64 d33d f7b0 25bd
00000170: 0eec 76be a026 963e 854b 9cbe 047d edbb
00000180: bec0 bfbd 244e a0bd bfb8 0d3e 0632 c5bd
00000190: 4aaa 983d 2314 7a3c 99af 8a3d 3276 e13b
000001a0: 5f05 50be 0163 293e 1d8e 0bbe 879d 82bd
000001b0: fecd a9be 34f1 03be bb8b 013d edef 9f3d
000001c0: efc2 77bd 5136 033d fb4a 7e3d e5c9 27bd
000001d0: 32ad 683d bbbd 9b3c d022 0dbe e6a7 ff3d
000001e0: 9d62 21bd 1ca2 cd3d b1a4 803d 9023 5dbe
000001f0: 16f7 a23c e1b8 ae3c 9faa c23e d070 ed3d
00000200: 03df ad3e 247b 3fbe d33a c93d b3dd c53c
00000210: a003 dc3e 1727 363e 6352 2f3e bf1f c6bd
00000220: e2ad a3be 17a4 92bc 6523 7ebe fc2d 87bd
00000230: fb3c 003f 5eae 81be d647 fbbd 7362 b2bc
00000240: 7ff7 a2bd d69c b8be 2093 dd3d 056f 8a3e
00000250: b920 51bd 4a40 3abe 5e69 06be 9610 52be
00000260: f33b 973d def5 8dbd 29c3 1abe 63bb 4cbd
00000270: daf4 09bc 55c0 8a3e 4321 fdbe 0c18 c0bd
00000280: 6b06 02be 2ed9 3b3d 2c66 c53e 1088 04be
00000290: 4544 cd3d c337 4e3b 178b da3c c320 f9bb
000002a0: fda0 8fbe a70b 72bc 5d2b c3be b8dc b63d
000002b0: 5a90 c7be b80d e9bd b807 22bd 2de0 06bb
000002c0: 7b1c 1a3e 9827 513e a54d 77bd 3a1a edbc
000002d0: 2ca3 cb3e 8359 47be f454 c3bd 0d28 783e
000002e0: 0cc3 23be 5476 273e 5003 b13d 939f 6abe
000002f0: 9c19 1a3b c39a d2bd a8b2 bf3e d621 db3c
00000300: 1fbd 563d bf36 2cbd d3b1 08be 46c8 343c
00000310: 4f19 163e dba5 783e 412c b33d f820 58be
00000320: be2b a3be 4f33 20bd 73c8 6bbe a6c5 cdba
00000330: 5581 553e b29e bcbd f589 2fbe 8da9 3fbe
00000340: e344 3dbe bff4 44be acea 163e f506 2f3e
00000350: 686a 873d 707d 40be 4d4f 68be 6d8f c5bd
00000360: 7064 0e3e 85c5 2cbe e3af 0ebe e03e 84bd
00000370: 4f65 77be 543c dc3e 3dc8 0ebd 7789 20be
00000380: ca82 74be e3d1 923d d713 313e 262b b6bd
00000390: 3038 573d 213d 0fbe 17fd d73c 9473 efbd
000003a0: 3cf4 47be 28fe bf3e 92c8 88bd 1647 c93d
000003b0: 885a 92be dfda abbd 3944 7e3c c481 6cbc
000003c0: e7bc 123e baab 443e e197 573d 1de5 5d3b
000003d0: c702 3f3d a26a a2bd 463a 20be 43bc 3c3e
000003e0: a917 32be 3a0e fa3d 6a97 1a3e fbe5 b5be
000003f0: e833 18be 9dff 31be c2a0 9d3e b9cb 173e
0.14120916 -0.124038145 0.092239045 0.1544708 0.13601156 0.20542917 0.110633165 -0.16424853
-0.25925538 0.17472938 -0.3382985 -0.13985501 0.22098634 -0.09542078 -0.064656734 -0.03402803
-0.08409299 -0.31504464 0.31960014 0.068366945 0.10790436 -0.170137 -0.17723066 -0.1979005
0.08728218 -0.20539394 -0.05969616 -0.06662257 -0.15098883 0.24421309 -0.23134878 -0.19690263
-0.201997 0.1365382 0.15541708 -0.1809648 0.19920225 -0.17605801 0.20931898 -0.033877585
-0.2146385 0.15594935 -0.24327944 0.21467717 -0.1561603 -0.20677759 0.025356509 -0.15461367
0.26627722 0.0972208 -0.15004495 -0.1679775 0.19916405 -0.07195882 -0.056340866 0.20783424
-0.26108187 0.091656215 0.1828743 -0.2414573 -0.33100766 -0.13914712 0.4400912 0.15956503
0.044080693 -0.004185358 -0.17802578 0.048412595 0.24123189 0.17843153 0.07314576 -0.111746214
-0.28557342 -0.09579476 -0.20410705 -0.05397159 0.3365176 -0.20326833 0.0503558 -0.06339568
-0.07489164 -0.118229225 0.020077148 -0.08336823 -0.07939823 -0.07860492 -0.063660674 -0.11237034
-0.03326582 -0.02075612 0.10321841 -0.04045197 -0.24113485 0.29326344 -0.30526367 -0.007247569
-0.093629345 -0.07827404 0.13840006 -0.09628682 0.07454355 0.01526359 0.06771774 0.006880545
-0.20314549 0.16541673 -0.1362843 -0.06377702 -0.33164972 -0.1288498 0.031627398 0.07809434
-0.060488638 0.032034222 0.062083226 -0.040964026 0.056805797 0.019011369 -0.13782811 0.12483196
-0.039400686 0.100406855 0.062814124 -0.21595597 0.01989321 0.021328392 0.380208 0.11593783
0.33959207 -0.18699318 0.09825673 0.024153566 0.42971516 0.17788349 0.17121272 -0.09674024
-0.319686 -0.01790051 -0.2481819 -0.06600568 0.5009305 -0.25328344 -0.12269561 -0.02177546
-0.079573624 -0.36057156 0.108190775 0.27037826 -0.051056597 -0.18188587 -0.13126132 -0.2051414
0.07384481 -0.06931661 -0.1511351 -0.049983393 -0.008420194 0.27099863 -0.4943944 -0.093795866
-0.12697761 0.045861416 0.38554513 -0.12942529 0.10022787 0.0031466342 0.026677651 -0.0076027825
-0.28052512 -0.014773286 -0.3811902 0.089288175 -0.3897732 -0.1137957 -0.039558142 -0.0020580397
0.15049927 0.2042526 -0.060376782 -0.02894317 0.39772928 -0.1946774 -0.09537688 0.24234028
-0.15992373 0.16353732 0.0864321 -0.22912435 0.00235138 -0.10283425 0.3744099 0.026749533
0.052426454 -0.042044397 -0.13349085 0.011034077 0.14658092 0.24282019 0.08748675 -0.21106327
-0.3186931 -0.03911143 -0.23025684 -0.0015699163 0.20850118 -0.09209956 -0.1714247 -0.18717022
-0.1848331 -0.19233988 0.14737958 0.17092498 0.06612092 -0.1879785 -0.22686501 -0.09646497
0.13905501 -0.16872223 -0.13934283 -0.06457305 -0.2415974 0.43014777 -0.03485893 -0.15677439
-0.23878017 0.07168939 0.17292725 -0.08894949 0.05254382 -0.13988163 0.0263658 -0.11691967
-0.19526762 0.37498593 -0.06678881 0.09828012 -0.28584695 -0.08391356 0.015519195 -0.014435235
0.14329873 0.19206133 0.052635077 0.0033858486 0.046633508 -0.07930495 -0.1564723 0.18431191
-0.17391838 0.12209745 0.15096822 -0.35527024 -0.1486355 -0.17382665 0.3078671 0.14823808

std.constant4 f4 [64, 64]
00000000: bff9 ca3d f639 9bbd eb12 ff3d a1de b43d
00000010: fec1 e63d 4878 013e 09cf 563d b592 4abd
00000020: 9e18 2bbe f904 cb3c 5b8e c3bd 95e0 d9bd
00000030: 257e b23e 30ad f2bc ca39 a7bd a2bb d0bd
00000040: a5b2 51bd e2d5 00bd b0bc 113e d937 203e
00000050: e983 1c3e 5b42 f2bd 19f0 34be 4a73 22be
00000060: 6131 053e eb45 5ebe 8d98 d2bd 3fff 1cbe
00000070: 2a7e 77bd 971d 643d 9253 1bbd 2b41 4abd
00000080: c4c6 3fbd 8be9 29bd adb6 4ebc fc4a 1ebe
00000090: 7213 693e ecc3 37bd f6e1 61bc 8f5a cfbd
000000a0: e3a1 96bd b328 74bd 22b9 b4bd 37a8 373d
000000b0: c71b 92bc bf43 723d a97a 053e 67d3 06be
000000c0: 1bd4 aa3d 530c 303e 5a1b 32bd 9373 a8bd
000000d0: cddf c53d 0e10 e0bd 1eb7 6cbd 1aee f23c
000000e0: 3761 31bd 7c13 213e 899c 3d3e 442a 3ebe
000000f0: 2a2b 80be f254 0f3c 920c c63d 3557 d23d
00000100: 2d09 05bd 1c87 9f3d 07b2 abbd 4fee 3cbd
00000110: 0c83 52bd 1188 69be a583 b8bd ff13 523e
00000120: 8150 fb3d fffb 743d 6021 09bd 0ca7 30bd
00000130: 4813 6cbe b8c9 253c d834 a63d f7e1 223e
00000140: 3499 813e 3976 e03d 0aa2 bd3b f377 453c
00000150: 5096 8ebd 71ca 903d 993d 493e 9674 69bd
00000160: 5b83 36be 03d7 203e b537 8c3d 32d8 723d
00000170: 1358 623e 96c2 1ebe abb3 a83d ccbb 853e
00000180: b557 453e 8a61 2bbe 7ae8 a93c 4820 e23d
00000190: cc2f 0abe 2e07 013e 2cf3 093d fc66 6c3c
000001a0: 6980 063e d39e b3bd ec7a b8bc 4dce c2bb
000001b0: 2f0e e73d 21f4 2d3d c385 2dbd 8ec2 7c3c
000001c0: 9cec f7bd a81c 5bbe 593a 49bb 751d 8c3e
000001d0: f363 05bd bf8d c43d 2417 7a3d 0c5d 3cbe
000001e0: 5845 173e 1302 d5bc a89a 8bbe 3cbf 013e
000001f0: f8bc 763d 65cb b93d a7d8 44bd 1dc6 94bd
00000200: 8a88 513d e0fc 4dbd 16d1 123e e2b8 273e
00000210: f404 b13d de74 563d f894 203e 7f45 03be
00000220: bcc9 89bd 341e 6f3d 6b9d 7b3c a75d 6abc
00000230: 2f3e 143e cce5 a4bd 8c33 a4bd f086 52be
00000240: 7107 25be b903 9b3c 4fbe 3bbd 71be 4d3c
00000250: c6ef e13d 58ff 0fbe 598e 27be d06f b03d
00000260: e2dd 063e 8c98 efbd bf30 45bd 8277 efbc
00000270: c38d 75be eec5 0dbd 6b5a 67be c933 3bbe
00000280: 58ef 45bd 1872 823d 1b8f ebbc 5b61 23be
00000290: 430c 3a3e 2bb7 4ebe 886e aabd 3cc4 d2bb
000002a0: c1b8 9fbd 3125 a6bd 9b56 d7bc 29fe 533c
000002b0: 1870 06be 6942 1e3c cdb5 2e3e 35ce ecbd
000002c0: 734f dc3d 8295 273e e10e c5bd f696 60bd
000002d0: cfb5 2c3e eb84 d03b 882f 083c 8ad7 053e
000002e0: 291e 8bbd fd56 9e3d 667f 313e 4d39 85bd
000002f0: 9552 00be cb39 c4bd d89d 8b3d f19d 6d3e
00000300: 7033 d23d 5d8b 7abd ef35 023e 4861 b63c
00000310: d4a4 a8bc 28aa 143e b28f ae3d 4e34 6cbe
00000320: 13ce 7fbe 62e3 80bd 6ea1 acbd 17ba b93c
00000330: 6afc 843e 72be 53bb eef8 e8bd 220d c3bd
00000340: 8d73 20be 58d5 67be ec33 b73d ddf4 e33d
00000350: 0ee3 4e3e 8cff 3fbe c791 a73c c064 93bd
00000360: 5ecf 3b3e d0ae 84bb 52e9 3ebe 6c5a 12be
00000370: cf12 09be b352 863d fbc8 81be a431 78bb
00000380: ae2e 2bbe 41f2 933d d571 ed3d b7a0 53be
00000390: ca05 f53d cb77 1cbe 5b1c 6abd 2f2e 8dbd
000003a0: ab53 5c3d 1830 443d aa73 9fbd 592f c13d
000003b0: 85e1 36be b774 f6bd d956 c13d f187 45bd
000003c0: 6568 bf3d 42a1 ce3d 3e28 0ebc 0309 c6bd
000003d0: fb8d 053e d99e 583d f85b 6e3b d1b0 233d
000003e0: 5327 eebd ce99 9c3c dacf 1d3e 3732 adbd
000003f0: a69e eebd 45d8 a83c 594b 873b ded1 a03c
0.099109165 -0.075794145 0.1245478 0.088315256 0.1126747 0.1264354 0.052443538 -0.049456317
-0.1670861 0.024782645 -0.095486365 -0.10638539 0.34861866 -0.029623598 -0.08165319 -0.10192038
-0.05119576 -0.031453975 0.14232135 0.15646304 0.15284695 -0.118290626 -0.17669715 -0.15864292
0.13007118 -0.21706359 -0.10283003 -0.15331744 -0.060423054 0.05569228 -0.037921496 -0.049378555
-0.046820417 -0.04148249 -0.0126167955 -0.15458292 0.22761324 -0.04486458 -0.013786783 -0.101246946
-0.07355096 -0.059609126 -0.08824374 0.044838157 -0.01783551 0.05914664 0.13035072 -0.13166581
0.08341237 0.17192201 -0.043483116 -0.08225169 0.09661827 -0.10940562 -0.05779182 0.029654551
-0.043305602 0.15730089 0.18516745 -0.1857081 -0.25032932 0.00874828 0.09670366 0.1027054
-0.032479454 0.07789442 -0.083835654 -0.046125706 -0.051394507 -0.22805811 -0.09009484 0.2051544
0.12271214 0.059810635 -0.033479095 -0.04312806 -0.2305423 0.010118894 0.08115548 0.15906511
0.25312197 0.10960049 0.005787139 0.012052524 -0.069622636 0.07069863 0.19652404 -0.05699595
-0.17823546 0.1570702 0.06846563 0.05928821 0.2210391 -0.15503916 0.08237394 0.2611984
0.19271739 -0.16736427 0.020740736 0.110413134 -0.13494796 0.12600395 0.033679172 0.01442885
0.13134922 -0.08770528 -0.022519551 -0.005945003 0.11282002 0.042469148 -0.042363893 0.015427245
-0.121056765 -0.2139765 -0.0030704944 0.27366224 -0.032566022 0.095973484 0.061057225 -0.1839487
0.14772546 -0.026001966 -0.2726643 0.12670606 0.06023881 0.090719976 -0.04805818 -0.072643496
0.051155604 -0.05028999 0.14337572 0.16379121 0.08643523 0.052357547 0.15681827 -0.1281948
-0.06727931 0.058378413 0.015357356 -0.014304555 0.14476846 -0.08051643 -0.08017644 -0.20559287
-0.1611612 0.018922674 -0.04583579 0.012557612 0.11032061 -0.1406225 -0.16362895 0.086150765
0.13170579 -0.11699018 -0.04814219 -0.02923179 -0.23979859 -0.03461259 -0.22593085 -0.18281473
-0.04832396 0.06369418 -0.028754761 -0.15955107 0.1816874 -0.2018706 -0.083218634 -0.0064320844
-0.07798911 -0.081125624 -0.026286414 0.0129390145 -0.13128698 0.009659388 0.17061539 -0.11562768
0.10757341 0.16365626 -0.096219786 -0.054831468 0.1686623 0.0063635013 0.008312114 0.13070503
-0.06792862 0.077314354 0.17333755 -0.0650507 -0.12531503 -0.09581336 0.06817216 0.23204781
0.10263717 -0.061168063 0.12715887 0.022263184 -0.020586409 0.14518034 0.085235015 -0.23066828
-0.24980955 -0.0629337 -0.08429228 0.022671742 0.25973827 -0.003230956 -0.113756046 -0.09523989
-0.15669079 -0.22639978 0.0894545 0.11130688 0.20203802 -0.18749827 0.020455254 -0.07196951
0.18340823 -0.0040491596 -0.18643692 -0.14292306 -0.13386081 0.065587424 -0.25348648 -0.0037871385
-0.16717026 0.07223941 0.11593977 -0.20666777 0.11963995 -0.15280072 -0.057155948 -0.068935744
0.05379073 0.04789743 -0.07785733 0.09432859 -0.17859466 -0.1203398 0.09440393 -0.048225347
0.093460836 0.10089351 -0.008676587 -0.096696876 0.13042443 0.052885864 0.0036370736 0.039963547
-0.11628594 0.019116309 0.1541132 -0.08456843 -0.116513535 0.020610938 0.004128855 0.019631322

std.constant5 f4 [64, 64]
00000000: a168 58bd 7ed3 573c 4b2b 21be 132d e9bd
00000010: 159b b83d a87c 9cbd ceb8 00bd 2a0b 393c
00000020: 9dc5 a33d dfcf 1dbd 152b 613e fd51 db3d
00000030: bc84 863e c573 07bc 1cbc 13bd 6957 d33c
00000040: e3b8 d53d 6cdc 3f3e ba08 573d 50b0 6f3d
00000050: b2f3 27bd 1aa4 383d 5ae5 263e a5b3 e0bb
00000060: 4bff 53bd 641b b23d 6248 833e c160 9cbd
00000070: a143 38be ffd2 163e 6317 9dbd 77e1 2cbd
00000080: 0a94 813c b63c 113c 1d56 953d af91 83bc
00000090: 8b1c dabd 626e ea3d 39bd 0f3d 6f78 c53d
000000a0: b3de 94bd 516a 47be 4ac8 62bd be94 a0bd
000000b0: fae1 bebd 89b3 ffbc b3ee 773b b7d8 ec3d
000000c0: 4b23 e5bd 597d eebd 176a 803d 9509 5cbd
000000d0: d8e3 87bd 189e 23bb 8053 ae3d 9988 163e
000000e0: d083 37bd 3076 913d 5ddb aabc 21ce dc3b
000000f0: 68bb 2e3d 9cfe 293e 90e4 a13e 70c6 64bc
00000100: d73f d8bc 2db2 b7bd 62f0 243d 1e94 e8bc
00000110: 68e9 cb3e 35d2 5b3e 66ff bbbc 84e0 abbd
00000120: 306d 4fbe 90d0 36bd 29d1 173d 15b1 19bd
00000130: c804 a63e 4cfc 5fbe 8848 3fbe d197 1c3c
00000140: 8b51 053d ae53 36be 5066 0d3e 69a3 1f3e
00000150: 730e f2bb c66c 2abd 985d f9bd f3e9 09bd
00000160: 55cb 0f3d f26c 04be b1bc 40bd 7257 463c
00000170: 6a7c 0bbe 1120 b63e d242 4fbe 017d 85bd
00000180: 0b63 5ebe b2a2 e5bd d493 7f3e 8ae4 b5bd
00000190: 7559 3f3d 631b 66bd af25 053b a49f e0bc
000001a0: b750 70be c87c acbd 1bc5 0abe 7b31 0b3e
000001b0: 31bf 3fbe 3b98 6fbd 6c30 c33d c0aa dbbd
000001c0: fc6f 973d 7e78 74bd 7ada d13c 2afb 11bc
000001d0: 657a 833d 82f4 8ebd a8df 6abb 12b2 e13d
000001e0: bf9a d2bd 1b19 f43d b2cf 863d d9e3 a0be
000001f0: 463a 9ebd 5f58 6a3c 9500 c03e 10ca d03d
00000200: e5a4 d53b 2bf0 0dbd fb9c 2e3b 6d48 28bd
00000210: 70d8 183e 659b 613d 630a d83c 1005 3cbd
00000220: aa3b febc 3754 9abd 6c29 863e 5cf8 3d3a
00000230: 203f 003e 8d25 59bd b49c f4bd 6f92 093d
00000240: f38b 093e 8ef5 c7bb 371d a53d 320a 9c3d
00000250: c070 053d cfcb be3d 4f3d 593d 7d26 a4bd
00000260: 158b 24be f6de 2a3d 9178 4f3e 5b6f 3a3e
00000270: 46c8 eebc 2660 863e 7706 4bbe 1d9c 673d
00000280: 4e54 573d 8c74 e23c 1425 563e 1501 b43c
00000290: 52b0 d1bd 66c6 293e 743a a5bd 9315 99bb
000002a0: 7ea6 d4bd f255 30bd 9cd4 35be f0bc 85bd
000002b0: 56fa 8bbe 943e 5dbd ece9 49bd de0d a23d
000002c0: a991 773d f310 3dbd 1e8a 3d3d 8750 473e
000002d0: 38a1 f2bc 65ef d7bc 7cec e33d 0f54 e7bc
000002e0: cb33 0e3d 8d49 4a3e e0df 833c 37dc 18be
000002f0: 561f f23d 523b 723d 1f51 c43e ba19 abbd
00000300: a5ef 2a3e 666d 86bd 53e2 93bd ea2a 3c3d
00000310: 4573 b03d f0c5 803e ddbd a4ba 39cc 80be
00000320: eafa 58be 8769 acbc 61ad 6fbe d393 7fbd
00000330: 5dff e53d b2c7 16bd acce 1dbe b549 03be
00000340: aa08 e5bd a6e5 36bd 8269 453d d5f4 b13d
00000350: fca0 863d ac25 a6bb 249a 5fbe 7e21 0ebd
00000360: 334d 233e bcf8 2dbe 0930 3abd f66e a3bc
00000370: 2419 12be 91a5 193e 062b edbd 3161 7fbe
00000380: bf1f 06be 4bef b73d 8def 573d 9f11 163d
00000390: 2ae0 893d 4620 9dbd 632e eebb c876 fd3b
000003a0: 070d 92bd 6ac1 3d3e f21e fbbc e03c bd3d
000003b0: a546 a8bd a0ad 88bd 1b65 4c3d cec5 5dbd
000003c0: 0c7a b33b bc39 433e 0686 013d 5c86 2ebe
000003d0: 214f 67bd 4ea5 5ebd bd99 27be 458f 8f3e
000003e0: 2302 31be d466 3c3c 5edc 243e b35c 43be
000003f0: 6137 4dbd aa10 19be ae37 d0bd e44a 153d
-0.052834157 0.013172982 -0.15739171 -0.1138555 0.090139546 -0.07640964 -0.031426243 0.011294166
0.07996676 -0.03852832 0.2198909 0.107089974 0.26273143 -0.008267348 -0.036068067 0.025798516
0.10435655 0.18736428 0.052498557 0.058517754 -0.04100389 0.045078374 0.16298428 -0.006857353
-0.05175714 0.086966306 0.2564116 -0.07635642 -0.17994548 0.14728926 -0.07670476 -0.042207208
0.01581766 0.008864572 0.072918154 -0.016060678 -0.106499754 0.11446835 0.035092566 0.096421115
-0.07269039 -0.1947415 -0.05536679 -0.0784087 -0.09320445 -0.031213539 0.0037831485 0.115647726
-0.11188372 -0.11645002 0.06270235 -0.053720076 -0.066352546 -0.0024966057 0.0851202 0.14700545
-0.04480344 0.071026206 -0.020856554 0.0067384397 0.042659193 0.16601032 0.31619692 -0.013963327
-0.026397629 -0.08969531 0.04026831 -0.02839094 0.39826512 0.21466906 -0.022948932 -0.08392432
-0.20256495 -0.044632494 0.037064705 -0.037522394 0.32425523 -0.21873587 -0.18680012 0.00955768
0.03254847 -0.17805359 0.1380856 0.1558968 -0.0073869764 -0.04160764 -0.12176055 -0.033670377
0.035106022 -0.12932184 -0.04705495 0.0121058095 -0.13621679 0.3557134 -0.20240334 -0.06517983
-0.2171747 -0.11212672 0.24958736 -0.08881481 0.046716172 -0.05617846 0.002031665 -0.027419873
-0.2346829 -0.08422238 -0.13551752 0.13593094 -0.18725277 -0.058494788 0.0953072 -0.10725927
0.07394406 -0.059685223 0.025616873 -0.00890998 0.06419829 -0.0698023 -0.0035838876 0.11020292
-0.10283422 0.11918851 0.065825835 -0.31423834 -0.077259585 0.014303296 0.37500444 0.1019479
0.006519901 -0.03465287 0.002664386 -0.041084696 0.14926314 0.055079836 0.02637214 -0.045903265
-0.03103431 -0.07535594 0.26203477 0.0007246786 0.1252408 -0.053014327 -0.11943951 0.033586916
0.13432293 -0.0061022704 0.08062213 0.07619132 0.03257823 0.09316217 0.053036984 -0.080151536
-0.1606868 0.04171654 0.20260836 0.18206541 -0.029148232 0.2624523 -0.19826685 0.056545366
0.052570634 0.027643465 0.20912582 0.021973172 -0.102387086 0.16579589 -0.0806779 -0.0046717613
-0.10383318 -0.043050714 -0.17756885 -0.065301776 -0.2733943 -0.054014757 -0.04929535 0.07912801
0.060441647 -0.046158742 0.046274297 0.19464312 -0.02961789 -0.02635927 0.1112909 -0.028238324
0.034717362 0.1975462 0.016097963 -0.14927755 0.11822383 0.059138604 0.3834314 -0.08354516
0.1669298 -0.06563835 -0.07220902 0.045939364 0.08615736 0.25151014 -0.0012568791 -0.2515581
-0.21189466 -0.021046413 -0.23405983 -0.062396836 0.11230347 -0.036811538 -0.1541087 -0.12821086
-0.11183293 -0.044652604 0.048196323 0.08689276 0.06573674 -0.005070409 -0.21836144 -0.03469991
0.15947418 -0.16989416 -0.045455966 -0.019950371 -0.14267403 0.15004565 -0.11580472 -0.2493942
-0.13098048 0.089811884 0.052718688 0.0366379 0.06732209 -0.07672171 -0.0072687133 0.007735107
-0.07131391 0.18530813 -0.030654404 0.092401266 -0.082165994 -0.06673741 0.04990111 -0.05414372
0.0054771956 0.19064993 0.031621955 -0.17043442 -0.056471948 -0.054356866 -0.1636724 0.28038993
-0.17285971 0.0114991255 0.16099688 -0.1907833 -0.05010164 -0.14947763 -0.1016687 0.036448374

std.constant6 f4 [64, 64]
00000000: 442f c9bd eba2 e73c e03a dbbd be40 afbd
00000010: eb4f 693e 00d4 053e e3cc b53d 28b3 13be
00000020: 1eec 723d 21df 61bc 8622 a83e c992 373d
00000030: 9356 893e e0a8 ce3c 68b1 613d 63ba d83d
00000040: 4886 02bd dd81 a63d a1f7 1d3e 7d9a d43d
00000050: 67ac d4bd 1030 36bb 9adf b13c 24a3 e43c
00000060: 2e66 ccbd ebb6 b13c a701 bf3e 7556 e63d
00000070: 436a 3dbe a951 823e f499 1dbe 6a2a 47bd
00000080: 46f1 9ebd 0ee1 27bd ca80 0b3e 8754 043d
00000090: 3cb1 a7bd 1865 853d 325d cf3d d42c 94bd
000000a0: 7c23 1bbe 99ec 2abe 8a38 79bd a8f1 e13c
000000b0: 5abc 4cbe 02f1 dc3c 9b6b 95bd d75a 723d
000000c0: 4bb5 003d 06dc d0bd adae 62bd 57dc 5c3c
000000d0: a365 da3d 22ac e4bd 77f1 743d 076e 84bd
000000e0: a80f 19be b303 07bc 22c2 2abd 01d0 01be
000000f0: 77d5 bb3c 5c88 133e db24 e53e 3c91 c4bd
00000100: 34d7 84bb 6d20 26be cf6f a63b b296 9cbd
00000110: 01e3 e23e 411e 803e 1b15 2e3e 19af 61bd
00000120: 1963 adbe 2442 543d bacb 8e3d abab 2abd
00000130: d226 c23e 3813 45be 35d6 eabd 44e4 a13d
00000140: 3c1c 27be 0126 7ebe d215 4e3e a781 b03d
00000150: 7d3e 913d 1521 9ebd 7789 8fbd f413 e2bd
00000160: 51da ba3c b6cc 8cbd 06f1 15bd efc7 2ebd
00000170: 5cf9 79be f0af 663e 2a65 b2be 1074 92bd
00000180: f303 86bd dfbf 363c f117 3e3e 907a 5fbe
00000190: 0559 053d 43e3 0e3e e112 f03b ba24 bcbc
000001a0: 6d5d 91be 4b29 fabd 5daa 85be c0e9 223d
000001b0: 3d24 36be 6547 9dbc c19a 043d 853e b53d
000001c0: 105c 5f3e 878b a63d 192a 2fbe 9800 ebbc
000001d0: e269 833e 655c 0b3c d23b 473e f9a2 793e
000001e0: b039 19be 6e4e 7c3e a6e3 f53d c124 b1be
000001f0: a911 b8bd a35e 9b3d 6272 d73e 6463 c03c
00000200: 3651 323e dbb3 2abe 701b 43be 2920 14be
00000210: d722 c73e 8023 753e e0ec 413d 1f7e 4cbc
00000220: 9708 35be ea08 88bd 86b5 833e 7923 153e
00000230: eae4 003f 1be8 b0bd 6b82 debd 9065 163e
00000240: a101 ed3c f013 2cbe 53f1 ef3a 9394 d03b
00000250: c214 073c e618 5e3d ce9b 2f3d 669c a3bc
00000260: 7dfe b0bd dcd6 5b3d 6473 8b3d 38a1 803d
00000270: 7e36 91bd f286 de3e 8672 acbe b99c e2bd
00000280: eea2 073d e2c7 0ebe 5cd5 913e 3561 b8bc
00000290: 306b 183d 65da 9c3d 1fb4 85bd 11f2 143e
000002a0: 8a33 bdbe d606 1dbe 74f5 92be 8a0f 9a3d
000002b0: a289 32be 399c 17bc 46c8 8fbd b954 233e
000002c0: c879 b43d 57ab acbd 639f a2bd b46d da3d
000002d0: a483 153e 6076 bcbd a968 9d3d c171 653d
000002e0: 5f81 933b 1946 8c3d 01a6 cb3c fe09 83be
000002f0: a08c c539 8cef e23b 9640 fa3e d89d 18be
00000300: b33d 013e 6495 85bd bcc5 783d f991 883d
00000310: bd31 f83d ff41 373e 789f 363e cf21 96be
00000320: d551 bfbe 8b88 2b3d 7ffe 57be dbee 07be
00000330: e6fb b73e 674b 11bd bf0d 44be 7746 91bd
00000340: 367a a3bd 8752 96be cb68 703d cc9c 4a3d
00000350: f6f9 123e 0c8c 5cbe 59cb 56be 3e7f 32be
00000360: 6448 c03d 7e62 80bd 3cc0 f8bd 8c85 06be
00000370: 6e0c fabd 0a7d aa3e 261c a7bd 5901 54be
00000380: c58c 0bbe 43c2 003e 9cbc cf3d 225d e4bc
00000390: 1e4f df3c 6930 cfbd 7a41 57bd aaba 14be
000003a0: c965 6cbe 4ede 7ebc f91f 55be 4c69 9b3d
000003b0: df84 90be 08d7 afbd 8a61 933c 4659 21be
000003c0: 9ecc 623e 211f 753d 1df1 d6bc 0276 e9bd
000003d0: 05b6 943e f9c9 72be 2977 6abd 3170 663e
000003e0: 3927 99be 646b 263e dd86 bc3d e464 62be
000003f0: 3bf7 16bd bc17 5d3d 84e9 9f3e a880 003c
-0.09823468 0.028275928 -0.10704589 -0.085572705 0.22784393 0.13069153 0.0887697 -0.14423811
0.05930721 -0.013786108 0.3283884 0.04481772 0.26823863 0.02522701 0.05510083 0.105824254
-0.03186634 0.08130238 0.15426494 0.10381029 -0.10384446 -0.0027799644 0.021713067 0.027909823
-0.09980427 0.021693667 0.37305948 0.11246959 -0.18497567 0.25452927 -0.1539076 -0.048624434
-0.07760863 -0.040986113 0.13623348 0.032307174 -0.08188102 0.06513423 0.101251975 -0.07235113
-0.15150255 -0.16691817 -0.060844935 0.027581051 -0.19993725 0.02697039 -0.07295915 0.059168663
0.031422894 -0.10198216 -0.055342365 0.0134802675 0.10663917 -0.11165644 0.05980059 -0.064662986
-0.14947379 -0.008240628 -0.041689046 -0.12677003 0.022928936 0.14407486 0.4475468 -0.09598014
-0.0040539745 -0.16223307 0.0050792466 -0.0764593 0.44313815 0.25023082 0.17000239 -0.055098627
-0.33864668 0.05182089 0.069724515 -0.04166762 0.37920243 -0.19245613 -0.11466638 0.07904866
-0.16319364 -0.24819185 0.20125511 0.08618479 0.07091997 -0.07721154 -0.07008641 -0.11038962
0.02280918 -0.06874983 -0.03660681 -0.04267114 -0.2441153 0.22528052 -0.34842807 -0.071510434
-0.06543722 0.011154144 0.1856382 -0.21824098 0.0325556 0.13953881 0.0073264693 -0.022966731
-0.2839159 -0.12214907 -0.2610654 0.039773703 -0.17787261 -0.019199083 0.032374147 0.08849815
0.21812463 0.081320815 -0.17105903 -0.028686807 0.2566672 0.008505915 0.19456413 0.24378575
-0.14963412 0.24639294 0.12006311 -0.34598354 -0.089877434 0.0758641 0.42079455 0.023484893
0.17413792 -0.16670172 -0.19053435 -0.14465393 0.38893768 0.23939323 0.047345042 -0.0124812415
-0.17679058 -0.06642325 0.2572443 0.14564313 0.50349295 -0.086380206 -0.10864719 0.1468718
0.02893144 -0.1680448 0.0018306173 0.0063653677 0.008244695 0.054222964 0.042873196 -0.019972038
-0.0864229 0.053671703 0.068091184 0.0628075 -0.07090472 0.4346233 -0.33681124 -0.11065049
0.033114366 -0.13943437 0.28483093 -0.02250729 0.037211597 0.07658843 -0.06528496 0.14545466
-0.36953384 -0.15334639 -0.2870289 0.07522495 -0.17435315 -0.009253555 -0.07020621 0.15950288
0.088122904 -0.08431118 -0.07940557 0.106654555 0.14600998 -0.09202266 0.07685978 0.056016687
0.004501506 0.068493076 0.02485943 -0.2559356 0.00037679542 0.006925529 0.488774 -0.14903963
0.12621193 -0.065226346 0.06073545 0.06668467 0.12118862 0.1789627 0.1783427 -0.2932267
-0.3736712 0.041878264 -0.21093176 -0.1327471 0.3593437 -0.0354723 -0.19145869 -0.07093518
-0.07982294 -0.29359838 0.05869369 0.04946594 0.14353165 -0.21537799 -0.20976008 -0.17431352
0.093888074 -0.06268786 -0.12146041 -0.13136882 -0.12209402 0.33298522 -0.08159666 -0.20703639
-0.13627918 0.12574105 0.10143396 -0.02787644 0.027259406 -0.101166554 -0.052552678 -0.14524332
-0.23085703 -0.015555931 -0.20812978 0.07588443 -0.28226373 -0.08585936 0.017990846 -0.15756711
0.22148368 0.05984414 -0.026238019 -0.11399461 0.2904512 -0.23709859 -0.057242546 0.22503735
-0.29912737 0.16251904 0.09205411 -0.22108799 -0.03685687 0.053977713 0.31232846 0.007843174

std.constant7 f4 [64]
00000000: 88aa 9abb 4c3e 4d3c 17cc 7abc 2a0f 95bc
00000010: 0881 333c 82c2 bc3c aba3 303d 236b 2a3e
00000020: 275a 5d3e c58f 713d 1374 733e cafb 01bc
00000030: e4bc 223d f6ac 133c 501a 173d f60f 273e
00000040: 672a 743e a487 083e 1aae 8c3d 81b0 a93d
00000050: d6f2 ef3d 481d 40bd 71ae 523e e717 d53c
00000060: 442d 333e b8f6 593e f371 323e f0cc 31bc
00000070: 201d bb3e af4e 163e 2b70 ab3c a0ce e23d
00000080: 823a 223e 655c 0c3d 2353 6fb9 c688 303d
00000090: 121e 103e 3a20 073e 5f9a ec3c 1c21 24bd
000000a0: 9025 eb3c e3f0 653d 251b eb3d 269b 693d
000000b0: 61d4 9f3d 83b4 5abb 9325 743c 1389 3a3d
000000c0: 3156 76bb e31b 5b3e 94ec 21bc 4512 243d
000000d0: e8dd 10bc d139 e73c 0b79 c53d 5174 1b3d
000000e0: 1aa1 ba3d 520b 133d a8a5 613e f257 5c3d
000000f0: 0171 04bc 2cd9 153e a9d5 b33d bf15 283e
-0.004720036 0.01252706 -0.015307448 -0.018195707 0.010956056 0.023041967 0.043124836 0.16642432
0.21616422 0.058975 0.23774748 -0.007933566 0.03973092 0.009013405 0.036890328 0.16314682
0.238443 0.13332993 0.06869145 0.082856186 0.11716239 -0.046902925 0.20574357 0.026012374
0.17497736 0.21285522 0.1742628 -0.010852084 0.36545658 0.14678453 0.02092751 0.11074567
0.15842631 0.0342678 -0.00022823787 0.043099187 0.14073971 0.13195887 0.028882204 -0.040070638
0.028704435 0.05613793 0.11479787 0.057032727 0.0780418 -0.0033371754 0.0149015365 0.04554088
-0.0037587995 0.21397357 -0.009883065 0.040056486 -0.008841969 0.028225811 0.09642228 0.037952725
0.09112759 0.035899468 0.22035849 0.05379481 -0.008083583 0.14633626 0.08780987 0.16414545

std.constant8 f4 [64]
00000000: 5564 203e a665 1bbe d7dd 013e be75 053e
00000010: a23f f53d 6f2b c03d e4b2 6c3d 6ce6 10be
00000020: c919 ddbd 1ff8 2a3e ec1f 0e3e cab6 fcbd
00000030: 6843 fd3d 4403 0fbe 08f3 08be 2982 1cbe
00000040: 7d6f 1bbe 78db 1cbe 6cca 843d e30e de3d
00000050: 1ba8 0d3e dffb e9bd 262f 27be e331 74bd
00000060: 392f 0d3e 7062 23be 8992 46be 24a7 03be
00000070: 1608 3cbe aa30 d23d 4936 03be 97c2 15be
00000080: e984 c9bd 5365 153e afb5 153e 36d0 b0bd
00000090: e35e 033e 945f 0fbe 3f3a 353e 645b e9bd
000000a0: 2af6 d4bd 5371 79bd 0e88 3abe 8243 1b3e
000000b0: cf24 b4bd e02e cabd 4877 293e 30f3 2bbe
000000c0: f535 ab3d fa0f 133e 8932 06be 3495 19be
000000d0: 3c7c a73d 9823 8abd 94a2 c13d ba87 e23d
000000e0: 4482 a6bd 6ca8 0a3e 8fe2 233e 6c25 eabd
000000f0: 3901 09be cc7d 53bd 0d3d 5e3e 288d 133e
0.15663274 -0.15175495 0.12682281 0.13033196 0.119750276 0.09383284 0.05778779 -0.14150399
-0.10795934 0.16696213 0.13879365 -0.12339552 0.12366372 -0.1396609 -0.13373959 -0.15284027
-0.15179248 -0.15318096 0.064839214 0.10842683 0.13833658 -0.11424994 -0.1632658 -0.05961789
0.13787545 -0.1595552 -0.19391836 -0.12856728 -0.1836246 0.10263188 -0.12813677 -0.14625011
-0.09839804 0.14589433 0.14620088 -0.08633463 0.12829165 -0.14001304 0.17698 -0.113943845
-0.103985146 -0.06089909 -0.18215963 0.15162471 -0.08796083 -0.09872222 0.16549408 -0.16791987
0.08359901 0.14361563 -0.13105215 -0.14998323 0.08177993 -0.0674507 0.094548374 0.11061044
-0.08130315 0.1354081 0.16004394 -0.11432919 -0.13379373 -0.05163364 0.21702977 0.14409316

std.constant9 f4 [64]
00000000: c927 7e3f a0c4 833f 5993 793f 9114 863f
00000010: a9a7 7c3f 12d5 793f f012 823f d709 943f
00000020: 5d1e 903f 0dc3 823f eaa7 943f c8f4 873f
00000030: 35dd 7d3f e7bf 823f 94ff 803f 534c 993f
00000040: 1dd4 933f ecd8 833f 5361 813f d25e 823f
00000050: d76b 953f 13b2 883f 25dd 8e3f 5939 803f
00000060: ecd7 953f ebd4 973f a85f 903f 617f 853f
00000070: e8cb 9f3f 9ec2 803f 7d93 773f 23b4 8b3f
00000080: 7064 963f cb3b 863f 9f42 493f baee 7e3f
00000090: 32a2 973f 6a72 963f 43f5 7f3f c6a1 833f
000000a0: 5017 793f a79b 833f d374 543f b807 893f
000000b0: a33d 853f c365 6f3f 4901 853f 3dc9 803f
000000c0: a347 783f 9693 9b3f 69da 853f 3c4a 8e3f
000000d0: 5471 743f 5a6e 813f 478a 913f a8e9 8a3f
000000e0: adaf 853f 3b15 823f d16a 9c3f 124b 763f
000000f0: c4b1 833f d5aa 8b3f fb7f 4f3f f5c7 993f
0.9927946 1.029438 0.9749046 1.0475026 0.9869333 0.97590744 1.0162029 1.1565503
1.1259266 1.0215775 1.1613743 1.0621576 0.9916566 1.0214814 1.0077996 1.1976417
1.1549107 1.0300574 1.0107826 1.0185187 1.1673535 1.0679344 1.1161238 1.0017501
1.1706519 1.1861852 1.1279192 1.0429498 1.2484102 1.0059392 0.96709424 1.0914348
1.1749401 1.0486997 0.7861728 0.9958302 1.1846373 1.1753666 0.99983615 1.0283744
0.973012 1.0281876 0.8299076 1.070548 1.0409435 0.9351465 1.0391017 1.0061413
0.9698431 1.2154415 1.0457278 1.1116405 0.95485425 1.0111802 1.1370324 1.0852556
1.0444237 1.0162729 1.2220098 0.962083 1.0288625 1.0911509 0.8105466 1.2014147

std.constant10 f4 [64]
00000000: 9efb ab3c 52af fb3d 72af 6e3d 0275 81bc
00000010: 35b3 e03d 88fa 703d b81b 963d c2e9 493e
00000020: 86d9 403e ef52 603d 852f 383e 7654 4c3d
00000030: 2261 e13d 4921 f63d 6d93 ef3d 7613 123e
00000040: 504c 7e3e 9e50 263e 1677 3e3d 1564 ae3d
00000050: 0c1b b13d f944 813b 9270 843e c73e e33d
00000060: d69b 223e a680 6b3e 181a 7e3e 13da f33c
00000070: 3617 f73e 837f 2c3e 181b c03d a1bf 6f3e
00000080: a1be 0a3e 2419 1a3d bc81 f3bd 5feb 8c3d
00000090: 5770 f03d 794a 0a3e b41e 013d 528a 3bbd
000000a0: 5da6 c43d 9030 2b3d 35ae f93c 3a8a 843d
000000b0: 5899 1e3e 833e d63c fe83 7d3c b8cb 383d
000000c0: 81cb 853d 22c5 463e 597e 043c cd03 873d
000000d0: 2f26 2d3d d9bc 323d 060c 003e a511 0d3e
000000e0: 5396 283d b405 e23d 13df 823e 6f9a aa3d
000000f0: 4173 b6bc 8097 ee3d 0ef7 133e dfba 113e
0.020994004 0.12289299 0.058272786 -0.015802864 0.10971681 0.058832675 0.07329506 0.19718078
0.18832979 0.05476659 0.17986877 0.049885236 0.11004855 0.120180674 0.11698041 0.14265236
0.24833798 0.1624169 0.046500288 0.08515183 0.08647737 0.0039449898 0.25867134 0.11095958
0.15879759 0.22998294 0.24814641 0.029767072 0.48259896 0.16845517 0.09380168 0.23412944
0.13549282 0.037621632 -0.11889979 0.06880831 0.11740177 0.13504972 0.03152342 -0.04578621
0.09602044 0.04179436 0.030478576 0.06471677 0.15488183 0.026152855 0.015473364 0.045116156
0.06532956 0.19411138 0.008086764 0.06592522 0.042272743 0.04363713 0.12504587 0.13776262
0.041158985 0.11036244 0.25560817 0.08330237 -0.022271754 0.1164999 0.14449713 0.14231442

std.constant11 f4 [64, 2]
00000000: 2ea8 07bd ca3f cb3d b962 85be 938c 213f
00000010: 7f5e 89be 98e8 443e 483a 92bc 8fe9 343c
00000020: 6830 66be 3c82 103e 883b a5be c60f 463f
00000030: a338 5ebe d203 ce3d d603 b8bc 8d37 e73c
00000040: a65e 4fbe 4bbe 05bd bd43 3abe d55e 633e
00000050: d805 e13b e148 2fbc e754 d1bb 2ab4 5e3b
00000060: 475e 99bd fb46 c63e 1363 8bbc 2ec6 7a3d
00000070: e17a c2bd 929d b43e 81be f43d 8b79 05bd
00000080: 4964 abbd 3f80 673e 70d7 153d 8eff a83d
00000090: b33b 49bb 5984 9e3e 3c66 43be 6019 d5bc
000000a0: 070b d9bd fbbd 263e f565 8ebe b84c 113f
000000b0: a7ec 923d f4a2 953d 5534 95be af19 1d3f
000000c0: 79bc ebbd 38ca 2fbd a376 fabc 9bc7 70bc
000000d0: aa07 1bbe f493 bfbd b070 413b d5a8 f1bc
000000e0: 6485 d23d 760e 873e 2f47 b5bd 3c5a 1f3e
000000f0: 90dd 803c b1be 8a3e 85fc e2bd 813c 9a3e
00000100: ec36 ca3d 2073 f63d aa0c 013c 6445 d13d
00000110: 6e15 81bd 2759 d63c 6d0e 43be bea9 b33e
00000120: a668 2ebe 7bc2 1b3e 9085 443d f232 08be
00000130: fb24 90be a540 9c3e e8dc 18bb f230 753e
00000140: 268f 64be b816 ab3d 7156 3dbe 3a22 ec3d
00000150: 0c8d 7cbd 4471 0a3d b3c4 6dbe 3510 f93c
00000160: 8be0 89be 81d4 963d 47d9 99bd daac 583e
00000170: 6dd1 283d 4d23 583e d5ac 0b3c b167 803e
00000180: b151 16be e811 1d3f de8f 8bbd 2fb9 ab3d
00000190: d408 f5bd d08a c93e 8383 6bbd b0a0 913e
000001a0: 3c98 fdbc fc40 1d3e 5dd8 83bd 508b 873d
000001b0: 3a9a 5ebc a58f cebc 0aeb 01bd 8380 a43e
000001c0: 6c64 02be b740 793d e366 e3bd 5906 423f
000001d0: fdfa 69bd 9eaa 273e d9d0 44be 8ef7 43bc
000001e0: 92cc 583c 8a61 483e eaf1 223e c08d e2bd
000001f0: 7ae0 86bd 869d ca3d aa2e 85bb 5874 77bd
-0.033119373 0.09924276 -0.26051882 0.63105124 -0.26829907 0.19229352 -0.017850056 0.011042013
-0.22479403 0.1411218 -0.3227198 0.7736782 -0.21701293 0.100593224 -0.022462767 0.02822473
-0.2025095 -0.03265218 -0.18189903 0.22204144 0.0068671517 -0.010698528 -0.006388295 0.0033981898
-0.07488685 0.3872603 -0.017015016 0.061224155 -0.094960935 0.35276467 0.11950398 -0.032586616
-0.08368737 0.22607516 0.03658241 0.08251868 -0.003070575 0.30960348 -0.19081968 -0.026013076
-0.105978064 0.1628341 -0.27812162 0.5675769 0.07174044 0.073064715 -0.2914149 0.61367315
-0.11510558 -0.04291746 -0.030574149 -0.014696027 -0.15139642 -0.09354392 0.002951663 -0.02949945
0.102793485 0.2637822 -0.08851468 0.15561765 0.01573065 0.2709861 -0.110833205 0.30124286
0.09873757 0.12033677 0.0078765545 0.10218313 -0.063029155 0.026165558 -0.19048472 0.3509044
-0.17032108 0.15210907 0.047978938 -0.13300684 -0.28153214 0.3051807 -0.002332503 0.23944452
-0.22320232 0.08353943 -0.18490006 0.11529966 -0.06165795 0.033799425 -0.23219566 0.030403236
-0.26929125 0.07364751 -0.075121455 0.21159688 0.04121535 0.21107216 0.008525093 0.2507911
-0.146796 0.6135545 -0.0681455 0.0838493 -0.119645745 0.39363718 -0.057498466 0.28442907
-0.03095638 0.15356821 -0.064377524 0.066183686 -0.013586575 -0.02521498 -0.03171829 0.32129297
-0.1273362 0.060852733 -0.111036085 0.75790936 -0.057124127 0.16373679 -0.19220294 -0.011960877
0.013232367 0.19568458 0.15912595 -0.11062193 -0.06585784 0.098933265 -0.0040644007 -0.06041369

std.constant12 f4 [64, 2]
00000000: 196e 44bd a071 a5bc fa84 923d 0626 fdbc
00000010: 209b 88bd 5136 ccbb 307b 05be ab9a eabd
00000020: f75c bb3b 400b e93d 75ea 5c3d a5d5 733e
00000030: 44a7 f3bd 243b 78bd 8b87 a8bd 2cf0 a0bd
00000040: 6876 ec3d 15a6 fdbe 069d d6bd 44ba 03bd
00000050: 9dc9 7d3d 42c6 9cbe 5c81 0e3e c37c e53d
00000060: 400e 883c f420 773d acc6 a33d 45a5 e03c
00000070: f7f2 2bbd 055d 29be 929f 833c 0668 c43d
00000080: 769a e4bd 8d62 6bbd 4a0a b13e a82e d5be
00000090: 5859 0bbe 3245 1d3d f3e4 d0bd b5fa cfbc
000000a0: 214e 91bd befa 02be a99f 293d 3a3a 913c
000000b0: de2d 3cbe 52fb 75bd 4297 f53d 9a72 ba3c
000000c0: 574b 8a3d 2cb1 78bd 28b8 d3bd 0349 6a3b
000000d0: ea2a ae3e 6578 7fbe ece8 233e aa79 603d
000000e0: 85d5 70be ae66 45be 3b38 c9bc b637 e33e
000000f0: fc25 1b3d a616 08be cf9e f6bd a283 40be
00000100: facc 153c 418e cd3d 05a8 f6bd 7fdc a5bc
00000110: 1d18 bebe adcc c43e 1a35 ef3d 996b 0a3c
00000120: 7ede d8bc 9d42 a3bd a18b 053d a181 023e
00000130: b516 1dbe 5325 0fbe bcf5 0f3e 9536 003e
00000140: d7bb 223d 407a c5bd 233d 7a3e 96a1 9e3d
00000150: 85f5 a93e ce0d e0be f80e 71bd d783 d13d
00000160: 6c51 7c3e c06f 00bf 0ad9 613d 72dc a4bd
00000170: 2b15 f8bd 0444 60bd 6784 143e 2034 213d
00000180: a88a b0bd bbc3 a73d f016 1b3d bd53 87bd
00000190: 2cf7 ed3d 28b8 b03d 248c 893d 408e 9bbc
000001a0: 0855 67be 122b f83d 0fe1 dd3d 18ec 47bc
000001b0: 8d7c 8fbe abec cfbd fe8f ad3d 4cc2 273e
000001c0: 23ed aa3d 4b82 1f3d 6df9 6abd cde0 543d
000001d0: 9ab5 5f3d ae98 17bc cbeb e93c 1a80 2dbe
000001e0: 4f06 f33d 4fcc ba3c 5c59 39be 3722 183e
000001f0: 80ed 84bd e1ca 223f a701 74bc f516 1ebe
-0.04795656 -0.020195782 0.071542695 -0.03090192 -0.06670213 -0.006232061 -0.13035274 -0.11455282
0.0057178694 0.11379099 0.053934533 0.23811968 -0.11897138 -0.060603276 -0.08228978 -0.07858309
0.11546022 -0.49540773 -0.104791686 -0.03216006 0.06195985 -0.3062001 0.13916534 0.11205437
0.016608357 0.06033416 0.07996878 0.027422557 -0.041979756 -0.1653939 0.0160673 0.095901534
-0.111622736 -0.057467032 0.34578162 -0.41637158 -0.136083 0.038396068 -0.101999186 -0.025388101
-0.0709498 -0.12790963 0.04141203 0.01772796 -0.18376872 -0.06005413 0.11991741 0.022759724
0.06752651 -0.06071584 -0.103378594 0.0035749085 0.34017116 -0.2494827 0.16006821 0.054803528
-0.23518951 -0.1927745 -0.024562946 0.44378442 0.03787802 -0.1328989 -0.12042009 -0.18800214
0.0091431085 0.100368984 -0.12043766 -0.020246742 -0.37127772 0.38437405 0.1168005 0.008448505
-0.02647328 -0.0797169 0.032603864 0.12744762 -0.15340693 -0.13979082 0.14058584 0.12520821
0.03972992 -0.09642458 0.24437384 0.07745664 0.3319513 -0.43760532 -0.058852166 0.102302246
0.24640435 -0.50170517 0.055138625 -0.08049859 -0.121134125 -0.054752365 0.14503632 0.03935635
-0.086201966 0.081916295 0.03786367 -0.06607769 0.1161941 0.08628875 0.06716183 -0.018988729
-0.2259103 0.1211759 0.10833942 -0.012202285 -0.28024712 -0.10152563 0.0847473 0.16382712
0.083460115 0.038942616 -0.057366777 0.0519722 0.054616548 -0.00925271 0.028554818 -0.16943398
0.11866438 0.0228025 -0.18100494 0.14856802 -0.06490612 0.6359082 -0.014892972 -0.15438445

std.constant13 f4 [64, 2]
00000000: 3909 b5be 5850 853f 3c2f 52be 7b28 903e
00000010: 4e8a 87be c061 4a3f 6465 2b3d f38c 053e
00000020: 5893 29be 3ee8 903f 0ad7 b2bd 27f1 2d3f
00000030: cb29 87bd 1952 883e 11e6 f73d 08bb 903d
00000040: 170b 793e b6a9 14bd 174e 07be 556f 9d3e
00000050: a1cd 663e 32c4 97be 56dc 60be f743 4d3e
00000060: 7be7 d9be 2f48 983f 8505 d4be 761e 803f
00000070: 7eb1 e6bb d861 093e 4244 f6bd 93db 37be
00000080: 000a ccbd 4706 af3d 8017 a4bd bf46 cbbd
00000090: 1138 31be 6d24 793e 58b6 a5bd 5593 ae3b
000000a0: de4e 023e 8596 4bbd 4bf9 90bd ec23 493e
000000b0: 1d4b 503e 3b1d b13c 63b4 09be 5677 db3e
000000c0: a81d a33d c65e 543d 7315 9abd e3da 36be
000000d0: c3d1 e93d 842d 86be 78d4 d33b 89b6 4a3e
000000e0: 2202 0c3e 53f6 e43d b8f8 43bd 8df0 6abc
000000f0: 0da8 7cbe 17a2 ab3f a35a 83bd e6c1 213e
00000100: 35cc 9bbd 8282 52be e254 c73d bac6 133e
00000110: 717f 32bd 9daf 923d 4481 20be f4ac 723f
00000120: a81f eebd d09f 193d 8815 7bbd 1cfd e9bc
00000130: 927d 06be 7b3a cf3c 9aa9 21be a1da adbd
00000140: 273e 7cbe 3a7a 9c3f 7af9 643b 54d1 86bd
00000150: 1298 fb3d 5b7f 8d3d 907e 7a3e 7947 9bbd
00000160: e6aa 56bd 7be1 87bd 2dcd 3cbe b38b 093f
00000170: 7a85 483e 3f07 493e 0bcf c6bc 1e37 ec3c
00000180: aa1d e5bd d35c ca3e 958c 9d3d 3bcd 1cbe
00000190: 8f2a 89be 9e62 193d a111 173d f17e 913d
000001a0: 0de0 7cbe b011 8a3e caf6 4dbe 333d 043e
000001b0: 45ca f23d 2c60 99bd 0819 583d 0e12 493e
000001c0: 3c80 d93d 2926 ab3d 0bb7 60be 2371 b53e
000001d0: 1bbe d53d b5db 443d f9aa 54be 6718 8b3f
000001e0: f905 00be 3c79 8e3c b786 9abd 4c94 6bbe
000001f0: 2dc8 36be b33a d43d 744c c5bc 1717 08ba
-0.353586 1.0415144 -0.20525831 0.28155884 -0.26472706 0.79055405 0.04184474 0.13042049
-0.16560113 1.1320875 -0.08732422 0.67946094 -0.06599768 0.26625136 0.121044286 0.070669234
0.24320637 -0.03629466 -0.13213383 0.30749002 0.22539379 -0.29641873 -0.21959051 0.20045458
-0.42559418 1.1897029 -0.4141046 1.0009296 -0.0070402017 0.1341623 -0.12024738 -0.17954855
-0.09962845 0.08546119 -0.08012295 -0.09925603 -0.17306544 0.24330302 -0.0809142 0.005327622
0.12725398 -0.049704093 -0.07078799 0.1964261 0.20341153 0.021620383 -0.13447718 0.42864484
0.07964641 0.051848195 -0.07523622 -0.17856936 0.11416962 -0.262066 0.0064645372 0.19796194
0.13672689 0.11179795 -0.04784462 -0.014339578 -0.24673481 1.3408841 -0.06413772 0.15796623
-0.07607309 -0.20557597 0.09732987 0.14431277 -0.04357857 0.07162402 -0.15674311 0.94795156
-0.11627132 0.037505925 -0.06129983 -0.028563075 -0.13133839 0.02529644 -0.15787354 -0.08488966
-0.24633084 1.22248 0.0034938739 -0.06582895 0.122848645 0.06909057 0.24462342 -0.07581992
-0.052409075 -0.06634804 -0.18437643 0.5372879 0.19582167 0.1963167 -0.024268648 0.028834876
-0.111872986 0.39523944 0.076928295 -0.15312664 -0.26790282 0.037447564 0.036882047 0.0710429
-0.24694844 0.2696662 -0.20113674 0.1291397 0.11854986 -0.074890465 0.052758247 0.19635794
0.10620162 0.08356888 -0.21944825 0.3543788 0.1043665 0.04806109 -0.20768346 1.0866822
-0.12502278 0.017391793 -0.07545226 -0.2300579 -0.17849799 0.103627585 -0.024084307 -0.0005191429

std.constant14 f4 [64, 2]
00000000: fce2 dbbe af06 773f 5208 1abe f5fa f43e
00000010: 3dbc 97be b08e 0c3f c0bb ec3c 62b5 173e
00000020: 4a18 e2bd 7f70 5d3f f36a 88be 0c50 433f
00000030: ba99 dabd 04c9 8f3e 21ae 653e 40d6 ef3e
00000040: 27c6 37bd 458e b03e 731e 70be a4ed 9a3e
00000050: f890 9e3c cc3e 023d 34db 74be 6aad 943e
00000060: ba4e 0dbe ae94 7b3f 9b97 14be 8e79 573f
00000070: 8241 b9bc ef04 9c3e 3a3a 58bd 7809 bebd
00000080: ea5f 1c3e 9e7c 303e 85fb 163e a2f2 623e
00000090: b63e 9cbd eaff c93d 49e8 39be 51be 1cbd
000000a0: 4e71 b13d 281a 193e cc36 5dbe c53a 873e
000000b0: 6627 ac3c bd45 1abc 4dba 20be 6d67 a03e
000000c0: cfd1 1fbd 0670 2dbe b6ed 273e 1456 103e
000000d0: 5296 8abd 3916 363d 049f e7bd f999 e63d
000000e0: 08c8 5b3d 3e53 ca3e ff78 473c 8dc9 d23e
000000f0: 1f89 49be 696b 673f 41d8 25bd 6703 7f3e
00000100: cd05 c83d 8cec acbb 6b28 01be 3325 923e
00000110: fcd2 08be 964a e8bc 136b 4ebe 1bc7 133f
00000120: 9cfc a5bd 358a c3bd 1339 0bbe 935e 053e
00000130: 6201 0fbe c416 5d3e 8ac9 cfbd bde7 763e
00000140: e9a8 e6bd 67c0 4f3f 85ab 8bbd 7478 a9bc
00000150: b610 5dbd 1017 6dbc 2ec2 a2bc 73f9 be3e
00000160: 402d dbbd 6d21 7c3d ac33 14be e41e c33e
00000170: 1536 bdbd edaf 973e ea44 08bd 9811 073e
00000180: 304d 98be 4efc be3e a183 3f3d 4ab6 883d
00000190: ae5e 4f3d 18b5 2f3e 27c7 b3bd 9e23 bc3e
000001a0: 91b0 d7be 01fd 3e3f a014 37bd 1200 2f3d
000001b0: 38b4 033e a945 5e3e 876f 7c3d 5ece 013f
000001c0: 7960 bc3d 1ea6 b33e 7480 f3bd c3b4 4a3e
000001d0: 1f4c 63bd dfe0 5d3e 8105 7dbe ec51 553f
000001e0: 4eca e13d 88e1 2a3d 19b9 8bbd 15eb 8b3c
000001f0: 6106 a43d 1ddc 823e 1ea2 d33d c4a3 983c
-0.42946613 0.96494573 -0.15042236 0.47847715 -0.29635802 0.54905224 0.02889812 0.14815286
-0.11039789 0.8649978 -0.26644096 0.76294017 -0.10673852 0.2808305 0.22429706 0.46843147
-0.044866707 0.34483543 -0.23449115 0.3025943 0.019356236 0.03179817 -0.23911744 0.29038554
-0.13799563 0.9827374 -0.14510958 0.8416985 -0.022614244 0.30472514 -0.052789904 -0.0927915
0.15270963 0.17235038 0.14744385 0.2216287 -0.07629149 0.09863265 -0.18155016 -0.038267437
0.08664189 0.14951384 -0.21602935 0.26412025 0.02101488 -0.009416041 -0.15696068 0.31328908
-0.03901845 -0.16937265 0.16399273 0.14095336 -0.067669526 0.044454787 -0.11309627 0.11259837
0.05365756 0.39516634 0.012174844 0.41169396 -0.19681214 0.9039827 -0.04048944 0.24903642
0.097667314 -0.005277222 -0.12613074 0.28544006 -0.13361734 -0.028355878 -0.20158033 0.57725686
-0.08104822 -0.09547845 -0.13595991 0.13024358 -0.13965371 0.21590716 -0.101458624 0.24111839
-0.11262686 0.8115296 -0.06819824 -0.02068732 -0.053971015 -0.014470831 -0.019867983 0.3729969
-0.1070199 0.061555315 -0.14472836 0.38109505 -0.09238831 0.29626408 -0.033268847 0.13190305
-0.2974639 0.37301868 0.04675639 0.06675394 0.050627403 0.17158926 -0.0877822 0.36745924
-0.42126897 0.74604803 -0.044697404 0.042724676 0.12861717 0.2170626 0.0616298 0.50705516
0.09198088 0.35087675 -0.11889735 0.19795518 -0.055492517 0.21667813 -0.24709131 0.8332813
0.11024915 0.04171899 -0.06822414 0.01707987 0.08009029 0.25558558 0.10333656 0.018632777

sequential_2/dense_2/MatMul1 f4 [18, 64]
00000000: a82b e9be 001f 7bbe 3a71 e1be 55d4 293f
00000010: 2cfd b8bd 5b92 83bd e141 013f 2393 82bf
00000020: 6572 4e3f c5fe ef3d 096a 5d3f f161 82be
00000030: 867c 4bbe 81b1 fe3e f86d 00bf 8e9c 24bf
00000040: f502 12bf c4f5 903f 5b08 1b3f ca91 ec3e
00000050: 0309 0e3f 37ef a7bd 37ca dabe 5558 c2bc
00000060: 8fcd e63e 0ec7 41be e28f 773f 45da e6be
00000070: 93cf 85bf 2132 ef3e a248 cb3e 78a4 17bf
00000080: 5aa7 21bf 922f 513e 86f6 cabf 8de8 c03e
00000090: bf91 ff3e b3e6 37bf b7a3 933e f63e 8fbe
000000a0: 524a 823e 98ba 6a3f 098d e73f c531 b93d
000000b0: cbb7 bc3f 0a18 d9bd ee04 053f d083 5fbd
000000c0: 0c02 8bbe 480a 143f 2d3d 4fbe 888d 18bf
000000d0: 6712 febe cd16 98be 427a 8ebf 218f eb3e
000000e0: 168c 16bf a822 b93e 40d8 c83e c1c6 e13e
000000f0: c270 86be b68a 06bf 14ce 81bf fe6e 063f
00000100: 346e f43f 48bc dbbf 1f5c d33f bb19 cc3f
00000110: ef6a ed3f 055f f53f 680a e13f 3ce8 dfbf
00000120: bf36 d2bf 6240 d53f e4d4 00c0 c992 d6bf
00000130: 7373 fd3f bd50 f2bf e864 d2bf 85ff babf
00000140: db9e c3bf 897e dfbf 81cf b13f e0e6 dd3f
00000150: f1b2 b63f 4dfa eabf 931f a9bf 3b2b e3bf
00000160: fc88 b83f 9007 cebf 0c4d cebf 9920 a7bf
00000170: ba25 c1bf a829 e43f 84ec dcbf 6289 b1bf
00000180: a601 e8bf 8607 e43f 79a5 ad3f 0c13 dbbf
00000190: 4176 a83f 6d46 cbbf cf43 c23f ed17 cbbf
000001a0: cbec e9bf f48a c83f c54e b0bf a5ed d43f
000001b0: 7836 f6bf 9d66 efbf 023f e43f 6c3f b8bf
000001c0: bbb7 e13f 977f aa3f 42e7 cabf 3671 d7bf
000001d0: aa8e cd3f 6b68 eabf 9764 b0bf 2fa6 c93f
000001e0: 1263 cdbf a32b f83f 59bc c63f 0c9d eabf
000001f0: 8f2a c1bf 0847 bbbf 70d2 e43f a202 d63f
00000200: f560 b0be 7703 95be cb0d cebe f8b3 b83e
00000210: 8bc0 5dbe 2019 163e e30f e43d bdcc 77bf
00000220: 80f9 6a3f f245 2f3e effe 223f 8cd1 97be
00000230: 8f82 0fbd 63b6 f33e 07e1 12be 19ce 27bf
00000240: 284e edbe 11f6 813f eefe b43e ce06 663e
00000250: 4e16 8c3e 8cf2 19be df02 e8be 9e0c 5d3e
00000260: 0316 043f 47bd 01bf 94db 993f 0680 1dbf
00000270: 439c afbf e30a 713e 51c3 a83e fcd5 10bf
00000280: d05a 99be b6a7 bc3e e3b4 e7bf 363d ca3e
00000290: 9ac9 2c3f 0b10 91be 327f 9d3e 8fde 12bf
000002a0: e913 a03e 93c8 883f 1fec d03f eec3 df3e
000002b0: 2651 b63f 6d3a 91be 7e74 363e a6de dabe
000002c0: 5157 c73d 33d1 d13e f31a 99be 2489 82be
000002d0: 52ef c7be 5814 1ebf 1d62 74bf 0a38 7c3e
000002e0: 189b 2bbf bfcb 6fbd 8439 fd3e 4cd1 a23e
000002f0: 0382 15bf eef5 f6be 8012 afbf d2fd 3b3f
00000300: 2a63 c53f 57b3 d2bf 6bdd ea3f 35d1 e33f
00000310: c899 d43f bf8d f03f 8c16 bd3f 843d c5bf
00000320: b622 05c0 3bcb e53f 6de6 dcbf e09c cdbf
00000330: f1b9 0140 422f e1bf 8cd5 d4bf 8ae4 b3bf
00000340: 2b4b cbbf 12b4 f0bf afbd e13f fdb6 d33f
00000350: 5339 c23f ca1e f3bf 5c97 d3bf cda5 c4bf
00000360: b34b b33f ef36 dfbf be25 c4bf bca8 e1bf
00000370: 9033 d2bf b067 e43f 0a43 eebf 5df3 debf
00000380: 0dfc bcbf e21a ad3f 2251 d83f 028c c9bf
00000390: abab ba3f b3d7 c1bf 5b88 d83f 9c0f e7bf
000003a0: e2c5 cdbf 94d6 d53f 5e6e ccbf 8271 e73f
000003b0: 9145 d0bf f4e2 e3bf a1c7 bf3f 1c2d e2bf
000003c0: 9fd8 b83f d343 b33f 26a9 c3bf b33a b7bf
000003d0: 2a7e f13f 73a9 b3bf 41e9 babf 190e bb3f
000003e0: 2fc9 b1bf b06a e33f e633 e43f a691 01c0
000003f0: d667 b5bf 070e ecbf ba0e df3f 92a6 bd3f
-0.4554112 -0.24523544 -0.44031698 0.6633962 -0.09032664 -0.064243995 0.5049115 -1.0201153
0.806433 0.11718515 0.8648992 -0.25465348 -0.1987172 0.497448 -0.501678 -0.64301383
-0.5703576 1.1325002 0.60559624 0.46204978 0.554825 -0.081999235 -0.42732403 -0.02372376
0.45078704 -0.1892359 0.9670392 -0.450884 -1.0453972 0.46717933 0.39703852 -0.59235334
-0.63145983 0.20428303 -1.5856483 0.37677422 0.49915883 -0.71836394 0.28835842 -0.27977723
0.25447327 0.9169097 1.8089916 0.09042696 1.4743589 -0.10600288 0.5196065 -0.054569066
-0.2715 0.5782819 -0.2023818 -0.5959096 -0.49623415 -0.29704896 -1.113106 0.46007636
-0.58807504 0.36159253 0.39227486 0.4409695 -0.26257902 -0.52555406 -1.0141015 0.5251311
1.9096131 -1.7166834 1.6512488 1.5945352 1.8548259 1.9169623 1.7581301 -1.7492747
-1.6422957 1.6660273 -2.0129938 -1.6763545 1.9800857 -1.8930889 -1.6437044 -1.4609228
-1.5282854 -1.746049 1.389145 1.7336082 1.4273359 -1.8357636 -1.3212761 -1.7747568
1.4416804 -1.6096058 -1.6117263 -1.3056823 -1.5089638 1.7825212 -1.7259679 -1.3870051
-1.8125503 1.7814796 1.3566123 -1.7115188 1.3161088 -1.5880867 1.5176944 -1.5866677
-1.8275388 1.5667405 -1.3774039 1.6635023 -1.9235373 -1.870319 1.7831728 -1.4394355
1.7634195 1.3320187 -1.5851824 -1.6831424 1.6059163 -1.8313116 -1.3780698 1.575384
-1.6045859 1.9388317 1.5526229 -1.8329177 -1.5091113 -1.4631052 1.787672 1.6719553
-0.34448972 -0.29104206 -0.40244898 0.36074805 -0.2165548 0.14658022 0.11135843 -0.9679678
0.91786957 0.17116526 0.6367025 -0.2965206 -0.03503662 0.47600088 -0.14343654 -0.65548855
-0.4634869 1.0153219 0.35350746 0.22463533 0.27360767 -0.1503393 -0.4531469 0.21586844
0.5159609 -0.5067944 1.2020135 -0.61523473 -1.3719562 0.23539309 0.32961515 -0.56576514
-0.29952097 0.36846703 -1.8102077 0.39499825 0.6749512 -0.28332552 0.30761105 -0.5737085
0.3126519 1.068621 1.6322058 0.4370417 1.4243515 -0.28364888 0.17817876 -0.42747992
0.09733451 0.4097992 -0.29903373 -0.25495255 -0.39049774 -0.6174979 -0.9546221 0.24630752
-0.6703353 -0.058543917 0.49457943 0.31800306 -0.5840151 -0.48234504 -1.3677521 0.73434174
1.5420887 -1.646098 1.8348821 1.779822 1.660943 1.8793257 1.4772506 -1.5409398
-2.0802436 1.7952646 -1.725782 -1.60635 2.026974 -1.7592547 -1.6627669 -1.405412
-1.5882314 -1.8804953 1.7636012 1.6540219 1.5173744 -1.8993771 -1.6530566 -1.5363098
1.4007477 -1.7438639 -1.5324018 -1.7629619 -1.6421986 1.7844143 -1.8614209 -1.7418019
-1.476442 1.3523829 1.689976 -1.5745852 1.4583639 -1.5143951 1.6916612 -1.8051639
-1.6076014 1.6706109 -1.5971181 1.8081515 -1.627123 -1.7803636 1.4982797 -1.7670016
1.4441108 1.4005073 -1.5285995 -1.4314789 1.8866627 -1.4036087 -1.4602433 1.4613677
-1.3889521 1.7766933 1.7828338 -2.0245147 -1.4172313 -1.8441781 1.7426369 1.4816458
