Homework2/ex1/PQT_mlp_V( a_alpha=0.03 ).tflite (tflite, 2528 bytes, 6 tensors)

Output_layes/bias f4 [6]
0	0x4045d0df	3.0908735
1	0x4020c65a	2.5121064
2	0x404bab49	3.1823294
3	0x401f181d	2.4858468
4	0x404bb36b	3.1828258
5	0x402c36c3	2.6908424

Dense2/bias f4 [3]
0	0x4062ccf2	3.5437589
1	0x406c8467	3.6955812
2	0x00000000	0.0

Dense1/bias f4 [3]
0	0x405592fc	3.3370962
1	0x40688e3f	3.633682
2	0xbf0fe422	-0.5620748

sequential/Dense1/MatMul f4 [3, 12]
0	0x3de7c7e0	0.1131742
1	0xbee6ef9a	-0.45104676
2	0x3ed88ea1	0.42296317
3	0xbcfe1c29	-0.031019287
4	0xbf223209	-0.633576
5	0x3ecb9443	0.39761552
6	0xbe7a5436	-0.24446186
7	0xbf020bee	-0.50799453
8	0x3ea93f6c	0.330562
9	0x3eea213d	0.45728484
10	0xbf5f7456	-0.8728689
11	0x3f07469e	0.5284213
12	0x3dacf82d	0.08445773
13	0x3eb9cae7	0.36287615
14	0x3ecd90f6	0.4014966
15	0xbe5103ad	-0.20411558
16	0x3df67539	0.12034077
17	0xbdc90d60	-0.09817004
18	0x3f102c26	0.56317365
19	0x3e797069	0.24359287
20	0x3e17a7d8	0.14810121
21	0x3f264215	0.64944583
22	0xbd3046b9	-0.043036196
23	0x3f47fcac	0.7811992
24	0x3eee47a4	0.46539032
25	0x3e95eede	0.29283804
26	0xbe8911b3	-0.26771316
27	0x3cf57682	0.029963735
28	0x3e47ebd1	0.1952355
29	0xbf252c6d	-0.64520913
30	0xbf060044	-0.52344155
31	0x3e9988cf	0.2998719
32	0x3db8a099	0.090150066
33	0x3e1afa64	0.15134579
34	0x3d3da5d7	0.046300735
35	0x3e2d6d80	0.16936302

sequential/Dense2/MatMul f4 [3, 3]
0	0x3ffd8eb9	1.980918
1	0x3fbbf19a	1.4683106
2	0xbf108550	-0.5645342
3	0x3fdf72bb	1.7456888
4	0x3fe6b949	1.8025295
5	0xbf01b768	-0.5067048
6	0xbf77195c	-0.9652307
7	0xbe7a5c10	-0.24449182
8	0xbed9ee40	-0.42564583

sequential/Output_layes/MatMul f4 [6, 3]
0	0x3ec64ebd	0.38731948
1	0x3ed60ab7	0.4180505
2	0x3f1baff2	0.60815346
3	0x3ffde0a0	1.9834175
4	0x4021c877	2.5278604
5	0xbf262499	-0.64899594
6	0x3f05e9c7	0.5230984
7	0x3e9097e7	0.28240892
8	0x3de410e8	0.11136037
9	0x3ff2ffbc	1.8984294
10	0x4026c67c	2.6058645
11	0xbecd722b	-0.40126166
12	0xbaf6a6e6	-0.001881805
13	0x3f49c4a1	0.78815657
14	0x3ebc71b0	0.36805487
15	0x40183ebc	2.378829
16	0x40098d64	2.1492548
17	0xbd195060	-0.037430167
