Homework2/ex1/WAPQT_mlp_V( a_alpha=0.03 ).tflite (tflite, 3896 bytes, 3 tensors)

sequential_2/Dense1/MatMul i1 [3, 12] scale=0.0071377433 zero_point=0
0	0x04	0.028550973
1	0xbb	-0.4925043
2	0x30	0.34261167
3	0xf5	-0.07851518
4	0x9c	-0.7137743
5	0x33	0.3640249
6	0xd3	-0.32119843
7	0xb4	-0.5424685
8	0x25	0.2640965
9	0x39	0.40685138
10	0x81	-0.9064934
11	0x37	0.3925759
12	0x12	0.12847938
13	0x39	0.40685138
14	0x3f	0.44967782
15	0xea	-0.15703036
16	0x18	0.17130584
17	0xfc	-0.028550973
18	0x56	0.61384594
19	0x2d	0.32119843
20	0x1d	0.20699455
21	0x64	0.7137743
22	0x07	0.049964204
23	0x68	0.7423253
24	0x40	0.45681557
25	0x22	0.24268328
26	0xd9	-0.278372
27	0xfe	-0.014275487
28	0x1b	0.19271907
29	0xa1	-0.6780856
30	0xb6	-0.528193
31	0x26	0.27123424
32	0x0b	0.07851518
33	0x1a	0.18558133
34	0x05	0.035688717
35	0x1c	0.19985682

sequential_2/Dense2/MatMul i1 [3, 3] scale=0.015232737 zero_point=0
0	0x7f	1.9345577
1	0x67	1.5689719
2	0xd5	-0.6550077
3	0x74	1.7669975
4	0x73	1.7517648
5	0xd9	-0.59407675
6	0xc1	-0.95966244
7	0xf0	-0.2437238
8	0xe4	-0.42651665

sequential_2/Output_layes/MatMul i1 [6, 3] scale=0.020845866 zero_point=0
0	0x14	0.41691732
1	0x13	0.39607146
2	0x1d	0.6045301
3	0x61	2.022049
4	0x7b	2.5640416
5	0xe1	-0.6462218
6	0x1b	0.5628384
7	0x0d	0.27099624
8	0x05	0.10422933
9	0x5d	1.9386655
10	0x7f	2.647425
11	0xed	-0.39607146
12	0x02	0.04169173
13	0x25	0.77129704
14	0x12	0.37522557
15	0x74	2.4181204
16	0x68	2.16797
17	0xfe	-0.04169173
