Lab3/LSTM.tflite (tflite, 72060 bytes, 13 tensors)

std.constant3 f4 [64, 64]
00000000: c960 3bbe 7396 663e 1c4a 58be df48 67be
00000010: 8ab4 1f3e 02ce 5a3e 9a6a a1be fb40 6d3d
00000020: 4973 ab3d b963 173e 7d6f 82bd 384e 4d3e
00000030: fa28 763e ef21 843e 1bc4 803e 71d8 83bd
00000040: f2fb 16be 8cea 8bbe 2d5c f2bd ac6c 333d
00000050: 8597 79be 7886 223e 4cf8 3cbe ef73 30be
00000060: 5815 10be a764 87be 3365 4ebc f060 67bd
00000070: 71d4 cb3d f0f5 623e 97f7 313e bd2b a23d
00000080: 3d17 d0bd deae e53d e30e 9f3d efda 4ebe
00000090: d7be e1bd bf67 56be 3229 9fbd c83c 983e
000000a0: 19e0 d23d b43d 9e3e 5f03 28be ea92 d1bd
000000b0: 1d7c 20be 0ad8 21be c840 8fbe c51d 213e
000000c0: 3f0c 953e 2564 d33d ecea 5b3e b0a5 46be
000000d0: eb5d 59be 4da6 983c 255b 573e ec5d 303e
000000e0: f576 21be e57b ab3d 6f23 eebd 358e f73d
000000f0: c7e5 0e3c 9a3d 13be c346 16bd d0b4 36be
00000100: 4375 46be 9389 483e 032d 84be ed41 2fbe
00000110: ddaa 8f3d bdcc 273d f956 17be 05e2 013d
00000120: ffb1 b13d 0c3a c2bc 6ae4 94bd e072 0a3e
00000130: 4566 133e 6de8 fc3d 8fc9 7c3e 8bc0 49be
00000140: 1edc 4dbe c18d de3c 7504 88be e025 dcbd
00000150: a93f 81be 36b1 323d 438c 01be f0bb 07be
00000160: e74c d7bd 07f1 20be caf4 873d 8546 69bd
00000170: cb21 0fbd bac7 0cbc 4851 283e 8a5b 303e
00000180: 3b8f 85bd 2961 31bd 1128 debd f2c6 1dbe
00000190: 3305 4abd 7363 fabd 155e 4bbd 7602 463e
000001a0: 36f7 8e3d 5468 6c3e 24c7 0a3d 7c6d 62be
000001b0: 2940 1cbe 2208 32be 6f27 07be d1ec 5d3e
000001c0: d915 153d d2fe ed3d b8a3 803e a82c f6bd
000001d0: be2c 2ebe 45ce c33d 1e52 7e3d f90b da3d
000001e0: 0d04 1e3d 1801 d83d d318 41bd dbfe 3e3e
000001f0: 8a97 5d3e 577b 02bd f827 b2bd fd14 05bd
00000200: 6d3e d7bd ec50 463e 0211 53be df9b 83be
00000210: 79a0 853e 7c9a e53d da9a 7abe b0a5 af3d
00000220: 6728 143e eed7 b93c 9a80 0cbe 30a9 343e
00000230: b36c 593e 7140 8d3e 5e6c 4d3e ec16 38be
00000240: a314 7abe df4b 69be 63c1 95be 91d4 a53e
00000250: 68b9 a3be 0aa9 d73d e89d 47be bd34 12be
00000260: fbd1 bfbd 3ad0 7ebe 19fe 0fbe a549 c3bd
00000270: 3e37 4f3e 82b8 c63d 8f99 253e cebe 0b3e
00000280: 1661 00be 0912 d73d 38ef 663e 1037 e7bd
00000290: b937 16be dc4a 25be 831d f1bd 9305 463e
000002a0: b2b2 463e 4bb9 6c3e b7a0 53be 9106 47be
000002b0: b520 c5be 93ac 05be 8ee0 4cbe 8626 453e
000002c0: 0d4b 233e c2e2 a93e 77f4 8a3e f4fa febd
000002d0: 937b dbbd a4d7 22be e297 b43d 0883 343e
000002e0: a8ed 09be 2603 363e f9f0 fcbd b30b a03e
000002f0: 0d91 753e 5c07 1bbe 6077 3abe 3a55 6bbe
00000300: d7e0 6ebe 6d58 883e b8d5 cdbe fe9f 35be
00000310: 7604 553d 8bf5 783b fcc9 8fbe 3971 293e
00000320: 5372 2b3e 2ddb 9a3d a751 703d 81cc e63d
00000330: d8e1 383e eaf4 6e3e cfa2 513e bd41 91be
00000340: 36cc 6bbe fe94 61bd 00c6 8abe 8a98 a33e
00000350: b2c7 20be 2388 cd39 1ea9 ae3d a6e3 06be
00000360: 483b 2fbe c876 8abe fb32 fdbd 9f92 88bd
00000370: f164 0e3e 3f9d 1b3e f4a4 c53e 7c78 743e
00000380: 034a 09be fba0 db3d 119e 513d 4ac1 31be
00000390: 4f3e 31be 92c1 79be 1271 41bd 96e9 8fbc
000003a0: ea97 d9bc 02ff bd3e 1afd 733d 515b 63be
000003b0: eac9 37be 4759 0cbe 879d 0bbe ddc9 663d
000003c0: 7d0c 2d3e 8b0a 873e a878 b53e b2e1 3fbd
000003d0: ecf4 96be 9e02 d3bd c1b8 093e bb4e 9ebc
000003e0: 9b20 f0bc 15df 003e d158 0fbe 2ba4 d93d
000003f0: 97bc 2e3d 7340 76be 5ed3 f6bd d5dd 80bd
-0.1829864 0.2251833 -0.2112202 -0.22586392 0.15596214 0.21367648 -0.31526643 0.0579233
0.08371598 0.14784135 -0.06368921 0.2004937 0.24039069 0.2580714 0.25149617 -0.06437767
-0.14744547 -0.27327383 -0.118339874 0.04380481 -0.24374206 0.15871608 -0.18454093 -0.17231725
-0.14070642 -0.2644398 -0.01259737 -0.05648893 0.09952629 0.2216413 0.17379604 0.07918499
-0.10160682 0.11214994 0.07766511 -0.20200704 -0.11022728 -0.20938013 -0.07771529 0.29733872
0.102966495 0.3090645 -0.16407536 -0.102331 -0.15672345 -0.15805069 -0.27979112 0.15734012
0.29110906 0.103218354 0.21476334 -0.19399142 -0.21227233 0.018633986 0.21030863 0.17223328
-0.15768035 0.083732404 -0.11627852 0.12087671 0.008721775 -0.14378968 -0.036688577 -0.17842412
-0.1938067 0.1958373 -0.2581559 -0.17114992 0.070150115 0.040966738 -0.14779271 0.03170969
0.08676528 -0.02370932 -0.07270129 0.13520384 0.14394481 0.12349019 0.24686264 -0.19702356
-0.201035 0.027167203 -0.265659 -0.107494116 -0.2524388 0.043626033 -0.12651162 -0.13255286
-0.10512715 -0.15716945 0.06638487 -0.05695202 -0.034944337 -0.00859254 0.16437256 0.1722242
-0.0652146 -0.04330555 -0.10847486 -0.15407923 -0.049321365 -0.12226 -0.04965027 0.19336876
0.069807455 0.23086673 0.03388132 -0.22112077 -0.1525885 -0.17385915 -0.13198636 0.2167237
0.03639779 0.11620869 0.25124907 -0.12020236 -0.17009255 0.09560827 0.06209003 0.10646815
0.038578082 0.105470836 -0.047142815 0.18651907 0.21639839 -0.031855907 -0.0869903 -0.03249072
-0.10509954 0.19366807 -0.20611957 -0.25704858 0.26098993 0.11211106 -0.24473134 0.08576524
0.14468537 0.022685971 -0.13720933 0.17642665 0.21232872 0.27588227 0.2006087 -0.17977494
-0.24421935 -0.22782849 -0.29249105 0.32388738 -0.3197739 0.105302885 -0.1949383 -0.1427793
-0.093662225 -0.2488412 -0.14061774 -0.09535531 0.20235917 0.09703161 0.16171859 0.13647005
-0.12537035 0.10501487 0.22552192 -0.11289799 -0.14669694 -0.16141838 -0.11773207 0.19338064
0.19404104 0.23117559 -0.20666777 -0.19436099 -0.38501516 -0.13054113 -0.20007536 0.19252977
0.15946598 0.33180815 0.27139637 -0.12450209 -0.10716929 -0.15902573 0.08818032 0.1762811
-0.13469565 0.17774639 -0.123506494 0.31258926 0.23981114 -0.15139526 -0.182096 -0.2298173
-0.23327957 0.26629964 -0.40202117 -0.17736813 0.052006207 0.0037988152 -0.2808379 0.16547097
0.1674283 0.07561336 0.05867162 0.11269475 0.18054903 0.23335615 0.20472263 -0.28370467
-0.23027119 -0.05507373 -0.27104187 0.31952316 -0.15701178 0.00039202077 0.0852835 -0.13172778
-0.17112458 -0.27043748 -0.123632394 -0.06668591 0.13905694 0.15196703 0.38602412 0.23874086
-0.1340714 0.10724064 0.051176134 -0.1735889 -0.17308925 -0.24390247 -0.047226973 -0.017567437
-0.026561696 0.37108618 0.05956755 -0.22202803 -0.17948118 -0.13705932 -0.1363431 0.056344856
0.16899295 0.2637523 0.35443616 -0.0468461 -0.29483736 -0.103032336 0.13449384 -0.019324651
-0.029312422 0.12585099 -0.13998725 0.10627016 0.042660322 -0.24048023 -0.12052034 -0.06292311

std.constant4 f4 [64, 64]
00000000: e7d5 0d3e 4679 aabd 8d53 3a3e 0a30 ad3d
00000010: 5ea5 dfbd 5a0a 00be 6d29 a23d 3b68 f7bb
00000020: 98fb fcbd fa01 b6bd 457d 383d 9b46 823c
00000030: dc63 1e3c 3e49 a4bd f1c6 17be d4ed 323e
00000040: 736e 603e 6a69 253e e6a3 023e 6d21 843d
00000050: 34d8 203e e3d2 ccbd 91cb c1bd 2860 02bd
00000060: 6d23 033e 937d 503d 5b2f ac3d 6e86 b138
00000070: c52b db3c 93e2 b6bd af65 92bd 6c09 d7bc
00000080: e121 373e 1143 52be fb70 27be 135e 1abd
00000090: 8ff6 8a3e 1922 593e 143c 12be 4d10 a53c
000000a0: 8040 143b 472a c7bd 35b1 ce3d 339f ca3d
000000b0: 9db0 533e c4f7 483e 6df4 5abd 4752 51bd
000000c0: fe81 a4bd fee9 25be df54 6cbd 6b6d af3d
000000d0: 28d7 cc3d 841e 263c b53e f2bd 88b2 6fbd
000000e0: f020 193e 5982 9abc 91bc 053e 1b02 70be
000000f0: 6c90 e3bd 0099 aa3d 883a d73d bd35 ff3d
00000100: 6bde 13be e27d 0b3e 2d50 7cbe 7cc1 423c
00000110: b79a 043e e40c da3c 1158 26be cdbf 1d3e
00000120: ca17 f93d 2af2 3b3e c8bd 87be 0174 f7bd
00000130: 320a bf3d 3e81 e23d daf5 153e 0a2e 2dbe
00000140: 1684 89bd a2d3 06bc 0db5 a5bd 9382 bf3d
00000150: a471 c63c e7aa 4f3d 9eec 023d 122d 2dbe
00000160: 6a6c 0abe 931c 3abe 3e7d ebbc 2241 bebd
00000170: ea93 cb3d d19f eebc ed2e 103e ccd0 303e
00000180: 84ce d4bd 017f f83c a2e8 ce3d 92b0 3c3c
00000190: 24ca 06be 3b09 34be 29a1 093e 8242 9abd
000001a0: ba90 183e 5ad7 0b3e d9d8 f3bd fbb6 edbd
000001b0: 521b ed3c 78b6 a9bd 40f7 123e 1e09 1fbd
000001c0: dc90 7e3c 6bc8 393e fce3 893d b373 b13d
000001d0: 6a17 f6bd d8d0 39bd 3fa0 6b3d 19a3 7c3c
000001e0: a75a 42bd b45d 1c3e 85e7 35be 5027 483e
000001f0: c221 61bd 71a0 62be 0307 a0bd ffbf b4bb
00000200: 5962 273e 4b9c b0bd 239d 753e 3a06 853e
00000210: 8b2d 2ebe 0098 7abe 1c9a 663e d95b debd
00000220: 0669 a2bd 62fa 92bd 5850 093e 46d7 ba3d
00000230: c1a2 75be 6746 25be b2d2 31be 53c5 9d3d
00000240: 5b14 383e 9e46 593e ead1 d5bc 7fad bcbd
00000250: 3a00 543e 6322 5fbe 9c40 a6bd d603 613e
00000260: e4b4 023e 4a4a 493e ae26 0e3e de73 163e
00000270: 22b3 39be 6a1f 4dbe 498d 93be d8e7 2bbe
00000280: b658 5d3e 0447 d4bd 4b45 3abe 17a8 0ebd
00000290: 5315 ae3e ec0f 563d a889 46be af2c c03d
000002a0: 1a4b 33bd 6bd8 3bbe fd40 333e 11c7 da3d
000002b0: 1abf c93d 2466 2b3e 5c78 023c 7a58 45bd
000002c0: 1fb7 6cbd 259c 53be 1e6a 2fbe eea4 243e
000002d0: 3a54 6c3e efa5 0d3e 0200 60bd cd81 433d
000002e0: 9e2b 223e 6fa4 06be 19fd 1d3e 8eeb 11be
000002f0: 04cc 913c 4093 2d3c 99df f43d 31f0 aa3e
00000300: d425 003e a7c2 b9bd bd7c 463e 6691 a5bd
00000310: 9bcd 0fbe a1be 603d c73a 3f3d 1d46 32be
00000320: a118 19be cb5e 3fbe ea94 db3d 5bd1 6e3e
00000330: 37bc f53c fdcf a9bd 5bf8 5dbe 15b4 2d3e
00000340: 3a49 db3d e0c2 d1bd 5d48 143e d301 753d
00000350: f608 313e 8920 00be 8483 e23b 2b75 753d
00000360: e5ff 493e 0467 833e a9ca 32bb 4219 5fbd
00000370: 24d4 b93b 42c3 82bd ae13 b6be f48e eb38
00000380: eed6 7c3c a9d7 81bd 3b85 023d 58c7 c2bd
00000390: da45 b83d 0e4b cd3d 98cd 66be 6c2c d43d
000003a0: a290 353e 1771 07bd 367f a93c d50a 243e
000003b0: 2c4f 53bc 5ab4 9dbc 210e 1fbe cac0 e23d
000003c0: 5f92 a5bb 049f 2cbe bb1b 2cbd 680b a43d
000003d0: e2bd 4c3e 06f5 283e c736 6cbc 10af 253d
000003e0: df0c 3d3d fd0d 0dbe e936 9d3d 241e 27be
000003f0: 6ed0 cd3d f2cb 953d 1006 85bd 2893 f0bc
0.13851129 -0.08323912 0.18195935 0.08456428 -0.10920213 -0.12503949 0.079180576 -0.007550267
-0.12352675 -0.08887096 0.04504134 0.015902808 0.009667363 -0.08021782 -0.14821984 0.17473537
0.21917133 0.16153494 0.12757835 0.06451688 0.15707475 -0.10001161 -0.09462655 -0.031829983
0.12806483 0.050901007 0.0840747 8.465057e-05 0.02675427 -0.08929934 -0.07148301 -0.02624961
0.17884018 -0.20533396 -0.16351692 -0.037687372 0.27141234 0.21204413 -0.1428073 0.020149374
0.0022621453 -0.09724861 0.10092393 0.09893646 0.20672841 0.19625765 -0.05345576 -0.051103856
-0.080326065 -0.16202542 -0.057698127 0.08565792 0.10001975 0.010139111 -0.11828367 -0.05851987
0.14953971 -0.018860983 0.13060214 -0.23438303 -0.11111531 0.08329964 0.10509211 0.12461422
-0.14440314 0.13622239 -0.2463996 0.011886951 0.12949644 0.026617475 -0.16244532 0.15405197
0.121627405 0.18354097 -0.2651198 -0.12082673 0.093281165 0.11059807 0.14644566 -0.16912094
-0.067146465 -0.008229168 -0.08091173 0.09351077 0.02422411 0.050700095 0.031963937 -0.16911724
-0.13517919 -0.18174963 -0.028746244 -0.09289767 0.09940322 -0.02912894 0.14080401 0.1726715
-0.10390952 0.030333998 0.10102965 0.011516707 -0.13163048 -0.17581646 0.13440384 -0.075322166
0.14898959 0.13656369 -0.11906595 -0.116071664 0.028943691 -0.08286756 0.14352131 -0.038827054
0.015537467 0.1814286 0.06732938 0.08664646 -0.12016185 -0.045365185 0.05752587 0.015419745
-0.047449734 0.1527012 -0.17764099 0.19546247 -0.054963835 -0.22131516 -0.078138374 -0.005516052
0.1634611 -0.086235605 0.23985724 0.25981313 -0.17009561 -0.24472046 0.22519726 -0.10857362
-0.07930188 -0.07176663 0.13409555 0.091230914 -0.23987867 -0.16140138 -0.1736553 0.07703652
0.17976515 0.21218345 -0.026101071 -0.09212779 0.20703211 -0.21790461 -0.08117792 0.2197412
0.12764317 0.19657245 0.13881943 0.14692637 -0.1813474 -0.20031515 -0.2881873 -0.1678766
0.21615872 -0.10365108 -0.18190496 -0.03482827 0.34000644 0.052261278 -0.19388449 0.09383523
-0.043772794 -0.18344276 0.1750526 0.106825 0.09850903 0.16738182 0.007963266 -0.04818008
-0.057791825 -0.20665033 -0.17130324 0.1607854 0.23079005 0.1383283 -0.054687507 0.04773121
0.15836951 -0.13148664 0.1542858 -0.14250013 0.017797478 0.010594189 0.1195671 0.33386377
0.1251443 -0.0907033 0.19383521 -0.08084373 -0.14043276 0.054869298 0.046686914 -0.17409559
-0.14950801 -0.18688504 0.107217625 0.2332205 0.029996974 -0.08291624 -0.21676771 0.16963227
0.10707326 -0.102422476 0.1448073 0.059816193 0.17288575 -0.12512411 0.0069126505 0.059926193
0.19726522 0.25664532 -0.002728144 -0.054467447 0.005671041 -0.06384899 -0.3556189 0.000112323
0.015432103 -0.06339962 0.03186534 -0.09510678 0.08997698 0.10024081 -0.22539365 0.10360035
0.17730954 -0.033066835 0.020690542 0.16019757 -0.012897294 -0.019251037 -0.15532734 0.11071928
-0.005052849 -0.16857535 -0.042018633 0.08009988 0.1999431 0.16499719 -0.014417357 0.040450156
0.046154853 -0.13774867 0.07676489 -0.16320091 0.100495204 0.0731429 -0.06495297 -0.029367045

std.constant5 f4 [64, 64]
00000000: 9b96 71be 9dab 5f3e 62aa 7cbe d39b 89be
00000010: 915f 0e3e ad9c 2c3c 92a8 92be 07c0 243e
00000020: 0a12 633e a877 ab3d e7e5 d5bb 8971 313e
00000030: 7f51 803e ff0e 653e dfdb c63d e142 26be
00000040: 6ec0 16be 57bf 15be 894e 06be ec3c 453e
00000050: 7dc2 60be 96d7 593e a32b 0a3c 2485 b8bd
00000060: 426d 0dbe 4f67 23be ef01 1dbe 1c9e 7dbe
00000070: 4681 393d b1f7 f63d 460f 433e fdcb ac3d
00000080: 0c9a d6bd 068e 1a3e 6198 d83d 07a0 26be
00000090: 7220 8cbe eafc 9abd 3da0 973d 3f37 2f3e
000000a0: 1d4c 06bb d2db ad3d 0f81 2ebe bc9c 83be
000000b0: 4836 e7bd 4695 4fbe 91c8 cdbb 7a31 583e
000000c0: d61d 5b3d b9df 9d3d e02f 7f3e e7bf 45be
000000d0: 563d 2ebe f46a e5bd 7dd9 fd3d 84c7 5a3e
000000e0: fcc6 08be be90 673e 699d 1bbe aca5 503e
000000f0: acc2 343e fdb4 31bd c8a8 3dbe 7f00 54be
00000100: c30f a5be 390b 883e b8c3 6abe a818 ebbd
00000110: f44c 443e bb1b 9bbb 3bf7 d3be 66d4 fe3d
00000120: 5e3b 513e 89bf 693d 53b8 04bd da2a 7d3c
00000130: 06e1 153e 9f06 593e de7b 123e 6d84 39be
00000140: 7507 13be 2614 3cbc e6a5 83be 10db 213e
00000150: d981 47be c811 323e 78c3 59bd 50f8 9b3d
00000160: dda8 08be 52b4 a7be 5f90 7c3c e93f cfbc
00000170: f82d 1e3e c402 d33d 4556 a83e 8651 1e3e
00000180: 848c 55be 4588 ebbb ca71 7a3d 6dab d9bc
00000190: 9448 d5bd 7bf1 80be e474 f1b8 8064 2c3c
000001a0: 04fa 1a3d c882 8b3e b034 273d 08cb 0cbe
000001b0: 330c d0bd 6cbb 2dbd fe29 ae3d ac10 aabd
000001c0: cf07 f13c 343f b83d bb1e c03e aa54 05be
000001d0: f8d5 a3be b1f5 88bc b72b 6dbd 3cfe 0fbd
000001e0: c528 88bc ffd5 a43d 0759 0ebe 0182 4a3e
000001f0: 2c13 dd3c 66c1 4fbe ff00 91bc cb5f 11bd
00000200: ab9d 6ebe f675 3c3e c633 febd 4826 dbbd
00000210: 1a5b a93d daff 0d3e 0bee 87be 1723 843d
00000220: 42a9 493e 37da da3d e131 92ba a7f4 db3c
00000230: c264 ff3c 7a4c 913e ee71 963d 3262 6fbe
00000240: a6bf 17be 5b38 f0bd 6af5 41be cc39 2e3e
00000250: 5f9c 9ebd 6b3b 643e 64e6 87bd c7db d1bd
00000260: 96b3 6ebe 1102 77be 83cd 94bd 6dc4 7f3c
00000270: 1eef ff3d 2ad4 243e 5dfa 7e3e 009d 1a3e
00000280: 6f28 8ebd 9140 653e cff0 1c3d 3b20 3abd
00000290: 9e20 63be d358 d3bd 2677 a83c 53d9 7dbb
000002a0: 603f fe3d bf61 b53e 4968 cabd 2065 5fbe
000002b0: c123 2dbe 514e 2dbe baa6 a33c 94bf a33d
000002c0: 96e9 283e df00 553e afd6 853e 742b 0abc
000002d0: 1ea7 8cbe 79b8 99bd 0d7d 503d d62a 313c
000002e0: c345 86bd fe6a 953e e196 afbd 2c61 4e3e
000002f0: 49a7 3b3e 4803 54be 1ed3 dbbd de5d 45be
00000300: 7598 053e 5aed 2dbb 67bb e5bd 4005 8e3b
00000310: d4c8 aebd 251e bd3c 0ce3 11bd da0d febd
00000320: 2862 7dbd 6711 e9bd b7da cd3d c4fd a23d
00000330: 6107 8abc 6ba9 cf3c dbff 98bd 3dc4 7a3c
00000340: f16c 493d 29c9 f53d 6cc3 90bc 350c 163d
00000350: 4a58 a2bb 80cc 3abc c5a2 c63d 943e 843d
00000360: e85f c43d 6b2b 23bd b0a8 de3d 9f8c a63d
00000370: b0af 99bd 57bd 9ebd d6e7 a7bc 95ed 17be
00000380: 703d c73d e6f1 5cbd 401c c2bd 154a 003e
00000390: c15c 463d a4f5 543d cf65 2e3e f7eb 653d
000003a0: 18fd 33be f327 f339 3f65 df3d f2d3 c53c
000003b0: 0c35 db3d c38f 1c3d b77d 92bd c9e5 1eba
000003c0: cbb6 c3bd eb59 f53c a2a6 9e3d 7486 9dbc
000003d0: fc05 05be d4eb 643d e57a f4bd ad16 583e
000003e0: 9ee4 a03d 3775 f4bd cc31 b03d 4424 50bd
000003f0: 2fe4 293e 3e10 02bc f19f 20be 3ef5 cebc
-0.23592608 0.21842809 -0.24674371 -0.26876697 0.13903643 0.010535401 -0.28644234 0.16088878
0.2217485 0.08372432 -0.0065276506 0.17328466 0.25062177 0.22369002 0.09709906 -0.1623645
-0.14721844 -0.14623772 -0.13115896 0.19261521 -0.21949191 0.21273646 0.008433255 -0.090097696
-0.1381121 -0.15957378 -0.15332769 -0.24767345 0.0452893 0.12058962 0.19048795 0.08437345
-0.10478601 0.1509324 0.10575939 -0.16271983 -0.27368504 -0.07567771 0.0740361 0.17110918
-0.0020492144 0.08489193 -0.1704142 -0.25705516 -0.1128965 -0.20271787 -0.006280013 0.21112624
0.05349525 0.07708687 0.24920607 -0.19311486 -0.17015585 -0.1120204 0.12394998 0.21365172
-0.13357157 0.22613809 -0.15196766 0.20375699 0.17652386 -0.043385495 -0.18521416 -0.20703314
-0.32238588 0.26571062 -0.22926223 -0.11479312 0.1916998 -0.0047335303 -0.4139956 0.124428555
0.20432803 0.057067428 -0.032402348 0.015452111 0.14636621 0.21193932 0.14305064 -0.18116923
-0.14358313 -0.011479413 -0.25712508 0.15806222 -0.19483127 0.17389596 -0.05316493 0.07615721
-0.13345666 -0.3275476 0.01541528 -0.02529903 0.15447223 0.10303262 0.32878318 0.15460786
-0.20854384 -0.0071878755 0.061143674 -0.026571 -0.10414234 -0.25184235 -0.00011513548 0.010522008
0.03783609 0.27248216 0.04082173 -0.13749325 -0.10158577 -0.042415068 0.08504103 -0.08303961
0.029422669 0.0899643 0.37523445 -0.13020578 -0.31999183 -0.016718717 -0.057903018 -0.035154566
-0.016621003 0.08048629 -0.13901149 0.19776155 0.02698668 -0.2028862 -0.01770067 -0.035491746
-0.23302333 0.18404374 -0.12412219 -0.10700661 0.08269329 0.13867131 -0.265488 0.06452005
0.19693473 0.106861524 -0.0011153781 0.026850058 0.031175975 0.2837866 0.07345949 -0.23377302
-0.14819202 -0.11729499 -0.18941274 0.17014235 -0.07744669 0.22288291 -0.066357404 -0.10246997
-0.23310694 -0.24121882 -0.07265761 0.015610796 0.1249678 0.16096559 0.24900194 0.15098953
-0.06941306 0.22387911 0.03831559 -0.045440894 -0.22180411 -0.10319676 0.020564627 -0.0038734272
0.124144316 0.35426137 -0.09883172 -0.2181592 -0.1690817 -0.16924407 0.019976962 0.07995525
0.16495356 0.20801114 0.26140353 -0.008433212 -0.2747125 -0.075058885 0.050900508 0.010813436
-0.06556275 0.2918319 -0.085737 0.20154256 0.18325533 -0.20704377 -0.10733627 -0.19274089
0.13046439 -0.0026539178 -0.11217385 0.004334122 -0.08534399 0.023085663 -0.03561692 -0.12404986
-0.061861187 -0.11380272 0.10051482 0.07958558 -0.016849222 0.02534934 -0.074706756 0.015305576
0.04917616 0.12001259 -0.01767131 0.036632735 -0.0049543725 -0.011401296 0.096990146 0.06457248
0.09588605 -0.03983633 0.10872018 0.0813229 -0.07504213 -0.077509575 -0.02049629 -0.14836724
0.09728515 -0.05394163 -0.094780445 0.1252826 0.0484283 0.051992074 0.17031024 0.056133237
-0.17577016 0.00046378336 0.10907983 0.024148915 0.10703477 0.03822304 -0.071528845 -0.00060614623
-0.09556349 0.029950103 0.077466264 -0.019229151 -0.12990564 0.055888966 -0.11937503 0.211024
0.07856105 -0.119364195 0.08603248 -0.050815836 0.16590951 -0.007938443 -0.15686013 -0.025263425

std.constant6 f4 [64, 64]
00000000: 27d7 7fbe 3881 663e ac8a 2cbe 14c9 7ebe
00000010: c73e 3b3e 3b01 3b3e c99d 3dbe 4546 f2bc
00000020: 3168 3f3e 139d 903d 4690 b83c 44a0 2d3e
00000030: 3646 213e 8105 883e a26e 553e ca68 29bd
00000040: bb90 72be 3fdf 11be 7624 29bd 86f6 423e
00000050: 3440 87be a0b2 093e abf8 33be fada 5abc
00000060: 5d2a 18be cf85 34be da0b 5e3a c977 d13c
00000070: e21e 08bd 1787 3e3e 620b 263e fe20 af3d
00000080: 3dae 22be 4ead 4b3d 9dca 9a3d 6731 b3bd
00000090: e56b 5ebe d37e bdbd 31f9 103e f8ce 2a3d
000000a0: 50ac 69bd 97b2 e83d 5c05 9ebd d8a4 fbbd
000000b0: 073a 3ebe fdd1 b2bd 899f 82bd ac01 5e3e
000000c0: 6672 1e3e 9bd0 493d 0953 f93d 73af a5bd
000000d0: ee5f 9cbd eb59 11be c6ad 233d 2738 e43a
000000e0: 3b1a 3dbe b5d0 8c3d 5928 22be 532e b13d
000000f0: 474d 5a3e 76eb 33ba 18f6 9ebd ec8f 88be
00000100: 25a0 6abe 4faf 1a3e 553c 4ebe 8cb0 08be
00000110: 4ddd d63d 81d6 843b 2583 51be 2369 b83d
00000120: 22af c73d 944a 0e3e ef78 a7bd 9864 933d
00000130: 70f2 003e a521 493e 3f92 553e a18a e9bd
00000140: 5c96 97be bd86 91bd cbae 47be 181a 6c3d
00000150: 73f3 29bd 249a 863d b196 9bbd 3d37 fe3c
00000160: f230 6ebd 8391 68be e229 20bd 8641 46bd
00000170: 88d0 063c 2622 03be cc7a 803e bbff 033e
00000180: 5428 e4bd c403 c33d b8bb 6dbc e2c9 04be
00000190: 03d3 6bbd 0009 5dbd 2a4e 173d 8077 813d
000001a0: 985d 0f3d 39f5 853e 1d3f 71bd fd51 34be
000001b0: e563 c4bc 2dd6 783d e0d8 dd3c 4f7d 2c3e
000001c0: 7c21 d03d 1d64 5d3e 5ee5 ef3d 9079 cfbd
000001d0: 57eb 2ebe f3ae b93d fbae b73d 7a13 113e
000001e0: fea2 6ebd 9925 283e b5e2 0bbd 8ce0 373e
000001f0: 123a a13d 2943 0dbe d8d8 97bd a855 4fbd
00000200: c740 9bbd 47f4 923d e7dc a5be 5828 89be
00000210: 62bc 5a3e 2093 883e f4f7 95be 2895 d83d
00000220: 6bc0 1b3e 753f 903d f7c5 c2bb 40b7 6c3e
00000230: 768c 9e3e eca0 8a3e e1a5 053e 413d aabd
00000240: 5b77 4cbe 93ee 57be b460 92be 213f 953d
00000250: 939d eabd 5db5 3c3e 42ae bcbd a0a8 8dbb
00000260: 03c0 05be 9468 31be 0196 48be f5cf 93bd
00000270: 68fc d23d 60cc 3f3e 777a 593e 1057 163d
00000280: 1fe1 c5bd a129 663c 5b3e 063e 36c7 7cbd
00000290: d1d4 d5bd e5b8 21be 831c 323d 87d4 483e
000002a0: fb83 abbd b0a2 3f3e 1afd 54be 9d67 b3bd
000002b0: 3b5f d5bd 11fd b0bd a518 123d 8473 6b3e
000002c0: 7df0 0a3e 144e 083e 9f87 073e f954 92bc
000002d0: ca98 69be 17c1 f0bd 21b0 553d f8e7 663d
000002e0: bf03 46bd 9372 cf3d 3bd3 bbbd 3cf7 283e
000002f0: baa6 ed3d f2f9 54be 399a dbbd 8546 8fbe
00000300: 5a38 9e3b 6589 ec3d d96f 86bd f630 26bd
00000310: 07ff dabd 721b 5bbd 6eb2 2c3c 35a6 f7bd
00000320: 8dbb 64bd a33e 95bd 361c 673e 6adf 093e
00000330: 4aa8 213e 3680 043e da35 8dbc 3084 923c
00000340: 026e 9e3d d73a 7c3c aa65 cabd ae3c a5bd
00000350: ce1d 1b3d aa4c fcbd 69d6 d6bd 23c0 b53c
00000360: f1e9 fa3b 8b6b 513d 8eab 3e3e 51ea 56bc
00000370: 3b56 763c ae3f 3d3d f3ff 263e bfce 18bd
00000380: 5110 4a3d 1b1e 9ebc 9757 2bbe 0033 083e
00000390: 7ea5 08bd 6cc1 eabc bbe6 79bd 87f7 6c3d
000003a0: dd1c a0be ae7b b2bd 2df7 883d 3dad 9fbd
000003b0: 0ace 903c 387a ea3d 7b27 23be 76a2 a43d
000003c0: 183f 2e3c c708 90bd 6360 b93d bb00 613d
000003d0: 1794 e63c 698e 58bd 0a27 cabd 4218 543e
000003e0: adc4 a6bc 082b 58bd a656 78bd c66c 493d
000003f0: c9a6 a53e a144 573e 78a0 253d e804 92bd
-0.24984418 0.2251023 -0.16849774 -0.24881393 0.18285666 0.18262188 -0.18517222 -0.029574523
0.1869209 0.070612095 0.022529732 0.16955668 0.1574944 0.265667 0.20842984 -0.0413597
-0.23688023 -0.14245318 -0.041294537 0.19039354 -0.2641617 0.13447046 -0.17575328 -0.013357872
-0.1485991 -0.17629169 0.0008470394 0.025569813 -0.033232577 0.1860622 0.1621528 0.08551215
-0.15886779 0.049725823 0.07558177 -0.08749657 -0.21720846 -0.092527054 0.14157559 0.041701287
-0.057049096 0.11362188 -0.07715866 -0.12287301 -0.18576823 -0.08731458 -0.06378085 0.21680325
0.15473327 0.049271207 0.12174041 -0.08090105 -0.07635485 -0.14194457 0.039960645 0.0017411754
-0.18467037 0.06875745 -0.15835704 0.08651414 0.21318541 -0.00068633945 -0.077617824 -0.26672304
-0.22912653 0.15105937 -0.20140202 -0.13348597 0.104914285 0.004053891 -0.20460184 0.09004428
0.09750201 0.13895637 -0.08177363 0.07196921 0.12592483 0.1964174 0.2085657 -0.114033945
-0.29606903 -0.071057774 -0.19500272 0.057642072 -0.041491937 0.06572369 -0.075971015 0.031032199
-0.058152147 -0.22711758 -0.039102443 -0.04840233 0.008228429 -0.12805995 0.25093687 0.12890522
-0.111405045 0.095222026 -0.014510088 -0.12967637 -0.057574283 -0.05396366 0.036939777 0.06321621
0.035001367 0.26163653 -0.05889808 -0.17609401 -0.023973415 0.06075113 0.027080953 0.16844676
0.10162637 0.21620221 0.1171367 -0.10130608 -0.17081963 0.09066572 0.08968922 0.14167586
-0.05826091 0.16420592 -0.03415175 0.17956752 0.07872404 -0.13795151 -0.074144065 -0.050618798
-0.07580715 0.071754985 -0.32395098 -0.26788592 0.21360925 0.26674747 -0.29290736 0.10575324
0.1521012 0.070433535 -0.0059440094 0.2311678 0.30966538 0.270759 0.13051559 -0.083124645
-0.19967405 -0.21087103 -0.28589404 0.072874315 -0.11455836 0.1842856 -0.092129245 -0.00432308
-0.13061528 -0.1732505 -0.19588472 -0.07217399 0.10302049 0.18730307 0.21238123 0.036704123
-0.09662079 0.014048011 0.13109724 -0.06171342 -0.10440982 -0.15793188 0.043484222 0.19612323
-0.08374783 0.18714404 -0.20799676 -0.08759997 -0.104185544 -0.086420186 0.035668034 0.22993284
0.13568301 0.13311034 0.13235329 -0.017862784 -0.2281219 -0.11755579 0.052169923 0.056373566
-0.048343416 0.10129275 -0.091711484 0.16500562 0.11604066 -0.20798472 -0.10722775 -0.2798349
0.004828495 0.115496434 -0.06564302 -0.040574037 -0.10693174 -0.05349297 0.010540588 -0.12092248
-0.055842925 -0.07287338 0.22569355 0.13464132 0.15786853 0.12939534 -0.017237592 0.017885298
0.07735826 0.015394888 -0.09882672 -0.08068214 0.03787022 -0.1231931 -0.10490114 0.022186344
0.0076572825 0.05112795 0.1862013 -0.013117389 0.015035207 0.046203308 0.16308574 -0.037306543
0.049331967 -0.019301465 -0.16732632 0.13300705 -0.03336095 -0.028656684 -0.061011057 0.057853248
-0.3127202 -0.08714996 0.0668777 -0.077967145 0.017676372 0.114490926 -0.1593303 0.080387995
0.01063516 -0.07032924 0.090515874 0.054932337 0.028146787 -0.052870188 -0.09870727 0.20712379
-0.020357454 -0.052775413 -0.06062951 0.049176 0.3235381 0.21022274 0.040436238 -0.07129842

std.constant7 f4 [64]
00000000: b0f9 9d3d 70d9 0b3e 026c 0b3e 27db 773d
00000010: 6ba9 f53d 1820 943d b1fc c33d ff7c 383d
00000020: a9ec dd3d dfd0 823c 90c0 953d bc4e 92bd
00000030: 3b3d a83d 3e22 093e 26eb dc3d 4f77 0d3e
00000040: d6d4 ef3d 7a5b 6e3c 50b6 673d d785 393d
00000050: 6865 1e3e 6168 e13d 2e54 f23c fcf0 c13c
00000060: 6fdf d63d 4040 203e 9b69 59bd ab37 353d
00000070: 8fb2 b3bc 5c14 b93d a815 1f3e 6741 b73d
00000080: d598 613d 1a93 47bd c457 6abb ff79 883d
00000090: f618 9a3d f2bb 053e 6bbf 883a 424d c9ba
000000a0: 5d52 4e3e 4406 813b 70a9 0bbc 0178 fe3d
000000b0: 4122 193e b25d 9a3d 2de4 22bd bb57 263b
000000c0: 90ec 3e3d 2e77 083e 7663 1b3e 60ab 5c3d
000000d0: c36c 093e 3ce8 543a ec10 62bd ba94 9c3b
000000e0: da2a 443d 6597 543d 1bda 013d ad70 123e
000000f0: 8c97 e93b 8ad4 783d 669a bf3c 5bde f93d
0.0771364 0.13657165 0.1361542 0.060511734 0.119952045 0.07232684 0.095696814 0.04504108
0.10836155 0.015968738 0.07312119 -0.07143924 0.08214804 0.13391969 0.107870385 0.13815044
0.11710517 0.014548177 0.05657035 0.045293655 0.15468371 0.11006237 0.029581156 0.02367448
0.10491835 0.1564951 -0.05307923 0.044242542 -0.02193573 0.09037086 0.15535605 0.089480214
0.055077393 -0.04872427 -0.0035757879 0.06663894 0.07524292 0.13059977 0.0010433024 -0.0015358108
0.20148607 0.0039375145 -0.008524284 0.12425233 0.14954473 0.07537402 -0.039768387 0.0025381881
0.046612322 0.13326713 0.1517466 0.053874373 0.13420396 0.0008121764 -0.05519192 0.004778472
0.04789243 0.051902194 0.031702142 0.14300795 0.0071286615 0.060749568 0.023389053 0.12200614

std.constant8 f4 [64]
00000000: aed5 adbd 1fa1 a43d 1629 e8bd c15e dabd
00000010: 689f 08bc ee76 2d3d 2242 173c b5c4 933d
00000020: 054e 6b3d fd13 543c ac63 b73d 3f41 32be
00000030: fb60 f23c 253e fc3d f03b de3d 1254 efbd
00000040: 025c acbd b2c6 92bb 3702 5bbc 687e 08be
00000050: 6a37 6dbd e226 223d 3f87 8d3d 652b 883d
00000060: 2e5b 19bd 51af ddbd b394 103d 9760 00be
00000070: 8198 95bb 7a9e 20bd 2ba3 e33d 91dc 933d
00000080: c567 27bd 42f4 3c3c 3471 003c ab82 e53d
00000090: 4d1f 14bd 8d04 e0bd 7e71 333e 774c 14be
000000a0: 6266 08be 21b2 293b 1456 a3bc f130 c5bd
000000b0: c8df 383d 9e90 0b3d 4fb4 7e3e 7069 efbd
000000c0: 294f a0bd a92f df3d 8644 da3d d15d a33c
000000d0: e128 debd 944d 223d 1d5a 90bb 04a4 1dbe
000000e0: a507 8b3d 0e10 dcbb 812d bcbc 7455 e33d
000000f0: 4bf0 2dbe b36e 7d3d af27 88bd afc6 1ebd
-0.08488022 0.08038544 -0.113359615 -0.10662604 -0.008338787 0.04234975 0.009232076 0.07215253
0.057447452 0.012944219 0.08954558 -0.17407702 0.02958726 0.12316541 0.10851276 -0.11685957
-0.084159866 -0.0044792527 -0.013367227 -0.1332947 -0.057914175 0.039587863 0.06910562 0.06648902
-0.03744047 -0.108244546 0.03529806 -0.12536846 -0.004565299 -0.039213635 0.11115106 0.07219804
-0.040870447 0.011532845 0.00783949 0.112065636 -0.036162663 -0.10938368 0.17523763 -0.14482294
-0.13320306 0.0025893527 -0.019938506 -0.096284755 0.04513529 0.034073465 0.2487347 -0.116900325
-0.078275986 0.10897762 0.10657601 0.019942196 -0.10847641 0.039624766 -0.0044052736 -0.15394598
0.067885675 -0.006715781 -0.022970917 0.11100283 -0.16986196 0.06187315 -0.06648194 -0.0387637

std.constant9 f4 [64]
00000000: bb29 913f 774a 953f 30a1 963f e21e 833f
00000010: 33cc 853f 4a0a 843f 591d 8c3f c7e8 8d3f
00000020: ad9a 8e3f 33cd 853f 7a38 6e3f 5b5a 763f
00000030: 10d3 913f cd6f 983f 7b7b 933f 6529 9a3f
00000040: 25a0 933f e800 6c3f c343 883f e805 813f
00000050: 8922 883f 8a91 903f 1560 833f 9b9c 853f
00000060: b7ce 8d3f 2fda 993f c90e 6a3f 1319 7e3f
00000070: abb4 833f 21c8 7f3f a65c 943f 405c 903f
00000080: e24f 8a3f f25b 773f 98a6 773f a5f5 833f
00000090: cf65 913f b42e 973f 37c4 6d3f d73f 513f
000000a0: 1ee2 883f 1354 803f ca1d 743f e3fa 943f
000000b0: c0f8 783f 0c10 833f f6d8 663f 4a33 4c3f
000000c0: 81bb 7c3f c203 9c3f 27e5 953f bbaf 8c3f
000000d0: 8394 923f f627 813f e769 703f 44c6 5a3f
000000e0: bb62 793f d3c7 873f 01a0 8a3f 028a 943f
000000f0: 054d 6f3f b2bf 5a3f 9041 883f 1692 873f
1.134086 1.166335 1.176794 1.02438 1.0452942 1.031564 1.0946456 1.1086663
1.1140953 1.0453247 0.93054926 0.9623162 1.1392536 1.1909119 1.1522058 1.2043883
1.1533247 0.9218888 1.0645679 1.0079927 1.0635539 1.1294415 1.0263697 1.0438417
1.1078709 1.2019709 0.9142881 0.9925701 1.028951 0.9991475 1.1590774 1.1278152
1.0805628 0.9662467 0.96738577 1.030934 1.1359195 1.1811128 0.92877525 0.81738037
1.0694005 1.0025657 0.95357955 1.1639065 0.9725456 1.0239272 0.90174806 0.7976576
0.9872361 1.2188647 1.1710557 1.0991129 1.1451572 1.009032 0.93911594 0.8545878
0.97416276 1.0607857 1.0830079 1.1604617 0.934769 0.85448754 1.0645008 1.0591457

std.constant10 f4 [64]
00000000: ef03 8f3d 05e1 fc3d 0265 f53d 6d98 263e
00000010: a7e1 073e c0b9 203e fa95 de3d 3c1d d73c
00000020: 2652 a73d 3597 93bc 463d b63b 66ad ba3d
00000030: 1379 d53d ed19 073e aa39 b33d 30ee e93d
00000040: 6cbf ec3d 3448 203d 13b1 873d 46aa 923d
00000050: d6b9 1d3e 37e3 9d3d 8a1d f73d 2c5a 333d
00000060: baf1 893d e2b4 0c3e e84c 6b3c ff51 39bc
00000070: d21e 73bc 666f 0f3e 2dee 003e 7247 3b3d
00000080: e1ce 0c3c bf6e 29bd bf3e a5bc 49ce 973c
00000090: 69aa c63d 6efe e43d 57d1 5cbd 21b6 acbd
000000a0: d46e af3d 20a3 323d f939 a23c 5774 b53d
000000b0: d15d 413e 2dc0 c73d e044 25bd b112 a1bd
000000c0: b5f0 283d c68b f63d 9129 073e 9366 943d
000000d0: fd59 103e 4ffb 03bd dfc7 993c bf7c 5d3b
000000e0: 3451 903c 8b0e 043d be13 613d 88ca dd3d
000000f0: 7874 4d3d bb2f 963c 4bd9 94bc 6b0a fc3d
0.06983172 0.123476066 0.11982156 0.16269083 0.13269673 0.15695858 0.108684495 0.026259057
0.081699654 -0.018016437 0.0055615036 0.091151044 0.10423484 0.13193484 0.08751233 0.11422384
0.11559948 0.03913136 0.06625571 0.07161383 0.15402922 0.077093534 0.12066181 0.043787166
0.06735559 0.13740876 0.014361598 -0.011311053 -0.014838891 0.14007339 0.12590857 0.045722432
0.008594246 -0.04136538 -0.020171521 0.018530982 0.09700472 0.11181341 -0.05391058 -0.08433176
0.08566061 0.0436126 0.019803034 0.08860081 0.18883444 0.097534515 -0.040348887 -0.07864893
0.04124518 0.120383784 0.1319945 0.07246127 0.14096828 -0.03222209 0.018772064 0.0033796278
0.017616846 0.03224043 0.05495047 0.108296454 0.0501599 0.018333307 -0.01817002 0.123066746

std.constant11 f4 [64, 2]
00000000: 49c0 b53b adca 2f3d 1fff edbd 688c 733e
00000010: 9491 e1bd 6a32 eabd 2b45 3bbb 5b46 bfbc
00000020: 04f2 80be 3a03 0b3f f9e5 72be 1585 8e3f
00000030: 3ca3 26be 8296 cd3d ebf4 ddbd 615e a33c
00000040: 823a 10be d4a7 13bc 9fc5 74be 96a3 b53e
00000050: 87d9 073d 7c89 90bc 62d0 2cbc 8547 c1be
00000060: 2718 10be a28e 493f 97f0 fc3d df32 83bd
00000070: d74d 253d 64e3 9e3d 0e94 063e 362f 22bb
00000080: 5a08 36be 128a e63e 900e d7bc 0206 cb3e
00000090: c7cb a33d 1972 9e3e 01e0 5abe 078c 963e
000000a0: 01fd d7bd 04a9 f33e 4b19 97be d167 223f
000000b0: f07c 74bd 376b 98bd 88c2 9bbe c6e0 683f
000000c0: 43c4 59be f9ba 093e 1e66 61bd f6ba 983d
000000d0: 4057 96be de34 313f 9dd6 73bd 95a6 913d
000000e0: 37bc 40be 3ff8 d63e b73b 1bbe 730b 713f
000000f0: 012e 2f3e 800d 053e 7896 15be 107e 773e
00000100: 9a8d 10be 8798 243f fe15 e3bd 3745 b23e
00000110: 4cfb 02be 9707 163f 2c1f 74be 0e82 473f
00000120: 329c a4be 5954 373f 5fa9 963d 2f12 07be
00000130: 7c7a 14be e831 03be c347 c53d 84a1 1ebe
00000140: c983 0abd 86fa 4ebe 4bca 07be dec2 bb3e
00000150: 33e4 7fbe c171 553f 8ebc 05be 076a bbbd
00000160: 4c82 6cbe 182a 073f ee53 90bd 2c68 cd3e
00000170: 184f c53d 061c 84be 99ac 793d be4e 6ebd
00000180: 9e07 2dbe 80bb 863f 9ad6 f2bd 95db 463e
00000190: f840 763d 4bc9 573e 2d18 57be 879d 293f
000001a0: a7ba 053e f008 393e 96f2 05be d00a 8b3e
000001b0: 699f 60bd 70be 903c c810 23bd ea8b 5bbe
000001c0: 8514 61be 916b b63e 5a25 a2bd a238 2b3f
000001d0: 9816 69be 8663 093f 8ad4 58bd 678b a1bd
000001e0: 6229 0cbd 1aa5 2ebe c5ac a33d 8227 2fbe
000001f0: 0666 c2bd 28a5 303e 50a3 2abd ae28 8f3e
0.005546604 0.042917896 -0.11620926 0.2378403 -0.11014095 -0.11435397 -0.0028575163 -0.023348978
-0.25184643 0.543018 -0.2372054 1.1134363 -0.16273206 0.10038473 -0.1083773 0.019942464
-0.14084819 -0.009012181 -0.23903511 0.3547637 0.033166435 -0.017643683 -0.010547729 -0.37749878
-0.14071713 0.78733265 0.12350576 -0.06406187 0.040357437 0.07758215 0.13142416 -0.0024747378
-0.17776623 0.45027214 -0.026252061 0.3965302 0.07997852 0.30946425 -0.21374513 0.29403707
-0.105463035 0.47589886 -0.29511485 0.6343966 -0.059689462 -0.074423246 -0.30421853 0.9096798
-0.21266274 0.1345023 -0.055029027 0.07457535 -0.2936344 0.69221294 -0.059530843 0.07111851
-0.18821798 0.41986272 -0.15159498 0.94158095 0.17107393 0.12993431 -0.1460818 0.24169183
-0.14116517 0.6429524 -0.11088179 0.34818432 -0.12791175 0.5860533 -0.23840016 0.7793282
-0.32150418 0.7161308 0.07356524 -0.1319053 -0.14499849 -0.12812006 0.09632828 -0.15491301
-0.033817086 -0.20212755 -0.13260762 0.3667211 -0.24989395 0.833767 -0.13060209 -0.091510825
-0.2309658 0.52798605 -0.07047258 0.4011854 0.096342266 -0.2580263 0.060955618 -0.058180563
-0.16897437 1.052597 -0.11857338 0.19419701 0.060120553 0.21072881 -0.21005316 0.6625599
0.13059483 0.18069816 -0.1308082 0.27156687 -0.054839525 0.017668933 -0.039810926 -0.21440092
-0.21980484 0.35628942 -0.079172805 0.6688329 -0.22762525 0.53667486 -0.052937068 -0.07887917
-0.034219153 -0.17055169 0.079919375 -0.17104915 -0.09492116 0.17250502 -0.041659653 0.27960724

std.constant12 f4 [64, 2]
00000000: 1114 efbc c322 dcbc eca7 de3d 8b29 48bc
00000010: d357 8dbd f873 f93b 204c aebd 87a3 28be
00000020: b564 8fba 1b6e 083e ed55 433d 4c45 bd3d
00000030: da54 10be 9805 01be 7aa3 43bd bc26 37bd
00000040: ddbc 5cbd 89c8 11be a074 d0bd 0fe0 3abd
00000050: 41e5 87bc 0de1 4fbd 6898 3b3d 67c2 ec3e
00000060: c6e2 293c 2cc2 ac3d 5ac6 b43d 950a 8fba
00000070: a76b 5abd 9e9b 0fbe 90ac b33c 597e 733d
00000080: aa9b c8bd d68a d2bd bfe0 ac3d 0736 3bbe
00000090: 19fe 18be 61c9 8dbb 4fc3 e7bd 7513 4b3d
000000a0: 3c4d 9ebd 8128 ddbd a126 2d3d 81c5 683d
000000b0: ab94 c3bd a3f9 8cbe 4963 ce3d 104a 4abd
000000c0: 98e9 4d3d 2c6b ff3b 6c85 b1bd 8655 47bd
000000d0: 08a2 da3d 540a 34be 12b2 6b3e 9612 36bd
000000e0: da3b 07be 26c3 a9bd f9a3 dbbc e851 ca3d
000000f0: 507f 3b3d 4bde 04be cd6c 9cbd 6f9e dbbd
00000100: 8f3e c83d 6646 11bc 04f3 d2bd 720f b6bb
00000110: 6ec6 b7bd 6989 243e 2145 d63d da44 1ebd
00000120: 9dbc 0abd 3510 d2bd 1e0c df3c d523 dc3d
00000130: 6c82 23be 1598 d3be de60 7a3d 295f 2d3f
00000140: 6fe0 90bd 6eac 07bc 4b33 ca3d 2984 b93c
00000150: 556f 7f3c 8c31 2ebe c805 6dbd 0ce7 e63c
00000160: 5362 8b3b ab5d 06be 3ad1 723d 9154 6dbd
00000170: 98a9 013c 3551 21bf f887 64bc 2a92 1e3f
00000180: e159 8dbd 3565 f53d 3cbd 6e3c cc74 863b
00000190: 5255 0c3e a3cf 4d3d 0fe3 dc3c c0d6 cebc
000001a0: 382a 22be d772 273d 87a9 143e b2b3 d8bc
000001b0: 3b54 b7bd 9325 f63d 6adc 6bbc 2dc3 123f
000001c0: dfdb ea3d bdba d1bd 4c88 fabc afd2 763d
000001d0: 4611 4c3d 4618 86bc 8ad6 003d fa15 e7bd
000001e0: c033 b0bc 9ec5 cf3e 9624 653c b0f2 5c3d
000001f0: 4921 0c3e 3009 eb3d 46f2 e1bc 993d 05be
-0.029184373 -0.026872044 0.10871872 -0.012216936 -0.06901517 0.0076127015 -0.085106134 -0.1646863
-0.0010940047 0.13323252 0.047689367 0.09241733 -0.14094868 -0.1259979 -0.047763325 -0.044714674
-0.05389105 -0.14236654 -0.101784945 -0.045623835 -0.016588809 -0.050751735 0.045799643 0.46242067
0.010369008 0.08435473 0.08826895 -0.0010913188 -0.05332532 -0.14024207 0.02193287 0.059446666
-0.097953156 -0.10280387 0.084413044 -0.18282329 -0.1494068 -0.0043269848 -0.11316549 0.049579103
-0.07729575 -0.10798741 0.042273168 0.05682898 -0.095498405 -0.27534208 0.10077531 -0.049387038
0.0502716 0.0077947583 -0.08668026 -0.048665546 0.10675436 -0.17582065 0.23017147 -0.04445132
-0.13206425 -0.08289175 -0.026811587 0.098789036 0.04577571 -0.12975423 -0.076379396 -0.10723578
0.09777557 -0.008866882 -0.10300258 -0.0055560404 -0.08973394 0.16068043 0.10462404 -0.03863988
-0.033871282 -0.102569975 0.027227458 0.10749022 -0.15967721 -0.41326967 0.061127536 0.6772333
-0.07074057 -0.008280857 0.098730646 0.022646027 0.0155905085 -0.17011088 -0.05786684 0.028186344
0.0042536645 -0.13121669 0.059281565 -0.057941977 0.007913969 -0.6301454 -0.013948433 0.6194178
-0.06901909 0.11982194 0.014571484 0.0041032787 0.13704422 0.050246846 0.026963739 -0.025248885
-0.15836418 0.040881004 0.14517795 -0.026452873 -0.089516126 0.120188855 -0.0143958125 0.57329065
0.11467718 -0.102406956 -0.03058257 0.060259517 0.04982116 -0.016368996 0.0314546 -0.112834886
-0.021509051 0.40580457 0.013985774 0.053942382 0.13684572 0.11476362 -0.027581345 -0.13011779

std.constant13 f4 [64, 2]
00000000: 3744 f6bd 597d 39bd 36fa 263d f616 aebd
00000010: a5fb 063e 0f03 93bd 5e39 34be 9fe5 763f
00000020: 7ef5 07be 5d32 293f 77cc 9f3d 801d 253d
00000030: 6da4 e33d 56e9 493d 167e 603d e1cd 18bd
00000040: 7e64 f03d 4f97 f13c 7059 86be b960 b23e
00000050: 76a1 343e d288 e7bc 7c88 0fbe a452 1fbd
00000060: 2ef4 06be 210f 3c3e 6d47 d3bc f033 513b
00000070: 93c3 a63d 6876 f4bc 9a30 c6bd 0e1f 14be
00000080: e730 8abd 908c 053e e3d8 b0be 3a6c e53e
00000090: 5ee1 c03d 68ef 323d fb54 bc3d d61f 1e3d
000000a0: c020 84bd 2bc1 5d3f 9b18 fbbc b100 1e3e
000000b0: d271 013e 0bd0 91bd 7d30 633d 7afb 813e
000000c0: e190 9f3c 2f6e 703e 1314 54bd 0ecd 0cbe
000000d0: 8c92 d7bd 24b0 943e bf90 68be 96a4 793f
000000e0: 3109 8c3d d913 233e 4428 c3bc dd8f 6a3d
000000f0: a5fd 3d3e 7a0f 263d 8ab4 fbbc 8466 b03d
00000100: ea74 2fbe 4c4e 2f3d e7bf 27be 6105 ff3e
00000110: a34e 09bd 119e 513d e9f1 493d 7e8d 6a3e
00000120: e9bc 0fbe 7247 a43e da2e 82ba 338e 7dbc
00000130: c924 28be 81b5 86be 468d 30be 8c4a 6abe
00000140: 5873 0b3e 6bc8 873d 1cb4 d73d 883e 083e
00000150: 4811 223d 5b3e c63d 3d0e 733e 5694 26be
00000160: bfc2 89bd e151 833e b2dc 83bd 746a aa3e
00000170: 0117 ec3d e0d7 45be 8b81 2bbe 58e8 9dbd
00000180: 9867 663d ed9c 563e 11b0 973d 1227 82bd
00000190: e4e1 3abd 1ffb 04be 76ca 51bd 8ef3 443e
000001a0: 6b8c 0d3e 1bbb cb3c 1f37 bfbd 8513 023e
000001b0: 7604 75be 5a8a 2b3f 7ee9 d7bb 64d0 fabd
000001c0: 7586 25be c046 443f 8427 f3bd bc53 5f3e
000001d0: 9d8d eb3c b5bb 7e3e 2545 093e 8d04 c4bd
000001e0: 949c 50be f03a f6bd e2ce 3abd b275 a6bd
000001f0: 64e5 26be 963b 173c 0119 83be 7bc5 973f
-0.1202473 -0.045285556 0.040765963 -0.08500473 0.13181932 -0.07178318 -0.17600009 0.96444124
-0.13277242 0.66092473 0.078026704 0.040311337 0.11115346 0.049294792 0.054807745 -0.037305716
0.11737917 0.029491095 -0.2624011 0.3483942 0.17639717 -0.028263483 -0.14016908 -0.03889717
-0.13179085 0.18365146 -0.025790894 0.0031921826 0.081427716 -0.029841617 -0.09677239 -0.14464971
-0.06747609 0.13041902 -0.3454047 0.44809133 0.094179854 0.043685347 0.09195896 0.03860458
-0.06451559 0.86622876 -0.030651381 0.15429951 0.12641075 -0.07119759 0.055466164 0.25387174
0.019478263 0.23479532 -0.051776957 -0.13750097 -0.105259985 0.29040635 -0.22711466 0.97516763
0.068376906 0.1592554 -0.023822911 0.057266105 0.18553789 0.040542103 -0.030725736 0.08613303
-0.17134443 0.04279928 -0.16381799 0.4980879 -0.03352226 0.051176134 0.04930297 0.22905537
-0.14036907 0.32085758 -0.0009932176 -0.0154757975 -0.16420282 -0.26310351 -0.17241392 -0.2288
0.13618219 0.066300236 0.105324 0.13305104 0.039567262 0.09679862 0.237359 -0.16267523
-0.06726598 0.25648406 -0.06438579 0.33284342 0.11527825 -0.19320631 -0.16748635 -0.07710332
0.05625114 0.209583 0.07406629 -0.06355108 -0.045625582 -0.1298642 -0.051218472 0.19233534
0.13823096 0.024869492 -0.093366854 0.12702759 -0.23927483 0.6700798 -0.0065891137 -0.122467786
-0.16164573 0.76670456 -0.118727714 0.21809286 0.02875405 0.24876292 0.13405283 -0.095711805
-0.2037223 -0.1202296 -0.045607455 -0.08127917 -0.16298443 0.009230515 -0.25605014 1.1857141

std.constant14 f4 [64, 2]
00000000: 836b 1cbe 1f84 253e b925 c33c 1865 ea3d
00000010: a500 f3bc 9a9d e5bd c507 e8bc 08d6 233f
00000020: 7898 5ebd f9fc 153f e2e5 20be 79d5 c63e
00000030: 85e6 0bbd 59e9 653e 27f6 9e3d be1f 533e
00000040: fb11 5cbd f675 0f3e ba54 08be 60d1 4b3e
00000050: 80dc c53c f872 9cbc d7c2 0fbe 6bf0 5dbd
00000060: 67f6 dc3d cc20 cb3e c63a 253e 7e35 203e
00000070: fdee b63d 6726 e6bd 7539 6ebd 021d a8bd
00000080: 03a8 153e 5863 023e e270 86bc 319c 283f
00000090: cbea 873d 3772 f23c c430 c7bd 9afb ac3d
000000a0: f6b0 33bc 5313 343f 52ee 08be fec4 c93d
000000b0: 9ac4 73be ec93 ac3d 357a 283c d638 f43d
000000c0: e67e cdbd 5cd7 83bd 12d8 ff3d ceb7 383e
000000d0: 968a 9abe dc1d 1b3f 31c1 93be ff4b ff3e
000000e0: 3977 1dbe 1e22 943e 68ff 2b3d d92d 8c3e
000000f0: 3953 ef3d 857a 1f3d cf78 78bd 18db f6bd
00000100: 2dfd ca3a 45f8 313e 7ac9 42be 6f8f d13e
00000110: e302 66bc 1118 fd3c 8db3 d73c adf0 b53d
00000120: d7d3 c8bd 8087 8a3d 9277 cfbd ad9a fb3d
00000130: b5e3 eabc 7d1b 0ebd fbb6 39bc 3e20 b8bd
00000140: 2632 4e3e 69b6 dbbd 509b c43c 1ff7 c43d
00000150: 779b b4bd 2860 6f3e ccc7 da3d 2632 ad3d
00000160: 0fad bbbd 305a d43e e473 8fba fcdd 6e3e
00000170: 418e f23c 079a abbd c4d0 923d ceb5 4abe
00000180: 428a 14be 1514 143e 8590 933c 1756 063e
00000190: 381e 3f3e 8949 ab3d 0f4b 9fbd c29c ab3e
000001a0: 3d51 51bb cecb 013e 4771 033d 3eab d63c
000001b0: 0111 f6bd 369d 153f 7488 313d d717 80be
000001c0: bfc8 6ebd 42a6 413f be94 8dbb ebb1 a43d
000001d0: 84a8 47be e073 ae3e 75e1 03bc 7ff5 04be
000001e0: 2ab9 5a3d f764 83be e950 28be 2d57 d33d
000001f0: 9b12 d03d 3d21 3f3e c039 25bd 3864 2c3f
-0.15275387 0.16163681 0.023821699 0.11445063 -0.029663393 -0.11211701 -0.028324017 0.6399846
-0.054344624 0.5858913 -0.15712693 0.38834742 -0.034155387 0.22452296 0.077617936 0.20617577
-0.053728085 0.14009842 -0.1331357 0.19904089 0.024152994 -0.01909779 -0.14039169 -0.05418436
0.10789185 0.3967346 0.16135702 0.15645406 0.08932302 -0.112377934 -0.058160264 -0.08208658
0.14614873 0.12733209 -0.016411249 0.6586333 0.0663658 0.029595478 -0.09726098 0.08446427
-0.010967484 0.70341986 -0.13372162 0.098520264 -0.23805466 0.08426651 0.010283043 0.11924903
-0.100339696 -0.06437561 0.12492384 0.18038866 -0.30183858 0.60592437 -0.2885833 0.49862668
-0.15377511 0.2893228 0.04199162 0.2737873 0.11685795 0.038935203 -0.060662087 -0.120535076
0.0015486829 0.17379864 -0.1902217 0.40929744 -0.014038774 0.030895265 0.026330734 0.08883796
-0.0980603 0.06764126 -0.10130228 0.122853614 -0.028673032 -0.034694184 -0.01133513 -0.08990525
0.20136318 -0.10728151 0.02399984 0.09617447 -0.08818715 0.23376524 0.106826395 0.08456831
-0.09163868 0.41475058 -0.0010944572 0.23326868 0.029608848 -0.08378988 0.07168725 -0.19795915
-0.14505866 0.14460786 0.018013248 0.13118778 0.18663871 0.08363635 -0.07777988 0.33518034
-0.003193929 0.12675402 0.03209045 0.026204702 -0.12014962 0.5844301 0.043343022 -0.25018188
-0.058296915 0.75644314 -0.00432071 0.08041748 -0.19497877 0.3407278 -0.008049359 -0.12984274
0.053399242 -0.25662968 -0.16437115 0.10319362 0.10159799 0.18665023 -0.040338278 0.6734042

sequential_2/dense_5/MatMul1 f4 [1, 64]
00000000: 4f1d d6bf 74e6 d43f 92dd bebf 9d84 ebbf
00000010: b212 cc3f ab40 e63f 1b0a d9bf da58 d73f
00000020: e5a4 cb3f 90ff c83f abe7 bebf edac cc3f
00000030: b276 eb3f f801 db3f 7e30 dc3f 09ee c0bf
00000040: 3e38 d7bf 011c e6bf 948f d5bf b33b b43f
00000050: 0cff f0bf f9fc c73f affc debf d885 e0bf
00000060: 556d babf b357 ddbf e2f8 e1bf 76da cabf
00000070: 876e b73f f436 c83f e5a2 da3f b26a c73f
00000080: 8729 cbbf e354 cf3f 80ea df3f 6958 c4bf
00000090: f5ae e4bf dfed bebf 3bd6 d0bf c1fd f23f
000000a0: 8830 c33f 1614 d93f 384d e5bf b971 d5bf
000000b0: c6fb babf a70f b7bf 5907 d5bf c748 f03f
000000c0: c346 c53f b30c c93f 61e6 d13f 7320 e9bf
000000d0: c58c dabf 8972 b4bf 23ab e33f dd96 ce3f
000000e0: c5d3 d0bf 7a0a e13f 61ad cfbf 3a7b d93f
000000f0: c82e b43f 87a7 c6bf 3a89 d2bf 93ee ebbf
-1.6727694 1.6632829 -1.4911368 -1.8399845 1.5943205 1.7988485 -1.6956209 1.682399
1.5909697 1.5702991 -1.491445 1.5990273 1.8395598 1.7109976 1.7202299 -1.5072643
-1.6814039 -1.7977296 -1.6684442 1.4080719 -1.8827834 1.5624076 -1.7420863 -1.7540846
-1.4564615 -1.7292389 -1.7654078 -1.5847919 1.4330605 1.564177 1.7080961 1.5579436
-1.5872048 1.619778 1.7493439 -1.5339481 -1.7865893 -1.4916342 -1.6315378 1.898369
1.5249186 1.6959255 -1.791419 -1.667533 -1.4608085 -1.4301652 -1.6642867 1.877221
1.541222 1.5707 1.6398431 -1.8213028 -1.707421 -1.4097453 1.7786602 1.613979
-1.6314627 1.7581322 -1.6224786 1.6990731 1.4076777 -1.5519875 -1.6448128 -1.8432182
