Lab3/MLP.tflite (tflite, 75832 bytes, 6 tensors)

unknown_0 f4 [128]
0.11249662 0.4025111 0.42795557 0.11907305 0.35616037 0.45161593 0.46997437 0.3901588
0.31994316 0.48071983 0.4544645 0.4640979 0.1657025 0.33105212 0.21529669 0.40048406
0.4303928 0.3382306 0.121167846 0.48265138 0.4302086 0.26499557 0.53421843 0.40286872
0.40106198 0.5009962 0.31519434 0.49911934 0.34621826 0.4853642 0.4279914 0.34897202
0.32370773 0.43163723 0.48956096 0.42121017 0.4543496 0.23413229 0.28550825 0.45695364
0.41913694 0.45427665 0.42733848 0.47260472 0.4496491 0.36121213 0.4500701 0.4160212
0.39882952 0.3652204 0.51121706 0.51895213 0.15462197 0.14191686 0.12369369 0.05615461
0.24820653 0.23030189 0.35716677 0.47175363 0.42878047 -0.29388455 0.3316856 -0.01490888
0.20788075 0.09642467 0.48206076 0.4891138 0.2750642 0.058743216 0.27598876 0.07929652
0.45425245 0.42338043 0.098383054 0.48671982 0.48340875 0.22887343 0.3295573 0.3731728
0.5047845 0.33943352 0.36106753 0.42465913 0.4494081 0.3191296 0.41147426 0.45660743
0.44157436 0.49137503 0.23960704 0.4646356 0.4563828 0.49378014 0.4274434 0.4688003
0.47345164 0.36623833 0.39228848 0.44979718 0.26600978 0.4451475 -0.033827454 0.37533924
0.24404334 -0.09965122 0.42195013 0.2339453 0.26062152 0.50043845 0.43010265 0.47152013
0.25300846 0.35303858 0.0066297003 0.0014546589 0.46884525 0.4750602 0.46034244 0.44220352
0.49287337 0.47092113 0.44441697 0.29100686 0.48452273 0.28142816 0.4092069 0.52745986
00000000: a164 e63d ef15 ce3e fe1c db3e 92dc f33d
00000010: a75a b63e 343a e73e 7ba0 f03e e5c2 c73e
00000020: 97cf a33e e920 f63e 92af e83e 3d9e ed3e
00000030: ebad 293e aa7f a93e bc76 5c3e 3f0c cd3e
00000040: 725c dc3e 902c ad3e d926 f83d 151e f73e
00000050: 4d44 dc3e 80ad 873e 8ac2 083f cf44 ce3e
00000060: ff57 cd3e 4941 003f 2761 a13e 928c ff3e
00000070: 8543 b13e a881 f83e b021 db3e 76ac b23e
00000080: 05bd a53e 8eff dc3e bca7 fa3e dca8 d73e
00000090: 83a0 e83e 60c0 6f3e 232e 923e d4f5 e93e
000000a0: 1e99 d63e f396 e83e 1ccc da3e 3ff9 f13e
000000b0: 6838 e63e ccf0 b83e 976f e63e bb00 d53e
000000c0: 6233 cc3e 2bfe ba3e 1fdf 023f 0cda 043f
000000d0: 3955 1e3e a752 113e 1e53 fd3d 6002 663d
000000e0: da29 7e3e 42d4 6b3e 90de b63e b189 f13e
000000f0: 1d89 db3e 0978 96be b2d2 a93e 6044 74bc
00000100: b1de 543e 4c7a c53d abd0 f63e 206d fa3e
00000110: 37d5 8c3e ba9c 703d 664e 8d3e 3766 a23d
00000120: c793 e83e 52c5 d83e 0e7d c93d 5733 f93e
00000130: 5a81 f73e cc5d 6a3e bcbb a83e 8110 bf3e
00000140: 8f39 013f 3bca ad3e d8dd b83e ec6c d93e
00000150: d218 e63e f464 a33e c1ac d23e 73c8 e93e
00000160: 0916 e23e 8295 fb3e 8c5b 753e b8e4 ed3e
00000170: 02ab e93e c0d0 fc3e dcd9 da3e 9806 f03e
00000180: 4168 f23e 9783 bb3e 09da c83e d14b e63e
00000190: 6f32 883e 60ea e33e a88e 0abd 772c c03e
000001a0: 7fe6 793e f015 ccbd d909 d83e 5b8f 6f3e
000001b0: 2f70 853e bc1c 003f 6a36 dc3e 166b f13e
000001c0: 538a 813e 79c1 b43e f53d d93b 41aa be3a
000001d0: 7c0c f03e 173b f33e 01b2 eb3e 8068 e23e
000001e0: e659 fc3e 931c f13e 9f8a e33e dafe 943e
000001f0: 5d13 f83e 5a17 903e 9183 d13e 9c07 073f

unknown_2 f4 [128]
0.026095675 -0.014989229 -0.0347831 0.33006975 -0.01763744 -0.025414752 0.37942708 0.34404534
-0.06574615 -0.012711328 0.39062494 -0.024278084 -0.015935047 0.18741427 -0.012984162 0.33741167
-0.06286756 0.3817263 -0.043481015 -0.018973414 0.2283254 -0.021688525 -0.04375651 -0.023666676
0.39143264 -0.023218663 -0.029993176 0.22823463 -0.012152904 -0.025357852 0.34650254 0.34278834
0.37114343 -0.0397571 0.2128001 0.02078903 0.35276237 0.39955217 0.3903804 0.37535977
0.3755882 0.3706538 0.27344853 -0.019403301 0.3736477 -0.017097872 -0.022892796 0.23843992
-0.017179877 -0.030549843 -0.17649882 0.26955414 0.21916617 0.3568364 -0.019268528 -0.020483805
0.39091927 0.33780342 0.3274338 0.3902642 -0.02593945 -0.11172547 0.38821718 0.4003744
0.35643503 -0.03288467 -0.022328941 0.36236402 -0.044334587 0.38652208 0.3890741 0.34988117
-0.036445618 0.34503353 -0.017447734 0.2942831 -0.052508075 0.37624666 -0.075637475 0.38665277
0.34062597 -0.03530595 -0.033357736 0.33651954 0.3386648 0.3742261 0.35670388 -0.02214534
0.35825205 -0.017093062 -0.091271475 -0.027437305 0.33430076 0.36750987 0.03852787 -0.012462846
0.0 0.31192783 0.36245647 0.38119 0.26373318 0.36318317 0.39237043 0.37413654
0.30371225 0.36906436 -0.01701246 0.08228741 0.09296839 0.33988166 0.36275792 -0.010739272
0.38449094 -0.02508278 0.29039186 -0.0068497234 -0.19340879 0.2923524 0.13141678 -0.032171134
-0.014205745 -0.12266959 -0.03215532 -0.016224295 0.29275772 -0.022390746 0.39072278 0.317928
00000000: 99c6 d53c 6295 75bc b978 0ebd e7fe a83e
00000010: 647c 90bc 9932 d0bc 4444 c23e b626 b03e
00000020: eba5 86bd 2d43 50bc feff c73e d5e2 c6bc
00000030: 378a 82bc 87e9 3f3e 86bb 54bc 39c1 ac3e
00000040: b5c0 80bd a171 c33e 2619 32bd 226e 9bbc
00000050: 22ce 693e 22ac b1bc 073a 33bd 9ee0 c1bc
00000060: dc69 c83e 1135 bebc 40b4 f5bc 57b6 693e
00000070: f91c 47bc 45bb cfbc c868 b13e f481 af3e
00000080: 8306 be3e 57d8 22bd 45e8 593e c14d aa3c
00000090: 459d b43e 1a92 cc3e f1df c73e 282f c03e
000000a0: 194d c03e 56c6 bd3e 7201 8c3e acf3 9ebc
000000b0: c04e bf3e d610 8cbc ac89 bbbc 9829 743e
000000c0: d0bc 8cbc aa43 fabc 1bbc 34be 0003 8a3e
000000d0: 196d 603e 43b3 b63e 08d9 9dbc a7cd a7bc
000000e0: 9226 c83e 92f4 ac3e 67a5 a73e b6d0 c73e
000000f0: f87e d4bc 53d0 e4bd 67c4 c63e e0fd cc3e
00000100: a77e b63e 13b2 06bd 2feb b6bc c787 b93e
00000110: 2f98 35bd 39e6 c53e b834 c73e a023 b33e
00000120: 0048 15bd 3ca8 b03e 8dee 8ebc 46ac 963e
00000130: b512 57bd 67a3 c03e d2e7 9abd 5af7 c53e
00000140: 8766 ae3e f99c 10bd 1fa2 08bd 4a4c ac3e
00000150: 7965 ad3e 909a bf3e e4a1 b63e 256a b5bc
00000160: d06c b73e c006 8cbc 8aec babd 33c4 e0bc
00000170: 7829 ab3e 412a bc3e 66cf 1d3d f730 4cbc
00000180: 0000 0000 01b5 9f3e e593 b93e 562b c33e
00000190: 0908 873e 25f3 b93e c7e4 c83e d38e bf3e
000001a0: 2c80 9b3e 01f6 bc3e b75d 8bbc 4d86 a83d
000001b0: 3666 be3d f804 ae3e 68bb b93e c6f3 2fbc
000001c0: ffdb c43e 677a cdbc 3eae 943e a573 e0bb
000001d0: f40c 46be 37af 953e 1f92 063e e1c5 03bd
000001e0: 37bf 68bc 323a fbbd 4cb5 03bd d0e8 84bc
000001f0: 57e4 953e cc6c b7bc d10c c83e 75c7 a23e

unknown_4 f4 [2]
0.18326558 0.38236308
00000000: f9a9 3b3e 18c5 c33e

sequential_12/dense_24/MatMul;StatefulPartitionedCall/sequential_12/dense_24/MatMul f4 [128, 12]
0.037274014 0.065214396 -0.20886374 0.0031234976 -0.19095771 -0.03536722 0.0276632 0.020910656
-0.27504313 -0.029439695 -0.09892953 0.14723863 -0.08712755 0.013023545 0.10896091 0.16451782
-0.0797611 -0.11677386 0.09867403 -0.09679759 -0.075238764 0.13336429 0.1469585 -0.014368833
0.117063664 -0.062334396 -0.16704145 -0.176124 0.10297193 0.03608534 0.14928976 -0.117073156
-0.19491053 0.15673807 -0.0006117381 0.29960102 -0.10758609 -0.09512186 -0.09760557 0.056991484
-0.103841536 -0.09068931 -0.16492918 0.13749835 -0.15557289 -0.17467149 -0.028637456 0.049895797
0.043120764 -0.13181438 0.010060084 -0.06751166 -0.036583446 -0.122344695 -0.0042701527 0.24794613
-0.14103696 -0.108190455 0.0953216 0.14293022 0.020249978 0.0065840203 0.09392342 -0.20637204
0.117452174 -0.08225126 0.0003668033 0.02934774 0.018413672 0.13736099 -0.2509122 0.31681445
0.15637538 0.04891634 -0.1599356 0.2112881 -0.122573435 -0.15680078 -0.04595102 -0.097726
0.12588914 -0.021400686 0.018523168 0.04916135 -0.13210604 0.10969152 -0.121695235 0.008666282
0.043953918 0.028825948 0.15534712 -0.15512148 0.23609479 -0.1257844 0.30499822 0.17087615
0.20953047 0.026638186 -0.036672052 -0.049336463 -0.14823613 -0.064325854 -0.14808443 0.07282638
0.086036 -0.14097846 -0.076301955 0.18020615 0.21113151 0.035345647 -0.073187254 0.06865739
0.045774635 -0.17413306 -0.19284035 0.008106387 0.020995095 0.15459594 -0.10977867 -0.016916826
-0.105556116 -0.18808156 0.12953894 0.12649642 -0.14778084 0.06440044 0.16657403 0.18217507
0.16968796 -0.11305518 -0.21788543 -0.068703644 0.051779073 0.14116846 -0.16051483 0.17730212
0.19381043 -0.13775678 0.050133817 -0.09173875 -0.05823825 -0.18433963 -0.027183577 0.26786274
0.016291235 -0.056436725 0.20260817 -0.018426383 0.17233153 0.060505003 0.22123368 0.2443468
-0.0077597545 -0.10696764 0.13494888 0.07002692 0.14078102 -0.012334153 -0.07306318 0.017313905
0.15790682 -0.10895296 -0.07581766 0.12641203 -0.16341622 -0.056700468 -0.17473826 0.001790406
-0.082214616 0.07734261 0.038175438 0.14732525 -0.1250762 0.15139471 0.0077850064 0.11907791
0.12652607 0.1622208 0.13627647 0.21136399 -0.06937154 0.07857774 -0.18388705 -0.13136767
0.14074004 -0.11016501 0.012883459 0.078922726 0.03775118 0.002165197 0.23891349 0.07578255
-0.08734155 -0.03297773 -0.18091992 -0.022426985 0.031914238 0.09867377 0.11483445 -0.18710233
-0.042660106 0.20808904 0.12341692 -0.007267524 0.017024038 0.054767888 0.09282103 0.008097808
-0.05026998 -0.16624096 0.10856642 -0.051478457 -0.098764665 0.108236544 -0.19226545 0.09096407
0.12732878 0.081434645 0.1226623 0.085769676 -0.07959555 0.13803151 -0.17506853 -0.119565755
-0.027708571 -0.05429836 -0.008174254 0.031616915 -0.18751037 -0.045436036 -0.19947834 -0.0847286
0.18414316 0.12473004 0.104132436 -0.12025889 0.05057697 -0.042385887 -0.056968454 0.2372725
0.05329397 -0.112232976 -0.07740893 -0.11430709 0.1643435 0.1308024 0.052463047 0.13576251
-0.06640454 0.08521824 0.01514076 -0.040982667 -0.15734889 -0.018976731 0.05824912 0.1578497
00000000: a3ac 183d 208f 853d 60e0 55be 98b3 4c3b
00000010: 6b8a 43be 38dd 10bd ef9d e23c d34c ab3c
00000020: 74d2 8cbe 842b f1bc 919b cabd b9c5 163e
00000030: ee6f b2bd b560 553c e626 df3d 5c77 283e
00000040: ca59 a3bd 2227 efbd 9c15 ca3d d13d c6bd
00000050: c816 9abd a690 083e 4a7c 163e 416b 6bbc
00000060: 13bf ef3d 5a52 7fbd ea0c 2bbe da59 34be
00000070: f2e2 d23d 39ce 133d 6adf 183e 0dc4 efbd
00000080: a096 47be f27f 203e 0d5d 20ba 4e65 993e
00000090: 1956 dcbd 40cf c2bd 6ee5 c7bd e76f 693d
000000a0: dfaa d4bd 51bb b9bd 32e3 28be 5ecc 0c3e
000000b0: 804e 1fbe 15dd 32be 1999 eabc 895f 4c3d
000000c0: 669f 303d 59fa 06be 0dd3 243c 8e43 8abd
000000d0: 86d8 15bd db8f fabd a3ec 8bbb 97e5 7d3e
000000e0: fe6b 10be f592 ddbd f937 c33d 4d5c 123e
000000f0: 48e3 a53c c4be d73b ec5a c03d 3153 53be
00000100: c48a f03d 5973 a8bd 814f c039 ac6a f03c
00000110: 45d8 963c 5ca8 0c3e 9077 80be 8135 a23e
00000120: de20 203e 805c 483d 28c6 23be e85b 583e
00000130: c807 fbbd 6290 20be 2337 3cbd 9224 c8bd
00000140: 15e9 003e 7e50 afbc e6bd 973c 695d 493d
00000150: ce46 07be f3a5 e03d 5a3b f9bd 05fd 0d3c
00000160: 0609 343d 6524 ec3c 5113 1f3e 2ad8 1ebe
00000170: d5c2 713e a0cd 00be ba28 9c3e 28fa 2e3e
00000180: 288f 563e 5338 da3c 6f35 16bd 0815 4abd
00000190: 36cb 17be 46bd 83bd 72a3 17be ff25 953d
000001a0: a433 b03d a85c 10be 3344 9cbd f687 383e
000001b0: dc32 583e 99c6 103d 33e3 95bd 3f9c 8c3d
000001c0: 2f7e 3b3d f04f 32be f177 45be a7d0 043c
000001d0: e8fd ab3c 664e 1e3e a4d3 e0bd 2895 8abc
000001e0: ce2d d8bd 7498 40be dba5 043e 4788 013e
000001f0: dc53 17be 61e4 833d 6292 2a3e 1a8c 3a3e
00000200: aec2 2d3e 7989 e7bd 5c1d 5fbe 7fb4 8cbd
00000210: 4b16 543d 778e 103e 005e 24be b08e 353e
00000220: 3e76 463e 1d10 0dbe 1e59 4d3d 87e1 bbbd
00000230: 3b8b 6ebd 87c3 3cbe 18b0 debc 4e25 893e
00000240: 3275 853c 322a 67bd 8478 4f3e edf2 96bc
00000250: ad77 303e 18d4 773d 158b 623e 0c36 7a3e
00000260: 8a45 febb da11 dbbd 0a30 0a3e 466a 8f3d
00000270: e628 103e 3015 4abc 26a2 95bd e4d5 8d3c
00000280: 53b2 213e bb22 dfbd 4a46 9bbd 2872 013e
00000290: 9556 27be c03e 68bd 96ee 32be 0eac ea3a
000002a0: 2360 a8bd cd65 9e3d d95d 1c3d 6edc 163e
000002b0: fa13 00be 3707 1b3e 5e19 ff3b 1fdf f33d
000002c0: 0d90 013e 361d 263e 0f8c 0b3e cd6f 583e
000002d0: aa12 8ebd 5eed a03d e34c 3cbe 3f85 06be
000002e0: 281e 103e 319e e1bd 2515 533c 3da2 a13d
000002f0: fba0 1a3d fae5 0d3b bda5 743e e233 9b3d
00000300: 20e0 b2bd a813 07bd 1243 39be ccb8 b7bc
00000310: 81b8 023d 7915 ca3d 532e eb3d c197 3fbe
00000320: 5dbc 2ebd 4b15 553e 03c2 fc3d 6924 eebb
00000330: ff75 8b3c 4b54 603d f418 be3d abac 043c
00000340: e5e7 4dbd 123b 2abe 1258 de3d 13db 52bd
00000350: 2145 cabd 1fab dd3d 3ce1 44be 5f4b ba3d
00000360: 7a62 023e 35c7 a63d 5f36 fb3d 03a8 af3d
00000370: fe02 a3bd 2258 0d3e 2a45 33be e4de f4bd
00000380: 16fd e2bc f567 5ebd 4eed 05bc bd80 013d
00000390: b802 40be 231b 3abd 0d44 4cbe 3086 adbd
000003a0: 0690 3c3e 7772 ff3d 6343 d53d 4b4a f6bd
000003b0: cc29 4f3d d39c 2dbd c157 69bd 90f7 723e
000003c0: c74a 5a3d 67da e5bd 9388 9ebd d619 eabd
000003d0: aa49 283e 10f1 053e 7ee3 563d 5405 0b3e
000003e0: 1aff 87bd e786 ae3d f310 783c 71dd 27bd
000003f0: 1120 21be 1775 9bbc a196 6e3d 5aa3 213e

sequential_12/dense_25/MatMul;StatefulPartitionedCall/sequential_12/dense_25/MatMul f4 [128, 128]
0.096240275 -0.08987593 -0.071432576 -0.21051408 -0.027361603 -0.07006866 -0.057854332 0.22569081
-0.13354532 -0.13800234 -0.04172821 -0.018619021 0.009809914 -0.083198726 -0.13259327 0.097539745
0.08336413 -0.20490274 -0.1408873 -0.050569624 -0.06335038 -0.04111983 -0.17685433 0.028869508
0.06603666 -0.04279066 -0.050358213 -0.117960185 -0.12609074 -0.2744147 -0.11653202 -0.015317867
-0.0389755 -0.22535478 -0.13667493 0.07449192 0.05758957 -0.0648687 -0.09914038 -0.017298438
-0.2356631 -0.15963474 -0.036308963 -0.057209834 -0.089547835 -0.12476872 -0.20323995 -0.055363
-0.080315955 -0.16242029 -0.112832546 -0.13135877 0.065029316 -0.2287192 -0.03603718 0.11764085
-0.16362962 -0.025634862 -0.09771533 -0.07171994 -0.187337 0.034253057 -0.2385483 -0.089222394
-0.037781343 -0.20402832 -0.13432734 -0.11370453 0.0066443253 -0.0021778208 -0.24327634 0.15222079
0.042800013 -0.19854295 -0.107115425 0.08476956 -0.20258567 0.115523584 -0.19441985 -0.25228202
-0.1916535 -0.25471988 -0.084807225 0.13946706 -0.059223738 -0.17760432 -0.22972673 -0.098077446
-0.09690323 -0.16494797 -0.11119995 -0.017660609 -0.18753159 0.038361724 0.08415286 0.07968087
-0.27263284 -0.23668027 -0.0022219254 0.14103855 0.046145048 0.1294044 -0.102992214 -0.007315817
-0.15941197 0.16115277 -0.03445286 -0.15813239 -0.012705565 -0.019454513 -0.12678789 -0.41460028
0.09692807 -0.053476773 -0.13022414 -0.07883137 0.0016555019 -0.045405578 0.045783054 0.09291245
-0.10409401 -0.16372773 0.19435185 -0.10259085 -0.31916562 -0.13937569 -0.20993179 -0.05177313
0.11053215 0.14213616 0.03466508 0.027384195 0.1302769 0.11279849 -0.13999633 -0.16336821
0.11175039 0.017215597 -0.1355776 -0.044753075 -0.06676504 0.13973881 -0.02534255 0.0047735865
-0.147 -0.039611313 0.114676535 0.11860545 -0.0712003 -0.046516106 0.034440465 -0.017111627
0.028016567 0.030114865 -0.11703618 -0.024849232 0.029088581 -0.15378615 0.13018791 -0.15388182
0.050166827 0.010308745 -0.17109647 0.080855675 0.12165083 -0.07431347 -0.15741709 0.13813317
-0.0933017 0.082297914 -0.06488303 -0.013477386 -0.040824104 0.044392757 0.030678814 0.13193162
0.1276697 -0.035290692 -0.15275212 -0.073010854 0.028811732 -0.15792617 0.051549666 -0.13429143
-0.038194556 0.027639667 -0.074405424 0.06023274 -0.16396384 0.12485927 -0.016644252 -0.04218555
0.09285727 -0.14822342 -0.06303709 -0.10919474 -0.019063022 -0.07577373 0.069190644 0.05353991
-0.0127187865 0.027748605 -0.08779874 -0.040054034 -0.0494517 0.12270454 0.14071868 0.11126678
0.004960785 -0.15122785 -0.06338432 0.012117047 -0.005551818 -0.047837168 0.120886035 -0.006468948
0.118910685 -0.03457314 -0.033019017 -0.1375076 0.0084783165 -0.17419751 0.06914547 -0.15231119
-0.060975973 -0.057162393 0.03578674 -0.11934378 -0.0069359583 0.059587043 -0.01661267 0.0016420624
0.028137019 0.05013059 0.09878705 -0.09795057 0.07535767 -0.12871534 -0.15070523 -0.1269108
-0.101585574 -0.046246935 -0.1391057 -0.0315678 -0.13675866 0.09461779 0.0019414477 0.080095254
-0.15821944 -0.033658706 0.10565951 0.035049103 -0.066494316 -0.092367224 -0.064348474 0.11311627
00000000: 9f19 c53d df10 b8bd 3e4b 92bd 0191 57be
00000010: 7125 e0bc 2880 8fbd aaf8 6cbd 7e1b 673e
00000020: 1bc0 08be 7c50 0dbe 33eb 2abd eb86 98bc
00000030: c3b9 203c 1864 aabd 88c6 07be ebc2 c73d
00000040: d0ba aa3d 06d2 51be c344 10be 1822 4fbd
00000050: d8bd 81bd 446d 28bd 4d19 35be bf7f ec3c
00000060: 3a3e 873d 4245 2fbd 6a44 4ebd 1c95 f1bd
00000070: ee1d 01be 1580 8cbe 57a8 eebd caf7 7abc
00000080: c6a4 1fbd 67c3 66be 83f4 0bbe 388f 983d
00000090: 0ae3 6b3d e2d9 84bd 1d0a cbbd 74b5 8dbc
000000a0: ab51 71be 4a77 23be b5b8 14bd dc54 6abd
000000b0: db64 b7bd be86 ffbd 221e 50be 50c4 62bd
000000c0: b17c a4bd 8151 26be c014 e7bd ea82 06be
000000d0: 172e 853d 5e35 6abe b99b 13bd b0ed f03d
000000e0: 868e 27be 3400 d2bc fa1e c8bd e7e1 92bd
000000f0: 45d5 3fbe ef4c 0c3d 0146 74be 3bba b6bd
00000100: 9cc0 1abd cdec 50be 1b8d 09be ecdd e8bd
00000110: a4b8 d93b c5b9 0ebb 6f1d 79be c4df 1b3e
00000120: 114f 2f3d d84e 4bbe 555f dbbd aa9b ad3d
00000130: 9e72 4fbe a197 ec3d ff15 47be 1c2b 81be
00000140: d140 44be a56a 82be 69af adbd 74d0 0e3e
00000150: 9794 72bd e8dd 35be 7c3d 6bbe d4dc c8bd
00000160: 3375 c6bd 1fe8 28be cdbc e3bd fbac 90bc
00000170: 4808 40be 2f21 1d3d 5658 ac3d b92f a33d
00000180: 8896 8bbe 505c 72be b99d 11bb 696c 103e
00000190: 9702 3d3d 9682 043e 95ed d2bd 85b9 efbb
000001a0: e43c 23be 3b05 253e 711e 0dbd 75ed 21be
000001b0: 012b 50bc 125f 9fbc afd4 01be 7d46 d4be
000001c0: 3982 c63d 760a 5bbd 7a59 05be 5772 a1bd
000001d0: 6dfd d83a 33fb 39bd 0387 3b3d e248 be3d
000001e0: 3e2f d5bd 3ea8 27be 2c04 473e 271b d2bd
000001f0: ad69 a3be 80b8 0ebe 5cf8 56be 1010 54bd
00000200: ae5e e23d 248c 113e f9fc 0d3d d254 e03c
00000210: 4f67 053e e502 e73d 335b 0fbe ff49 27be
00000220: 63dd e43d b907 8d3c dbd4 0abe 004f 37bd
00000230: 1cbc 88bd b117 0f3e 2e9b cfbc bf6b 9c3b
00000240: 2b87 16be 793f 22bd 88db ea3d 6ae7 f23d
00000250: 76d1 91bd ac87 3ebd 7211 0d3d af2d 8cbc
00000260: 0083 e53c 73b3 f63c aab0 efbd 9e90 cbbc
00000270: 2d4b ee3c 1e7a 1dbe fb4f 053e 3293 1dbe
00000280: bb7b 4d3d 03e6 283c ea33 2fbe a997 a53d
00000290: 1224 f93d a931 98bd f231 21be c872 0d3e
000002a0: f614 bfbd cf8b a83d 65e1 84bd 41d0 5cbc
000002b0: 2d37 27bd 2ed5 353d 2352 fb3c 1519 073e
000002c0: d9bb 023e f98c 10bd 0d6b 1cbe b786 95bd
000002d0: 9506 ec3c 66b7 21be be25 533d b183 09be
000002e0: e571 1cbd 956c e23c df61 98bd 9bb6 763d
000002f0: 23e6 27be 38b6 ff3d 8759 88bc c1ca 2cbd
00000300: f42b be3d e1c7 17be 9719 81bd 7ea1 dfbd
00000310: 0e2a 9cbc 422f 9bbd d3b3 8d3d aa4c 5b3d
00000320: 7562 50bc 0b51 e33c d3cf b3bd b30f 24bd
00000330: de8d 4abd 854c fb3d 8f18 103e d6df e33d
00000340: 158e a23b 79db 1abe a3cf 81bd 9486 463c
00000350: 06ec b5bb e8f0 43bd 1993 f73d 78f9 d3bb
00000360: 7287 f33d 919c 0dbd f33e 07bd cbce 0cbe
00000370: a3e8 0a3c d560 32be 249c 8d3d 77f7 1bbe
00000380: f1c1 79bd 1d23 6abd 1e95 123d 836a f4bd
00000390: 0947 e3bb 8b11 743d 4b17 88bc 793a d73a
000003a0: 9b7f e63c bc55 4d3d dd50 ca3d 4f9a c8bd
000003b0: 1f55 9a3d f4cd 03be 7952 1abe e8f4 01be
000003c0: 190c d0bd 6d6d 3dbd ba71 0ebe 3d4d 01bd
000003d0: 760a 0cbe f9c6 c13d 2d78 fe3a fb08 a43d
000003e0: 4704 22be b6dd 09bd 0364 d83d a68f 0f3d
000003f0: 2c2e 88bd 072b bdbd 22c9 83bd 81a9 e73d

sequential_12/dense_26/MatMul;StatefulPartitionedCall/sequential_12/dense_26/MatMul f4 [2, 128]
0.19928709 0.0127724465 0.08021844 0.21756774 0.033251137 0.046245072 -0.04671969 0.09875988
-0.058896694 -0.056569614 0.0057940455 -0.07147076 -0.051955625 0.20935088 0.1805972 0.14358738
-0.002362687 0.059302583 -0.04003974 0.011394494 -0.123577654 -0.06332756 -0.13712314 -0.059622552
0.012900959 -0.12630247 0.07228378 0.26428372 0.056264475 0.042733412 0.14741498 0.20694616
-0.042148285 0.28785267 -0.21450092 0.24378815 -0.091355816 -0.018776404 0.02168209 -0.044931393
-0.059647385 0.09437797 0.28251782 0.09126319 0.14641066 -0.18232103 -0.07873916 -0.20573336
0.10799504 -0.076012336 0.08381225 -0.14067817 -0.2036397 0.080726296 -0.18726945 -0.03208136
-0.01550421 0.08840269 0.18464658 -0.013480184 -0.16618103 0.21361472 0.060666043 -0.015470962
-0.048904266 -0.18012078 -0.18063696 0.06423635 0.034959704 0.15907036 0.06897969 0.25904566
-0.16764268 0.16303293 -0.14154658 -0.16415943 -0.027725246 0.052543376 -0.038720787 0.051233057
-0.09912604 -0.16070077 0.20775442 -0.1092776 0.19959329 0.043606315 0.0841359 -0.007702339
0.10925487 0.08876938 0.0527815 -0.17508553 -0.09669646 0.25963753 -0.10724606 -0.064218454
-0.13039143 0.20091209 0.033637904 0.085043 -0.18610926 0.24070351 0.0025722047 0.004394309
0.2262149 -0.07312194 -0.06864287 -0.14155269 0.34991258 -0.12741868 0.21224019 0.15293309
0.09325558 0.064322576 0.27456805 0.07261535 -0.21290459 -0.16675344 0.28696594 -0.07749766
-0.19240889 -0.30178177 -0.11535188 0.09877003 -0.14424652 -0.12647736 0.028317621 0.16934392
-0.03923157 -0.16405387 -0.11858871 0.17771308 -0.06561784 -0.16684914 0.23309799 0.12903832
-0.146566 -0.091752715 0.13973327 -0.18924914 -0.15987049 0.035439767 0.0065387907 0.108484045
-0.084267385 0.21632539 -0.09622527 -0.08097303 0.14504094 -0.18670048 -0.15881138 0.10111989
0.2745608 -0.14256093 -0.15292196 0.046218026 -0.16288936 -0.14335412 0.174374 0.2931265
0.28208876 -0.18422619 0.24126971 -0.06623496 0.23807201 0.14642358 0.31062594 0.1954503
0.2895341 0.24795371 0.10443324 -0.11187114 0.3171539 -0.19689809 -0.10763732 0.25978458
-0.11887715 -0.12644589 -0.2981701 0.19094287 0.20781977 0.112244636 -0.10433477 0.026243575
0.26320094 0.13860817 0.14865255 0.28420585 -0.03104922 -0.22262712 0.3047124 0.1663418
0.21792279 -0.084848 -0.13292779 0.15090238 -0.0385183 0.33870596 0.31563026 0.1793145
-0.13730188 0.16132958 -0.12949143 0.2738462 -0.066805534 0.18629445 -0.27115232 0.21768516
0.2594546 0.08279716 -0.370959 0.2597388 0.22394879 0.23768926 0.12722209 -0.024927845
0.20193824 -0.13266553 -0.28651956 0.029650291 0.21766357 0.29736826 0.055668898 -0.035609588
-0.1909777 0.1934701 0.109169275 0.24591 0.26289523 0.23017594 0.3328641 0.18776774
0.17066605 0.28467742 -0.0243186 0.07353832 -0.09786681 0.3030477 0.32635745 -0.06667907
0.33003333 -0.17791837 0.056242783 -0.06306063 -0.21059139 0.26657364 -0.041511472 0.069877855
0.17855543 -0.08529556 -0.12754597 -0.16024218 0.24327306 -0.09173032 0.22303163 0.1883774
00000000: ea11 4c3e 8643 513c 9149 a43d 14ca 5e3e
00000010: 5832 083d 796b 3d3d 255d 3fbd 9f42 ca3d
00000020: a93d 71bd 8ab5 67bd fadb bd3b 435f 92bd
00000030: 6ccf 54bd 1460 563e 79ee 383e 9208 133e
00000040: 4fd7 1abb 44e7 723d b600 24bd f9af 3a3c
00000050: 4816 fdbd e1b1 81bd 026a 0cbe c736 74bd
00000060: 8b5e 533c 6f55 01be 8509 943d 3250 873e
00000070: 9475 663d 3b09 2f3d f4f3 163e b2e9 533e
00000080: aea3 2cbd 6d61 933e 21a6 5bbe 9aa3 793e
00000090: c218 bbbd f9d0 99bc a39e b13c fb09 38bd
000000a0: d150 74bd 3d49 c13d 2da6 903e 32e8 ba3d
000000b0: adec 153e 5db2 3abe ff41 a1bd c4ab 52be
000000c0: 812c dd3d 5bac 9bbd c2a5 ab3d f00d 10be
000000d0: ed86 50be d453 a53d 90c3 3fbe bf67 03bd
000000e0: 5f05 7ebc 780c b53d fe13 3d3e fddb 5cbc
000000f0: 5c2b 2abe d1bd 5a3e f57c 783d eb79 7dbc
00000100: d74f 48bd 9571 38be e5f8 38be 598e 833d
00000110: e831 0f3d 57e3 223e 3945 8d3d a2a1 843e
00000120: 86aa 2bbe 1bf2 263e 96f1 10be 6919 28be
00000130: 0e20 e3bc b937 573d b099 1ebd c1d9 513d
00000140: 9802 cbbd be8e 24be 93bd 543e efcc dfbd
00000150: 2f62 4c3e 899c 323d 714f ac3d e763 fcbb
00000160: 04c1 df3d b8cc b53d 6a31 583d 9f49 33be
00000170: cb08 c6bd 36ef 843e d3a3 dbbd f784 83bd
00000180: 5585 05be e6bb 4d3e e6c7 093d 062b ae3d
00000190: 6d93 3ebe fb7a 763e 6f92 283b 23fe 8f3b
000001a0: e1a4 673e f5c0 95bd a294 8cbd 30f3 10be
000001b0: be27 b33e 0b7a 02be 7e55 593e 7e9a 1c3e
000001c0: c8fc be3d 8ebb 833d 2f94 8c3e 5bb7 943d
000001d0: a903 5abe 6ac1 2abe 33ed 923e 18b7 9ebd
000001e0: d606 45be 2483 9abe 9b3d ecbd f147 ca3d
000001f0: 5cb5 13be 4883 01be 5bfa e73c 7e68 2d3e
00000200: 48b1 20bd bdfd 27be a3de f2bd 6bfa 353e
00000210: a562 86bd 80da 2abe 3db1 6e3e 9f22 043e
00000220: 6615 16be d9e8 bbbd 3d16 0f3e 87ca 41be
00000230: 17b5 23be 4a29 113d 5a43 d63b e22c de3d
00000240: 6194 acbd 6784 5d3e c111 c5bd 30d5 a5bd
00000250: 9d85 143e 692e 3fbe 739f 22be f217 cf3d
00000260: 3c93 8c3e 7efb 11be 9397 1cbe 1d4f 3d3d
00000270: 78cc 26be 6ccb 12be 198f 323e ad14 963e
00000280: f06d 903e caa5 3cbe 680f 773e 32a6 87bd
00000290: 26c9 733e 10f0 153e 5d0a 9f3e 2024 483e
000002a0: d03d 943e 94e7 7d3e 18e1 d53d b21c e5bd
000002b0: ff61 a23e a79f 49be f570 dcbd 7c02 853e
000002c0: dd75 f3bd 087b 01be c0a9 98be 8786 433e
000002d0: b5ce 543e 84e0 e53d 78ad d5bd c4fc d63c
000002e0: 46c2 863e 4def 0d3e 6038 183e 6e83 913e
000002f0: ef5a febc 5df8 63be 4403 9c3e 8155 2a3e
00000300: 2727 5f3e cac4 adbd 391e 08be 2786 1a3e
00000310: 5dc5 1dbd de6a ad3e 4a9a a13e 389e 373e
00000320: dd98 0cbe 9533 253e 6799 04be 9235 8c3e
00000330: 57d1 88bd f9c3 3e3e 7ad4 8abe dce8 5e3e
00000340: 3cd7 843e 8f91 a93d 57ee bdbe 7cfc 843e
00000350: d552 653e d064 733e 8246 023e 7b35 ccbc
00000360: e6c8 4e3e 79d9 07be b1b2 92be 2be5 f23c
00000370: 33e3 5e3e a740 983e 1205 643d 5cdb 11bd
00000380: a88f 43be 071d 463e 2494 df3d d5cf 7b3e
00000390: 349a 863e 3eb3 6b3e 2a6d aa3e 3046 403e
000003a0: 15c3 2e3e 3dc1 913e cd37 c7bc 429b 963d
000003b0: 656e c8bd 1129 9b3e 5318 a73e 098f 88bd
000003c0: 21fa a83e 3c30 36be d55e 663d ee25 81bd
000003d0: 45a5 57be 577c 883e ef07 2abd 1f1c 8f3d
000003e0: 3cd7 363e 70af aebd 699b 02be 8716 24be
000003f0: 931c 793e 1bdd bbbd 6762 643e 01e6 403e
