Lab3/MLP.tflite (tflite, 75356 bytes, 5 tensors)

dense_4/bias f4 [128]
00000000: 9178 a53e b92a 1fbc 54ca a33e aa4e 073d
00000010: 9af6 7dbc 9391 c1bc 1a04 9e3e d27c b13e
00000020: 3cb7 3ebd 34a6 a43e 741e aa3e 737d 7fbc
00000030: 94f3 a73e c4a2 15bd 95d7 953e d80e dcbc
00000040: be11 a33e 386f c03d eae6 c8bc 25de a33e
00000050: 5343 a43e 4d59 a1bc e366 8cbc 3ccb a83e
00000060: 9118 a63e bafc 61bc 9520 a43e 4970 a43e
00000070: 673f a73e 01ee a33e 2647 ad3e 1b2a 20bd
00000080: ba88 31bd 1bb3 a33e eb28 10bc 8436 a53e
00000090: 9170 51bc f086 a43e 49b0 ad3e 05ab 31bd
000000a0: 98d4 52bc b153 9fbc 27a5 8abc e09c a23e
000000b0: ebf2 a63e ee30 a63e a8f9 ab3e 2291 8a3e
000000c0: 70e3 5dbc 5df8 11bd e14d a43e 8c9a a13e
000000d0: 9a96 a23e af74 71bc a845 93bc 115b 3dbc
000000e0: bf0f 95bd efa8 cabc e59f a33e a21b 17bd
000000f0: 070a a83e 2b86 a33e 8135 80bc 84fc a33e
00000100: aab4 aa3e cf36 afbc 1453 5bbc d6a7 af3e
00000110: 03e7 a2bc b9f4 98bc fa41 a23e b3b2 a83e
00000120: 36ff 55bc aae7 a53e 0000 0000 c5bd c7bc
00000130: 6bef f2bc 03ce ad3e 0284 a83e 2716 aa3e
00000140: 5784 ab3e 29e1 aa3e b100 aa3e 0000 0000
00000150: 26b3 a73e f434 1dbd 301a 50bd 804d 8abc
00000160: 823d aa3e 96e3 a73e 574e ae3e 1615 ffbc
00000170: 6f28 7dbc 8f77 42bc 8eb1 e9bc db32 17bd
00000180: 73ce a23e b652 ac3e ce4e dbbc 220c ae3e
00000190: 0c66 ccbc a71b a43e 0ef8 e2bc b9b3 5dbc
000001a0: d476 b2bc 9c40 0dbc 77cf a8bc 9781 e2bc
000001b0: 86bb 1b3e 86c9 b13e b6fc a63e 6325 b6bb
000001c0: e312 5ebc 3176 a23e fc13 8abc 8d12 49bc
000001d0: 74d5 b23e 2819 8abc 0ec3 b73e beb6 a33e
000001e0: 0000 0000 345a a63e b34d b9bc bb4a a43e
000001f0: 13cd ac3e 66c1 48bd d087 94bc 45c7 c1bc
0.32318547 -0.009714776 0.31990302 0.033034004 -0.015500689 -0.023628986 0.30862504 0.34665543
-0.046561465 0.32158053 0.3322636 -0.015593874 0.32803023 -0.03653218 0.2926604 -0.026862547
0.31849474 0.09396213 -0.02452417 0.3200542 0.32082614 -0.019695902 -0.017138904 0.32967556
0.32440618 -0.013793165 0.32056108 0.32116917 0.3266556 0.3201752 0.33843344 -0.039102655
-0.043343283 0.31972584 -0.008798818 0.32268155 -0.012783186 0.321342 0.33923557 -0.043375988
-0.012868069 -0.019449087 -0.016924454 0.3176031 0.32607207 0.32459205 0.3358891 0.27063853
-0.013542995 -0.03563725 0.32090667 0.31563222 0.31755525 -0.014737292 -0.01797755 -0.011557356
-0.07278394 -0.024738757 0.31957927 -0.036891587 0.3282015 0.319383 -0.015650513 0.32028592
0.3334096 -0.02138844 -0.013386507 0.34307736 -0.019885546 -0.01867138 0.3169096 0.32948837
-0.013061335 0.32403308 0.0 -0.024382481 -0.029655179 0.33946237 0.32913214 0.33220026
0.33499405 0.3337491 0.33203653 0.0 0.32753867 -0.03838058 -0.050806224 -0.016882658
0.33250052 0.32790822 0.34044144 -0.031137984 -0.015451535 -0.011869325 -0.028527047 -0.036913734
0.31798133 0.33656853 -0.026770975 0.33993632 -0.024951003 0.32052347 -0.027706172 -0.013531619
-0.021785177 -0.008621361 -0.02060674 -0.027649684 0.15208253 0.34724063 0.32614678 -0.005558656
-0.013554308 0.31730798 -0.016855232 -0.012272489 0.34928477 -0.016857699 0.35891002 0.3197536
0.0 0.32490695 -0.022620058 0.32088265 0.3375021 -0.049012564 -0.018131167 -0.02365459

dense_3/bias f4 [128]
00000000: 866e dd3d 2c52 9b3e ca79 793d 7183 f33d
00000010: 5144 ce3e 9cab cf3d aa79 243e fe35 8a3e
00000020: e124 963e d03f 8b3e 5bda c93d f8bc d03e
00000030: d4c6 cf3d e375 b63e b32b a73d b5b9 943e
00000040: d436 fb3c f1e9 863e 7a72 ad3e 3773 693e
00000050: f83c 983e 05d6 6f3e 5478 813e 9602 8f3e
00000060: 32e4 ca3e 105d ba3e a9ec 023e dba0 9d3e
00000070: 6be1 6e3e 6474 c63e 5421 553e 6d54 873e
00000080: d4dd c63d 58e0 653e c34a 27bc 37a0 c13d
00000090: 7528 373e e16b 8d3e 4f95 4e3e bbab 8c3e
000000a0: 797c ea3d dcea a03e 5e8b 903d 2249 a73e
000000b0: 7de4 c93e 5f4a ff3c 2f03 df3e a1ff 0d3e
000000c0: bdf2 963e df05 f53d babe cb3d 444c 913e
000000d0: 0359 593e 9194 6d3d ab58 f43d 90a2 453e
000000e0: 84f5 80ba 975d 063d 69fd 973e b414 003d
000000f0: c3b7 e13d 5278 e53d 9f19 8b3e c8f5 093e
00000100: 36aa c43d dacb 933e 99aa 8c3e a4cd ff3d
00000110: 4fc2 e5bb cc9a f53d b92a 9a3e 4dff 433e
00000120: 8041 943e b8a3 9c3d 1327 d33e 7eeb fd3d
00000130: faf4 d03e 1fda 993d 5f22 013e a78c 12bd
00000140: 936d a83e 5421 d23e 69cd 893e 91d0 783e
00000150: 36c2 373e 57d2 3c3d e5a8 ae3e fa3b 963e
00000160: e8a8 c13d 382e 593e b1b8 d73d bf49 dd3d
00000170: 9070 483d ff48 f43d 374c e93d 2fb1 fe3d
00000180: c667 c13e 5e68 e13d 6cef d33d 8117 593e
00000190: 12e3 913e fa56 3a3e 7263 fc3d 6774 c33d
000001a0: aa3f 693e 5506 7e3e f57a dd3d 0f77 a83d
000001b0: 1128 963e ad92 283e eaaa 5e3e 4a16 2c3e
000001c0: e909 743e b79e f63d df91 9a3e 8414 2c3e
000001d0: 967b b53e 3165 7e3e 0c16 003e d8fe 3c3e
000001e0: d5db 5e3e a611 ce3d a61f 673e 3806 963e
000001f0: c4c2 973e 6da1 8c3e 5417 9e3e c8f2 873e
0.10812096 0.3033613 0.060907163 0.11890305 0.40286496 0.10140154 0.16062036 0.26994318
0.2932501 0.27197123 0.09856101 0.40769172 0.10145345 0.35636815 0.08162632 0.29047933
0.030665793 0.26350358 0.338764 0.22797857 0.29734015 0.23421486 0.25287116 0.2793166
0.39627224 0.36399126 0.12785591 0.30786785 0.23328178 0.38760674 0.20813495 0.264316
0.09710279 0.22448862 -0.010210696 0.09454387 0.17886527 0.27621368 0.20174144 0.2747477
0.114495225 0.31429183 0.07057832 0.32672983 0.39432135 0.031163393 0.43557116 0.13867046
0.2948207 0.119640104 0.099484876 0.283785 0.21225362 0.058003012 0.119309746 0.19300294
-0.0009838794 0.032804098 0.29685524 0.031269744 0.11021378 0.1120459 0.27167985 0.13472664
0.09602778 0.28866464 0.27473906 0.12490395 -0.007011689 0.11992416 0.3011072 0.19140358
0.28956223 0.076484144 0.4124075 0.12398432 0.40811902 0.075123064 0.12610768 -0.035778668
0.32896098 0.41041052 0.26914528 0.24298312 0.1794518 0.046099033 0.3411323 0.29342633
0.094560444 0.21209037 0.10533274 0.108050816 0.048935473 0.119279854 0.1139149 0.12436139
0.37774485 0.110062346 0.103484005 0.21200372 0.28493553 0.18197241 0.12323655 0.09543686
0.22778192 0.24807103 0.10814468 0.082258336 0.29327443 0.16462202 0.21744886 0.16805378
0.23831905 0.12041991 0.30189416 0.16804701 0.3544585 0.24843289 0.1250841 0.1845659
0.21763547 0.1006196 0.22570667 0.2930162 0.29640782 0.27466908 0.30877173 0.26552415

sequential_1/dense_3/MatMul;sequential_1/dense_3/MatMul f4 [128, 12]
00000000: b53e 573d 7988 2d3e cec5 c8bd 0f02 cb3d
00000010: 3127 86bd 9c66 803d 4677 36be 039c 1f3e
00000020: 3885 1e3e d868 c9bc a706 9b3d c52b 213e
00000030: e5db 3c3d d38f 403e 1d65 373e 7122 d33d
00000040: 460c 4f3e 1dfe 6e3c 9273 593d 9438 043d
00000050: 37f9 91bd e059 ba3d 5082 be3d ad42 cebc
00000060: e861 553e f7c7 313e b784 7bbd ae8d 61bd
00000070: aabf 3f3d 5514 fbbc 31bb dfbd 2cb1 bd3c
00000080: 5f58 a53d 7800 573e a789 27be f331 5e3e
00000090: c4ec 0dbe 30ba 243e cbb3 a4bd dc44 093e
000000a0: 68df 86bd a9b2 06bb 30b3 16bc 1425 863e
000000b0: db92 b63c be22 f73d 8c96 f339 46ad f63d
000000c0: c7c9 103e 03e6 69bd 6e08 1cbe c7ea 8cbd
000000d0: 1027 05be 79cf 4b3e 9809 793e 5ed6 2f3e
000000e0: 6a1c 643e 2f59 7a3d 121f 833e a6aa ca3d
000000f0: 6263 193e 4ed4 643e d9a3 573d a96c 063e
00000100: 1992 1fbe ddfd 02be 2d9d 62bc 886d eabd
00000110: 8103 c53d f9be d03d cacc 27be d3ff 81bd
00000120: 19a1 033e 4809 98bc 0502 023e 7b6f 803d
00000130: 597e 07be b6df 823d 2590 19be ba43 a0bd
00000140: c8b1 b63d 7780 8f3e cb48 c33d fcf8 1f3e
00000150: c2f4 673d 614a 563d 1d43 ca3d 3d56 683e
00000160: 5677 05bd 913b 3fbd 8770 d13c 742a aebd
00000170: b4c6 053d 9a83 e2bd b8b4 64be 4a89 44be
00000180: 6326 cdbd d0a9 363e 4528 32be b205 093e
00000190: e0f0 4bbe 45b5 82bd 9061 013d adf1 51be
000001a0: c159 2a3e b0df 5fbe 0b18 4ebd 1094 a2bd
000001b0: f689 b1bc 6837 8c3d ce3e 0bbd ebf1 093e
000001c0: 573a 0a3e b06d 03be de17 1d3e 6421 cd3d
000001d0: b570 06bd 486b a8bd afa5 2dbd e525 a73d
000001e0: 9c5f f4bd d779 3e3e 135d 72bc 016d 983d
000001f0: e323 11be 4f86 433e a613 0a3d 2214 40be
00000200: 64b4 3abc 371d cabc 9fa9 24be a6b5 77bd
00000210: 80ae db3d 6019 953d dcbf d13d a721 30be
00000220: 0ee1 13be 8548 1f3e 684d 9c3d 590e 20bd
00000230: 9d25 fdbd 3539 4f3d 031b 5d3e 5a61 4a3b
00000240: 3e1a 64be e4df ba3a 4029 703d 2f62 98bc
00000250: 0693 63be 81b6 173d 225a 2f3d 306b 273e
00000260: b9c5 82be bc0b babd 6223 033e 3df2 983d
00000270: c7bd af3c b174 33bd 0e86 eabd 7c5f cc3d
00000280: 1fae c03d cb0f 2abe c81a 8fbc b6f7 d23d
00000290: 7cda aabd 3cfb 783c ccf5 023e 77d6 aabd
000002a0: 491f e13c 308b b33c 12d7 0bbe c332 493c
000002b0: a73e 50be 1dc9 eebb b9dd b23b 2cd8 153e
000002c0: b5ed 6abc ca16 21bd 5074 44be 9181 503d
000002d0: 7719 e73d 7891 473e d978 fcbd 179e 08bd
000002e0: 2180 be3d a43d 95bd 54b9 eebd c40c 3fbe
000002f0: 7382 f9bd 9dd6 8bbd 7ca4 a93d 347c f8b9
00000300: ec87 68bd 3938 e3bb 9bd6 483e ab71 f53d
00000310: 2090 02be f845 1d3e bb3c 873b 3d19 81bc
00000320: b8a2 24bd 96b3 45be d42c 333d 7302 793c
00000330: 1b50 54be 5b7d cfbd 9cd3 933d fe75 823d
00000340: 63b7 edbd 9418 41be 2632 9fbd 68c7 783d
00000350: cf0f 6bbe 1ffb dbbd 6dd6 fe3d 6507 fc3d
00000360: c0d6 973c 74ff d1bd c72a 263e cd1a 31be
00000370: 4f26 1bbc 0594 293e 7859 563e 8bb1 0a3e
00000380: c5a0 e4bd c853 543d de9f 4f3e deb4 143e
00000390: 2538 493e 202e 483d 7aae 00bc fbf2 8cbd
000003a0: fc15 5b3e 685b 60be c982 1ebe 0d0c 9d3d
000003b0: a625 cabd 079b 48bc 9664 26be c4f2 d2bd
000003c0: b644 46be 1726 ca3d 4849 043e 786c b6bd
000003d0: dd33 06bd 6464 b1bd 349e fb3d f426 b5bc
000003e0: 59f8 2bbe f93a 3ebe 8559 e0bd d5b8 db3d
000003f0: d9e1 6fbe 9aa8 dfbd 3faa c9bd 93f9 9c3c
0.052550036 0.16946591 -0.09803353 0.09912502 -0.06550444 0.06269571 -0.17818937 0.15586857
0.15480506 -0.024586126 0.07569628 0.15739353 0.046108145 0.18804865 0.17909665 0.103093036
0.20219526 0.0145869525 0.053088732 0.03228052 -0.07127612 0.090991735 0.09302199 -0.025178278
0.2083813 0.17361437 -0.061405864 -0.055066757 0.046813644 -0.030649344 -0.10924376 0.023155771
0.08073496 0.20996273 -0.16361104 0.21698742 -0.1385985 0.1608665 -0.08042105 0.13405174
-0.0658558 -0.0020553267 -0.009197995 0.26200163 0.022286823 0.120671734 0.00046460738 0.12044768
0.14139472 -0.057104122 -0.1523759 -0.06880718 -0.13003182 0.19903363 0.24320066 0.17171618
0.22276464 0.06112021 0.25609642 0.0989583 0.14979318 0.22346613 0.05264649 0.13127388
-0.15583076 -0.12792154 -0.013831419 -0.11446673 0.09619809 0.10192675 -0.16386715 -0.06347623
0.12854423 -0.018559113 0.12696083 0.06271263 -0.13231792 0.06390326 -0.14996393 -0.07825418
0.08920628 0.28027698 0.095353685 0.15622324 0.056629904 0.052317027 0.09876082 0.22689147
-0.03258451 -0.046687666 0.025566353 -0.08504191 0.0326602 -0.11060257 -0.22334564 -0.19192997
-0.10017087 0.17838216 -0.17398174 0.13381079 -0.19916105 -0.06382231 0.031587183 -0.20502348
0.16635801 -0.21862674 -0.050315898 -0.07938397 -0.02167223 0.068465054 -0.033995442 0.1347119
0.13498817 -0.12834811 0.15341136 0.100161344 -0.03282233 -0.08223587 -0.042394336 0.08161525
-0.119322985 0.18601166 -0.014792698 0.07442666 -0.14173846 0.19094203 0.033710144 -0.1875768
-0.011395548 -0.024672134 -0.1608033 -0.060475968 0.107266426 0.072802305 0.102416724 -0.17200337
-0.1444132 0.15555008 0.076319516 -0.039076183 -0.1236069 0.050591666 0.21592335 0.003088078
-0.22275636 0.0014257398 0.05863309 -0.018601505 -0.22224054 0.037039284 0.042810567 0.16349483
-0.25541475 -0.090842694 0.12806466 0.07468078 0.021452798 -0.043812457 -0.1145135 0.0997915
0.09408211 -0.16607587 -0.017468825 0.10301153 -0.08342454 0.015196618 0.12789077 -0.08341687
0.027480738 0.021916956 -0.13656262 0.012280169 -0.203364 -0.007287158 0.0054585603 0.14633244
-0.0143389 -0.039328374 -0.19184995 0.050904814 0.11284154 0.19489086 -0.12327737 -0.03335389
0.093017824 -0.07287148 -0.11656442 -0.18657213 -0.12183084 -0.068280436 0.08283326 -0.00047394785
-0.05677025 -0.0069341925 0.19613115 0.11984571 -0.12750292 0.15358722 0.0041271127 -0.015759105
-0.040194243 -0.19306788 0.043743923 0.015198338 -0.20733683 -0.101313315 0.07218096 0.063701615
-0.11607244 -0.18857032 -0.07773237 0.060737044 -0.22955249 -0.10741257 0.12443242 0.12306098
0.018535018 -0.10253802 0.16227256 -0.1729538 -0.009469583 0.16560371 0.20932567 0.1354429
-0.11163477 0.051837713 0.20275828 0.1452212 0.19650324 0.048872113 -0.007854098 -0.06882282
0.21395105 -0.21909869 -0.15479578 0.07668314 -0.09870462 -0.012243993 -0.16249308 -0.1030021
-0.19362149 0.09870546 0.1291858 -0.089074075 -0.032764304 -0.08661726 0.12286034 -0.0221133
-0.16793956 -0.18577184 -0.109545745 0.10728613 -0.23425998 -0.1092083 -0.09846925 0.019161975

sequential_1/dense_4/MatMul;sequential_1/dense_4/MatMul f4 [128, 128]
00000000: f93a 103e 5a32 693e e6fe a1bd bd5a 073e
00000010: 4878 b53d db49 6cbd 057e f73d 3a22 573c
00000020: 34b2 3b3e 674b b43d dfda e83d e722 d53c
00000030: 97e6 403d 4249 d13d 28bc 8f3d 2010 023e
00000040: 96b6 da3c dc4f 53bd 107f 793e 0a76 373e
00000050: 7126 363e ec14 b8bc 6427 15bd 67ce 95bd
00000060: 2268 ee3d 5cb9 dd3d 4021 743a e321 2d3b
00000070: 0b14 703b bc4b e03d b87a 82bd a589 a43d
00000080: 4646 263e 3d4d 0d3e dc9e 833d 9903 453e
00000090: c4ba d4bd c8c0 f4bd 7364 74bd 1b89 6abb
000000a0: 435e 81bd 4f01 9b3a 802d a93d 269e efbc
000000b0: 060c 5c3e de0f 36bd f00a 043e 30d0 483e
000000c0: 6915 09bd 0dc6 8238 c618 f2bc 91b1 273e
000000d0: 36ad ca3d 0dc1 bfbd eaf0 fe3d cd00 ea3c
000000e0: 7da4 003e df8a 63bd 8814 3ebd 3d2f b7bd
000000f0: 07e7 403c ecc1 88bd a4d6 ccbc 198d 3ebc
00000100: 1f4c 8e3c d8a5 67bd c5e4 b53d 454d 3d3e
00000110: 4f79 09be 4b2a 4e3e c328 8d3d da65 ddbd
00000120: 7b6d a7bd f52e df3d b2df fe3d 69cf b13c
00000130: 3800 263d 4c8b 9dbd 96a4 2c3a 62e9 f5bd
00000140: f8dc f63d 2630 9d3d b54c f73d 21c0 e93d
00000150: b37a 733e 48fd 9d3d e091 fa3d fcd1 323e
00000160: 7928 633d 6d8e 853d d375 60bc 0a0b d8bd
00000170: c33a e8bc 5aec 763d 825d 92bc 2fbb 33bd
00000180: 8391 f83d 90b6 4f3e 48b2 613c b4cd 5a3c
00000190: 0a98 afbd 68c8 2e3d 38ff cd3c aae6 2f3e
000001a0: 5876 163d 6fec f8bd b0fb 8ebd 3ede f23b
000001b0: 267a 71bc 0415 f5bc 4b28 013e 025a b63d
000001c0: 56cc 8b3c 1ee7 5f3e 5ab2 383e 47f0 20bd
000001d0: acb8 afbc 4960 37bc 1cd7 b33d d3cf a6bd
000001e0: f38a a73d ef62 473e 4ed1 c1bd 2cc6 213e
000001f0: 1825 c7ba c4dd 253e fb86 c73d 9d66 9c3d
00000200: babf 0d3d b732 e7bd 44b5 83bd b9a8 413a
00000210: d76e 133e a112 08bd 38bc d0bc be98 9cbd
00000220: dc86 153e 3aab f9bd 9664 2d3d 6a18 7dbd
00000230: a6a1 19be fd4d fb3d a059 30bd b4c1 4a3c
00000240: 9629 0e3e af51 993b c185 11be be52 073e
00000250: 6e1f 053d 7b09 dabd 76d5 c2bd 9c43 c63d
00000260: ba43 003b 888d b33c ddd0 5abd c0d2 133b
00000270: 445e f5bd e8bd 973d a832 a53d b2f3 8fbd
00000280: cc0a 12be d8c4 f33d bde7 ba3d b59f 20be
00000290: efeb c2bd b091 913c 9511 95bd 13e9 dcbd
000002a0: c6b6 bdbd 5023 0cbc 5f50 a13d d7ff b33d
000002b0: ee07 af3d c40d 78bd 68ae f23c bc54 0ebe
000002c0: 5045 2dbd 16f8 21bd 1792 03be fe4f 29bd
000002d0: 5f40 b4bd 233b 2e3c de47 7bbd 9a50 babd
000002e0: 11a0 ea3d 8cce 23be ec06 a7bd d5d3 6c3c
000002f0: 70ab 1abd d538 eabd 83bb bcbd 31d5 4f3d
00000300: b881 11be 4ede 9e3d fb46 9e3d a2c7 e23d
00000310: f03e 353d 0772 783d 0d60 f43c f9ed 8abd
00000320: c6d0 da3d 9924 abbd 79e5 94bd 9808 803c
00000330: 6829 e6bd 9c54 813c fb05 99bd e925 bc3d
00000340: c05e 8a3c 387e ad3c 05cd 093e 98da 493d
00000350: f689 dd3d 2eba bd3d da6a c3bd cfab b0bd
00000360: e08c dd3d 9168 ce3d b0a2 303d cd40 c43d
00000370: 0f16 8c3d c61a 84bc 1e49 903d 722d 08bd
00000380: 1f6c 8ebd f102 10be 86e3 053e 453f 043e
00000390: dc33 b5bd 369a 0c3e 4439 63bb 4746 f2bd
000003a0: fad5 873d a0bc 073d 64b8 433d 16a9 1dbd
000003b0: 87a9 04be 163e b63d 122b a43b 000c 2939
000003c0: 05d7 abbd cabf acba 10ed af3d 55ee fcbd
000003d0: d6c7 c3bd 006f be3a 4682 a0bd f8c3 18be
000003e0: 8b13 4abd 861d b43b 4a16 00be ce36 88bd
000003f0: 40f2 d7bd ebc7 03be 84b9 06be 98fe 923c
0.14084996 0.22773114 -0.07909946 0.13218208 0.088608325 -0.05768762 0.12084583 0.013130719
0.18329698 0.08803444 0.11369871 0.02601762 0.047094908 0.10219051 0.0701831 0.12701464
0.026698392 -0.05158983 0.24364877 0.17916122 0.17788102 -0.022470914 -0.03641452 -0.07314759
0.116409555 0.1082637 0.0009312816 0.0026417903 0.003663304 0.10951945 -0.06371063 0.08034066
0.16237745 0.13798995 0.064267844 0.19239654 -0.10387185 -0.119508326 -0.05966611 -0.0035787288
-0.06316807 0.0011825952 0.082606316 -0.029250216 0.21488962 -0.044448726 0.12894797 0.19610667
-0.033467684 6.235773e-05 -0.029552829 0.1637633 0.098963186 -0.093629934 0.124482945 0.028564835
0.12562747 -0.05555236 -0.0464063 -0.08944557 0.011773831 -0.06677613 -0.025004692 -0.01163032
0.017370282 -0.056554645 0.08881525 0.18486507 -0.13425182 0.20133321 0.0689254 -0.10810442
-0.081751786 0.10897628 0.1244501 0.021705346 0.040527552 -0.076925844 0.00065858045 -0.12007405
0.12053865 0.07675199 0.120751776 0.11413599 0.23777275 0.07714325 0.12234855 0.17462915
0.05545852 0.06521306 -0.0136999665 -0.105489805 -0.028348332 0.060283996 -0.017866854 -0.043879684
0.12137129 0.20284486 0.013775416 0.0133547075 -0.08573921 0.04267159 0.025146112 0.17177835
0.036733955 -0.12154471 -0.06981599 0.0074117472 -0.014738595 -0.029917248 0.12613027 0.089038864
0.017065208 0.21865508 0.18036786 -0.039291646 -0.021450363 -0.01119239 0.08781263 -0.08145108
0.08180799 0.19471334 -0.0946375 0.15798253 -0.001519355 0.16197878 0.09742542 0.076367594
0.034606673 -0.1128897 -0.06431058 0.00073875074 0.14397751 -0.03322089 -0.025480375 -0.07646321
0.14602226 -0.12190862 0.042332254 -0.06179086 -0.1500307 0.122707345 -0.043054223 0.012375284
0.13883051 0.004678927 -0.1421118 0.13215157 0.032500677 -0.106463395 -0.09513371 0.09680864
0.0019571618 0.021918073 -0.053421844 0.0022556037 -0.1198087 0.074092686 0.080663025 -0.07028903
-0.14261931 0.11902779 0.09126232 -0.15685923 -0.09517657 0.017769665 -0.07278744 -0.10786643
-0.09263377 -0.008553341 0.07876658 0.08789032 0.08546434 -0.060560003 0.029624179 -0.13899511
-0.04230243 -0.039543234 -0.12848698 -0.041336052 -0.0880134 0.0106342165 -0.061347835 -0.09097405
0.114563115 -0.1599676 -0.08155617 0.014454802 -0.03776115 -0.11436621 -0.092154525 0.050740425
-0.1420964 0.07757245 0.07728382 0.11073233 0.044249475 0.06065562 0.029830957 -0.06783671
0.106843516 -0.0835659 -0.07270331 0.015629098 -0.11238366 0.015787415 -0.07471844 0.09186918
0.016890883 0.02117835 0.13457115 0.049280733 0.108173296 0.092640266 -0.09541865 -0.0862652
0.108178854 0.10078538 0.0431239 0.09582672 0.06840145 -0.016126048 0.07045196 -0.033246465
-0.06954216 -0.14063622 0.13075075 0.1291476 -0.08847782 0.13730702 -0.0034671584 -0.118298106
0.0663261 0.03313887 0.04778327 -0.03849133 -0.12955295 0.08898561 0.005010017 0.00016121566
-0.08390621 -0.0013179716 0.08590138 -0.12350146 -0.095596 0.001452893 -0.07837348 -0.14918506
-0.049335044 0.0054966835 -0.12508503 -0.06651078 -0.105442524 -0.12869231 -0.13156706 0.017943665

sequential_1/dense_5/MatMul;sequential_1/dense_5/MatMul f4 [1, 128]
00000000: ba84 153e 782c 7ebd 56e3 993d 86ef adbb
00000010: 543c a1bd 0e77 87bb b020 a43d 2f6e 183e
00000020: 102c 1bbd c290 633e ae47 e53d b69d 8abd
00000030: feb6 583e 8bda 17be ef57 593d 7e84 9dbd
00000040: 905b 0b3e cff8 2fbb 58fd a5bc 010e 5e3e
00000050: 8b35 023e 78c1 24be aa26 48be e368 6d3d
00000060: 5069 b83d 6da1 e6bc 3df3 173e a1ce 713e
00000070: 11c8 7f3d 4ce2 753e fdef 693e 0ee1 0bbe
00000080: c266 a33c ea61 2a3e 2162 933b 6a03 613e
00000090: 5250 41be aef2 523e b722 f33d a3b8 0bbe
000000a0: 6527 01bc 0dd1 c1bd 51b4 48bd de49 913d
000000b0: 355d 483e 38e2 1b3e 98f3 603e 8bcc e23c
000000c0: 76f2 43be 4680 26be fd3f 453e be06 0e3e
000000d0: 9ef2 333e 1262 53bd 3157 0abd afae 68bd
000000e0: ec31 1fbd ca80 9ebd 3a8f 733e 1a70 afba
000000f0: 4375 f13d 72eb 4f3e 7a8a 24be b62a 4d3e
00000100: 2deb 7d3e 9986 ccbd 7b3c 16be 681e 1f3e
00000110: a3d2 91bc 6b86 21bd b982 b43d a83a 063e
00000120: 2206 a8bd 8195 c83d c55d 28be 3c74 a4bb
00000130: b46d dcbc 9aca 2b3e 946e 843d b390 893e
00000140: 1a3a 8a3e 3bf2 3f3e 7495 673d 0bfb 46be
00000150: 0575 703e d1e0 dfbb 0a6b 95bd 3aeb 2a3b
00000160: 1f92 023e fc99 1d3e f698 b93d 9410 26bc
00000170: cfed bcbd 55a4 4cbd cbc8 7abd 8164 49bc
00000180: d2ef b93d 2ba8 d63d b849 29be 75c1 913d
00000190: a892 08be a087 cd3d 9ebc 05be cc2c 39bd
000001a0: a51c 0bbd 99fa abbb 6fec bdbd 5b91 a3bd
000001b0: 32a8 343b 718c 823e df1d 103e 5d6b 4abe
000001c0: 2f45 2abe 926b 5a3e 275e 3dbe 5179 14be
000001d0: c467 ef3d 30dc 2ebd 2b2d 6f3e c436 ae3d
000001e0: 333d edbd d533 7f3e 326f b6bc 1364 5c3e
000001f0: 0c36 de3d 4bfa 5cbd 7c2d b2bd 8bb0 43bd
0.14601412 -0.062054127 0.07514064 -0.0053080944 -0.07872835 -0.0041340655 0.08014047 0.14885782
-0.03788382 0.2222319 0.111953124 -0.06768362 0.21163556 -0.14829461 0.053062376 -0.076912865
0.13609147 -0.0026851182 -0.020262405 0.2168503 0.12715738 -0.16089427 -0.19545999 0.057961356
0.09004462 -0.028153146 0.14838882 0.23613979 0.062446658 0.24012107 0.22845455 -0.1366007
0.01994646 0.16638914 0.004497782 0.21973959 -0.18878296 0.20600387 0.11871856 -0.13644652
-0.007882928 -0.094637014 -0.049000088 0.07094167 0.19566806 0.15223014 0.21967924 0.027685424
-0.1913546 -0.1625987 0.19262691 0.1386976 0.1757302 -0.0516072 -0.03377456 -0.056807216
-0.03886597 -0.07739408 0.23785105 -0.0013384849 0.11789944 0.20304659 -0.1606845 0.20035824
0.24796744 -0.0998661 -0.14671509 0.15538943 -0.017800635 -0.03943483 0.08813996 0.13108313
-0.08204295 0.097941406 -0.1644202 -0.005018739 -0.02690778 0.16776505 0.064664036 0.2686821
0.26997453 0.18744747 0.056539014 -0.19431703 0.2348214 -0.00683222 -0.07295807 0.0026080147
0.12751053 0.15390772 0.09062378 -0.0101357885 -0.09225046 -0.049961407 -0.061226647 -0.012292028
0.09078945 0.10481294 -0.16532028 0.07116977 -0.13337195 0.10035634 -0.13060233 -0.045208737
-0.033962864 -0.0052483794 -0.09273612 -0.07986709 0.0027566073 0.25497773 0.14073895 -0.19767518
-0.16627954 0.21330097 -0.18492948 -0.14499404 0.116897136 -0.042690456 0.23357074 0.085065395
-0.115839384 0.24922116 -0.022269819 0.2152255 0.108501524 -0.053949635 -0.08700082 -0.047775786
