Lab3/MLP.tflite (tflite, 22032 bytes, 6 tensors)

dense_26/bias f4 [2]
00000000: f9a9 3b3e 18c5 c33e
0.18326558 0.38236308

dense_25/bias f4 [128]
00000000: 99c6 d53c 6295 75bc b978 0ebd e7fe a83e
00000010: 647c 90bc 9932 d0bc 4444 c23e b626 b03e
00000020: eba5 86bd 2d43 50bc feff c73e d5e2 c6bc
00000030: 378a 82bc 87e9 3f3e 86bb 54bc 39c1 ac3e
00000040: b5c0 80bd a171 c33e 2619 32bd 226e 9bbc
00000050: 22ce 693e 22ac b1bc 073a 33bd 9ee0 c1bc
00000060: dc69 c83e 1135 bebc 40b4 f5bc 57b6 693e
00000070: f91c 47bc 45bb cfbc c868 b13e f481 af3e
00000080: 8306 be3e 57d8 22bd 45e8 593e c14d aa3c
00000090: 459d b43e 1a92 cc3e f1df c73e 282f c03e
000000a0: 194d c03e 56c6 bd3e 7201 8c3e acf3 9ebc
000000b0: c04e bf3e d610 8cbc ac89 bbbc 9829 743e
000000c0: d0bc 8cbc aa43 fabc 1bbc 34be 0003 8a3e
000000d0: 196d 603e 43b3 b63e 08d9 9dbc a7cd a7bc
000000e0: 9226 c83e 92f4 ac3e 67a5 a73e b6d0 c73e
000000f0: f87e d4bc 53d0 e4bd 67c4 c63e e0fd cc3e
00000100: a77e b63e 13b2 06bd 2feb b6bc c787 b93e
00000110: 2f98 35bd 39e6 c53e b834 c73e a023 b33e
00000120: 0048 15bd 3ca8 b03e 8dee 8ebc 46ac 963e
00000130: b512 57bd 67a3 c03e d2e7 9abd 5af7 c53e
00000140: 8766 ae3e f99c 10bd 1fa2 08bd 4a4c ac3e
00000150: 7965 ad3e 909a bf3e e4a1 b63e 256a b5bc
00000160: d06c b73e c006 8cbc 8aec babd 33c4 e0bc
00000170: 7829 ab3e 412a bc3e 66cf 1d3d f730 4cbc
00000180: 0000 0000 01b5 9f3e e593 b93e 562b c33e
00000190: 0908 873e 25f3 b93e c7e4 c83e d38e bf3e
000001a0: 2c80 9b3e 01f6 bc3e b75d 8bbc 4d86 a83d
000001b0: 3666 be3d f804 ae3e 68bb b93e c6f3 2fbc
000001c0: ffdb c43e 677a cdbc 3eae 943e a573 e0bb
000001d0: f40c 46be 37af 953e 1f92 063e e1c5 03bd
000001e0: 37bf 68bc 323a fbbd 4cb5 03bd d0e8 84bc
000001f0: 57e4 953e cc6c b7bc d10c c83e 75c7 a23e
0.026095675 -0.014989229 -0.0347831 0.33006975 -0.01763744 -0.025414752 0.37942708 0.34404534
-0.06574615 -0.012711328 0.39062494 -0.024278084 -0.015935047 0.18741427 -0.012984162 0.33741167
-0.06286756 0.3817263 -0.043481015 -0.018973414 0.2283254 -0.021688525 -0.04375651 -0.023666676
0.39143264 -0.023218663 -0.029993176 0.22823463 -0.012152904 -0.025357852 0.34650254 0.34278834
0.37114343 -0.0397571 0.2128001 0.02078903 0.35276237 0.39955217 0.3903804 0.37535977
0.3755882 0.3706538 0.27344853 -0.019403301 0.3736477 -0.017097872 -0.022892796 0.23843992
-0.017179877 -0.030549843 -0.17649882 0.26955414 0.21916617 0.3568364 -0.019268528 -0.020483805
0.39091927 0.33780342 0.3274338 0.3902642 -0.02593945 -0.11172547 0.38821718 0.4003744
0.35643503 -0.03288467 -0.022328941 0.36236402 -0.044334587 0.38652208 0.3890741 0.34988117
-0.036445618 0.34503353 -0.017447734 0.2942831 -0.052508075 0.37624666 -0.075637475 0.38665277
0.34062597 -0.03530595 -0.033357736 0.33651954 0.3386648 0.3742261 0.35670388 -0.02214534
0.35825205 -0.017093062 -0.091271475 -0.027437305 0.33430076 0.36750987 0.03852787 -0.012462846
0.0 0.31192783 0.36245647 0.38119 0.26373318 0.36318317 0.39237043 0.37413654
0.30371225 0.36906436 -0.01701246 0.08228741 0.09296839 0.33988166 0.36275792 -0.010739272
0.38449094 -0.02508278 0.29039186 -0.0068497234 -0.19340879 0.2923524 0.13141678 -0.032171134
-0.014205745 -0.12266959 -0.03215532 -0.016224295 0.29275772 -0.022390746 0.39072278 0.317928

dense_24/bias f4 [128]
00000000: a164 e63d ef15 ce3e fe1c db3e 92dc f33d
00000010: a75a b63e 343a e73e 7ba0 f03e e5c2 c73e
00000020: 97cf a33e e920 f63e 92af e83e 3d9e ed3e
00000030: ebad 293e aa7f a93e bc76 5c3e 3f0c cd3e
00000040: 725c dc3e 902c ad3e d926 f83d 151e f73e
00000050: 4d44 dc3e 80ad 873e 8ac2 083f cf44 ce3e
00000060: ff57 cd3e 4941 003f 2761 a13e 928c ff3e
00000070: 8543 b13e a881 f83e b021 db3e 76ac b23e
00000080: 05bd a53e 8eff dc3e bca7 fa3e dca8 d73e
00000090: 83a0 e83e 60c0 6f3e 232e 923e d4f5 e93e
000000a0: 1e99 d63e f396 e83e 1ccc da3e 3ff9 f13e
000000b0: 6838 e63e ccf0 b83e 976f e63e bb00 d53e
000000c0: 6233 cc3e 2bfe ba3e 1fdf 023f 0cda 043f
000000d0: 3955 1e3e a752 113e 1e53 fd3d 6002 663d
000000e0: da29 7e3e 42d4 6b3e 90de b63e b189 f13e
000000f0: 1d89 db3e 0978 96be b2d2 a93e 6044 74bc
00000100: b1de 543e 4c7a c53d abd0 f63e 206d fa3e
00000110: 37d5 8c3e ba9c 703d 664e 8d3e 3766 a23d
00000120: c793 e83e 52c5 d83e 0e7d c93d 5733 f93e
00000130: 5a81 f73e cc5d 6a3e bcbb a83e 8110 bf3e
00000140: 8f39 013f 3bca ad3e d8dd b83e ec6c d93e
00000150: d218 e63e f464 a33e c1ac d23e 73c8 e93e
00000160: 0916 e23e 8295 fb3e 8c5b 753e b8e4 ed3e
00000170: 02ab e93e c0d0 fc3e dcd9 da3e 9806 f03e
00000180: 4168 f23e 9783 bb3e 09da c83e d14b e63e
00000190: 6f32 883e 60ea e33e a88e 0abd 772c c03e
000001a0: 7fe6 793e f015 ccbd d909 d83e 5b8f 6f3e
000001b0: 2f70 853e bc1c 003f 6a36 dc3e 166b f13e
000001c0: 538a 813e 79c1 b43e f53d d93b 41aa be3a
000001d0: 7c0c f03e 173b f33e 01b2 eb3e 8068 e23e
000001e0: e659 fc3e 931c f13e 9f8a e33e dafe 943e
000001f0: 5d13 f83e 5a17 903e 9183 d13e 9c07 073f
0.11249662 0.4025111 0.42795557 0.11907305 0.35616037 0.45161593 0.46997437 0.3901588
0.31994316 0.48071983 0.4544645 0.4640979 0.1657025 0.33105212 0.21529669 0.40048406
0.4303928 0.3382306 0.121167846 0.48265138 0.4302086 0.26499557 0.53421843 0.40286872
0.40106198 0.5009962 0.31519434 0.49911934 0.34621826 0.4853642 0.4279914 0.34897202
0.32370773 0.43163723 0.48956096 0.42121017 0.4543496 0.23413229 0.28550825 0.45695364
0.41913694 0.45427665 0.42733848 0.47260472 0.4496491 0.36121213 0.4500701 0.4160212
0.39882952 0.3652204 0.51121706 0.51895213 0.15462197 0.14191686 0.12369369 0.05615461
0.24820653 0.23030189 0.35716677 0.47175363 0.42878047 -0.29388455 0.3316856 -0.01490888
0.20788075 0.09642467 0.48206076 0.4891138 0.2750642 0.058743216 0.27598876 0.07929652
0.45425245 0.42338043 0.098383054 0.48671982 0.48340875 0.22887343 0.3295573 0.3731728
0.5047845 0.33943352 0.36106753 0.42465913 0.4494081 0.3191296 0.41147426 0.45660743
0.44157436 0.49137503 0.23960704 0.4646356 0.4563828 0.49378014 0.4274434 0.4688003
0.47345164 0.36623833 0.39228848 0.44979718 0.26600978 0.4451475 -0.033827454 0.37533924
0.24404334 -0.09965122 0.42195013 0.2339453 0.26062152 0.50043845 0.43010265 0.47152013
0.25300846 0.35303858 0.0066297003 0.0014546589 0.46884525 0.4750602 0.46034244 0.44220352
0.49287337 0.47092113 0.44441697 0.29100686 0.48452273 0.28142816 0.4092069 0.52745986

sequential_12/dense_24/MatMul i1 [128, 12] scale=0.0034100295 zero_point=0
00000000: 0b13 c301 c8f6 0806 aff7 e32b e604 2030
00000010: e9de 1de4 ea27 2bfc 22ee cfcc 1e0b 2cde
00000020: c72e 0058 e0e4 e311 e2e5 d028 d2cd f80f
00000030: 0dd9 03ec f5dc ff49 d7e0 1c2a 0602 1cc3
00000040: 22e8 0009 0528 b65d 2e0e d13e dcd2 f3e3
00000050: 25fa 050e d920 dc03 0d08 2ed3 45db 5932
00000060: 3d08 f5f2 d5ed d515 19d7 ea35 3e0a eb14
00000070: 0dcd c702 062d e0fb e1c9 2625 d513 3135
00000080: 32df c0ec 0f29 d134 39d8 0fe5 efca f84f
00000090: 05ef 3bfb 3312 4148 fee1 2815 29fc eb05
000000a0: 2ee0 ea25 d0ef cd01 e817 0b2b db2c 0223
000000b0: 2530 283e ec17 cad9 29e0 0417 0b01 4616
000000c0: e6f6 cbf9 091d 22c9 f33d 24fe 0510 1b02
000000d0: f1cf 20f1 e320 c81b 2518 2419 e928 cddd
000000e0: f8f0 fe09 c9f3 c6e7 3625 1fdd 0ff4 ef46
000000f0: 10df e9de 3026 0f28 ed19 04f4 d2fa 112e
0.037510324 0.06479056 -0.20801179 0.0034100295 -0.19096164 -0.034100294 0.027280236 0.020460177
-0.2762124 -0.030690266 -0.098890856 0.14663127 -0.08866077 0.013640118 0.10912094 0.16368142
-0.078430675 -0.115941 0.098890856 -0.09548082 -0.07502065 0.13299115 0.14663127 -0.013640118
0.115941 -0.06138053 -0.16709144 -0.17732154 0.10230088 0.037510324 0.1500413 -0.115941
-0.19437169 0.15686135 0.0 0.3000826 -0.10912094 -0.09548082 -0.098890856 0.0579705
-0.10230088 -0.092070796 -0.16368142 0.13640118 -0.15686135 -0.1739115 -0.027280236 0.05115044
0.044330385 -0.13299115 0.010230089 -0.06820059 -0.037510324 -0.12276106 -0.0034100295 0.24893215
-0.1398112 -0.10912094 0.09548082 0.14322124 0.020460177 0.006820059 0.09548082 -0.20801179
0.115941 -0.08184071 0.0 0.030690266 0.017050147 0.13640118 -0.2523422 0.31713274
0.15686135 0.04774041 -0.16027139 0.21142183 -0.12276106 -0.15686135 -0.044330385 -0.098890856
0.1261711 -0.020460177 0.017050147 0.04774041 -0.13299115 0.10912094 -0.12276106 0.010230089
0.044330385 0.027280236 0.15686135 -0.15345132 0.23529203 -0.1261711 0.30349264 0.17050147
0.20801179 0.027280236 -0.037510324 -0.04774041 -0.14663127 -0.06479056 -0.14663127 0.07161062
0.085250735 -0.1398112 -0.07502065 0.18073156 0.21142183 0.034100294 -0.07161062 0.06820059
0.044330385 -0.1739115 -0.19437169 0.006820059 0.020460177 0.15345132 -0.10912094 -0.017050147
-0.105710916 -0.18755162 0.12958112 0.1261711 -0.14663127 0.06479056 0.16709144 0.18073156
0.17050147 -0.11253097 -0.21824189 -0.06820059 0.05115044 0.1398112 -0.16027139 0.17732154
0.19437169 -0.13640118 0.05115044 -0.092070796 -0.0579705 -0.18414159 -0.027280236 0.26939234
0.017050147 -0.0579705 0.20119174 -0.017050147 0.1739115 0.06138053 0.22165191 0.24552213
-0.006820059 -0.105710916 0.13640118 0.07161062 0.1398112 -0.013640118 -0.07161062 0.017050147
0.15686135 -0.10912094 -0.07502065 0.1261711 -0.16368142 -0.0579705 -0.1739115 0.0034100295
-0.08184071 0.078430675 0.037510324 0.14663127 -0.1261711 0.1500413 0.006820059 0.11935103
0.1261711 0.16368142 0.13640118 0.21142183 -0.06820059 0.078430675 -0.18414159 -0.13299115
0.1398112 -0.10912094 0.013640118 0.078430675 0.037510324 0.0034100295 0.23870206 0.07502065
-0.08866077 -0.034100294 -0.18073156 -0.023870206 0.030690266 0.098890856 0.115941 -0.18755162
-0.044330385 0.20801179 0.12276106 -0.006820059 0.017050147 0.05456047 0.092070796 0.006820059
-0.05115044 -0.16709144 0.10912094 -0.05115044 -0.098890856 0.10912094 -0.19096164 0.092070796
0.1261711 0.08184071 0.12276106 0.085250735 -0.078430675 0.13640118 -0.1739115 -0.11935103
-0.027280236 -0.05456047 -0.006820059 0.030690266 -0.18755162 -0.044330385 -0.19778171 -0.085250735
0.18414159 0.1261711 0.105710916 -0.11935103 0.05115044 -0.040920354 -0.0579705 0.23870206
0.05456047 -0.11253097 -0.078430675 -0.115941 0.16368142 0.12958112 0.05115044 0.13640118
-0.06479056 0.085250735 0.013640118 -0.040920354 -0.15686135 -0.020460177 0.0579705 0.15686135

sequential_12/dense_25/MatMul i1 [128, 128] scale=0.0048613395 zero_point=0
00000000: 14ee f1d5 faf2 f42e e5e4 f7fc 02ef e514
00000010: 11d6 e3f6 f3f8 dc06 0ef7 f6e8 e6c8 e8fd
00000020: f8d2 e40f 0cf3 ecfc d0df f9f4 eee6 d6f5
00000030: efdf e9e5 0dd1 f918 defb ecf1 d907 cfee
00000040: f8d6 e4e9 0100 ce1f 09d7 ea11 d618 d8cc
00000050: d9cc ef1d f4db d1ec ecde e9fc d908 1110
00000060: c8cf 001d 091b ebfe df21 f9df fdfc e6ab
00000070: 14f5 e5f0 00f7 0913 ebde 28eb bee3 d5f5
00000080: 171d 0706 1b17 e3de 1704 e4f7 f21d fb01
00000090: e2f8 1818 f1f6 07fc 0606 e8fb 06e0 1be0
000000a0: 0a02 dd11 19f1 e01c ed11 f3fd f809 061b
000000b0: 1af9 e1f1 06e0 0be4 f806 f10c de1a fdf7
000000c0: 13e2 f3ea fcf0 0e0b fd06 eef8 f619 1d17
000000d0: 01e1 f302 fff6 19ff 18f9 f9e4 02dc 0ee1
000000e0: f3f4 07e7 ff0c fd00 060a 14ec 10e6 e1e6
000000f0: ebf6 e3fa e413 0010 dff9 1607 f2ed f317
0.09722679 -0.08750411 -0.07292009 -0.2090376 -0.029168036 -0.06805875 -0.05833607 0.22362162
-0.13125616 -0.1361175 -0.043752056 -0.019445358 0.009722679 -0.08264277 -0.13125616 0.09722679
0.08264277 -0.20417626 -0.14097884 -0.048613396 -0.06319741 -0.038890716 -0.17500822 0.029168036
0.06805875 -0.043752056 -0.048613396 -0.11667214 -0.12639482 -0.272235 -0.11667214 -0.014584018
-0.038890716 -0.22362162 -0.1361175 0.07292009 0.05833607 -0.06319741 -0.09722679 -0.019445358
-0.23334429 -0.1604242 -0.034029376 -0.05833607 -0.08750411 -0.12639482 -0.20417626 -0.053474735
-0.08264277 -0.1604242 -0.11181081 -0.13125616 0.06319741 -0.22848296 -0.034029376 0.11667214
-0.16528554 -0.024306698 -0.09722679 -0.07292009 -0.18959224 0.034029376 -0.23820563 -0.08750411
-0.038890716 -0.20417626 -0.1361175 -0.11181081 0.0048613395 0.0 -0.24306697 0.15070152
0.043752056 -0.19931492 -0.10694947 0.08264277 -0.20417626 0.11667214 -0.19445358 -0.25278965
-0.18959224 -0.25278965 -0.08264277 0.14097884 -0.05833607 -0.17986956 -0.22848296 -0.09722679
-0.09722679 -0.16528554 -0.11181081 -0.019445358 -0.18959224 0.038890716 0.08264277 0.07778143
-0.272235 -0.23820563 0.0 0.14097884 0.043752056 0.13125616 -0.10208813 -0.009722679
-0.1604242 0.1604242 -0.034029376 -0.1604242 -0.014584018 -0.019445358 -0.12639482 -0.41321385
0.09722679 -0.053474735 -0.13125616 -0.07778143 0.0 -0.043752056 0.043752056 0.09236545
-0.10208813 -0.16528554 0.19445358 -0.10208813 -0.3208484 -0.14097884 -0.2090376 -0.053474735
0.11181081 0.14097884 0.034029376 0.029168036 0.13125616 0.11181081 -0.14097884 -0.16528554
0.11181081 0.019445358 -0.1361175 -0.043752056 -0.06805875 0.14097884 -0.024306698 0.0048613395
-0.14584018 -0.038890716 0.11667214 0.11667214 -0.07292009 -0.048613396 0.034029376 -0.019445358
0.029168036 0.029168036 -0.11667214 -0.024306698 0.029168036 -0.15556286 0.13125616 -0.15556286
0.048613396 0.009722679 -0.17014688 0.08264277 0.12153348 -0.07292009 -0.15556286 0.1361175
-0.09236545 0.08264277 -0.06319741 -0.014584018 -0.038890716 0.043752056 0.029168036 0.13125616
0.12639482 -0.034029376 -0.15070152 -0.07292009 0.029168036 -0.15556286 0.053474735 -0.1361175
-0.038890716 0.029168036 -0.07292009 0.05833607 -0.16528554 0.12639482 -0.014584018 -0.043752056
0.09236545 -0.14584018 -0.06319741 -0.10694947 -0.019445358 -0.07778143 0.06805875 0.053474735
-0.014584018 0.029168036 -0.08750411 -0.038890716 -0.048613396 0.12153348 0.14097884 0.11181081
0.0048613395 -0.15070152 -0.06319741 0.009722679 -0.0048613395 -0.048613396 0.12153348 -0.0048613395
0.11667214 -0.034029376 -0.034029376 -0.1361175 0.009722679 -0.17500822 0.06805875 -0.15070152
-0.06319741 -0.05833607 0.034029376 -0.12153348 -0.0048613395 0.05833607 -0.014584018 0.0
0.029168036 0.048613396 0.09722679 -0.09722679 0.07778143 -0.12639482 -0.15070152 -0.12639482
-0.10208813 -0.048613396 -0.14097884 -0.029168036 -0.1361175 0.09236545 0.0 0.07778143
-0.1604242 -0.034029376 0.10694947 0.034029376 -0.06805875 -0.09236545 -0.06319741 0.11181081

sequential_12/dense_26/MatMul f4 [2, 128]
00000000: ea11 4c3e 8643 513c 9149 a43d 14ca 5e3e
00000010: 5832 083d 796b 3d3d 255d 3fbd 9f42 ca3d
00000020: a93d 71bd 8ab5 67bd fadb bd3b 435f 92bd
00000030: 6ccf 54bd 1460 563e 79ee 383e 9208 133e
00000040: 4fd7 1abb 44e7 723d b600 24bd f9af 3a3c
00000050: 4816 fdbd e1b1 81bd 026a 0cbe c736 74bd
00000060: 8b5e 533c 6f55 01be 8509 943d 3250 873e
00000070: 9475 663d 3b09 2f3d f4f3 163e b2e9 533e
00000080: aea3 2cbd 6d61 933e 21a6 5bbe 9aa3 793e
00000090: c218 bbbd f9d0 99bc a39e b13c fb09 38bd
000000a0: d150 74bd 3d49 c13d 2da6 903e 32e8 ba3d
000000b0: adec 153e 5db2 3abe ff41 a1bd c4ab 52be
000000c0: 812c dd3d 5bac 9bbd c2a5 ab3d f00d 10be
000000d0: ed86 50be d453 a53d 90c3 3fbe bf67 03bd
000000e0: 5f05 7ebc 780c b53d fe13 3d3e fddb 5cbc
000000f0: 5c2b 2abe d1bd 5a3e f57c 783d eb79 7dbc
00000100: d74f 48bd 9571 38be e5f8 38be 598e 833d
00000110: e831 0f3d 57e3 223e 3945 8d3d a2a1 843e
00000120: 86aa 2bbe 1bf2 263e 96f1 10be 6919 28be
00000130: 0e20 e3bc b937 573d b099 1ebd c1d9 513d
00000140: 9802 cbbd be8e 24be 93bd 543e efcc dfbd
00000150: 2f62 4c3e 899c 323d 714f ac3d e763 fcbb
00000160: 04c1 df3d b8cc b53d 6a31 583d 9f49 33be
00000170: cb08 c6bd 36ef 843e d3a3 dbbd f784 83bd
00000180: 5585 05be e6bb 4d3e e6c7 093d 062b ae3d
00000190: 6d93 3ebe fb7a 763e 6f92 283b 23fe 8f3b
000001a0: e1a4 673e f5c0 95bd a294 8cbd 30f3 10be
000001b0: be27 b33e 0b7a 02be 7e55 593e 7e9a 1c3e
000001c0: c8fc be3d 8ebb 833d 2f94 8c3e 5bb7 943d
000001d0: a903 5abe 6ac1 2abe 33ed 923e 18b7 9ebd
000001e0: d606 45be 2483 9abe 9b3d ecbd f147 ca3d
000001f0: 5cb5 13be 4883 01be 5bfa e73c 7e68 2d3e
00000200: 48b1 20bd bdfd 27be a3de f2bd 6bfa 353e
00000210: a562 86bd 80da 2abe 3db1 6e3e 9f22 043e
00000220: 6615 16be d9e8 bbbd 3d16 0f3e 87ca 41be
00000230: 17b5 23be 4a29 113d 5a43 d63b e22c de3d
00000240: 6194 acbd 6784 5d3e c111 c5bd 30d5 a5bd
00000250: 9d85 143e 692e 3fbe 739f 22be f217 cf3d
00000260: 3c93 8c3e 7efb 11be 9397 1cbe 1d4f 3d3d
00000270: 78cc 26be 6ccb 12be 198f 323e ad14 963e
00000280: f06d 903e caa5 3cbe 680f 773e 32a6 87bd
00000290: 26c9 733e 10f0 153e 5d0a 9f3e 2024 483e
000002a0: d03d 943e 94e7 7d3e 18e1 d53d b21c e5bd
000002b0: ff61 a23e a79f 49be f570 dcbd 7c02 853e
000002c0: dd75 f3bd 087b 01be c0a9 98be 8786 433e
000002d0: b5ce 543e 84e0 e53d 78ad d5bd c4fc d63c
000002e0: 46c2 863e 4def 0d3e 6038 183e 6e83 913e
000002f0: ef5a febc 5df8 63be 4403 9c3e 8155 2a3e
00000300: 2727 5f3e cac4 adbd 391e 08be 2786 1a3e
00000310: 5dc5 1dbd de6a ad3e 4a9a a13e 389e 373e
00000320: dd98 0cbe 9533 253e 6799 04be 9235 8c3e
00000330: 57d1 88bd f9c3 3e3e 7ad4 8abe dce8 5e3e
00000340: 3cd7 843e 8f91 a93d 57ee bdbe 7cfc 843e
00000350: d552 653e d064 733e 8246 023e 7b35 ccbc
00000360: e6c8 4e3e 79d9 07be b1b2 92be 2be5 f23c
00000370: 33e3 5e3e a740 983e 1205 643d 5cdb 11bd
00000380: a88f 43be 071d 463e 2494 df3d d5cf 7b3e
00000390: 349a 863e 3eb3 6b3e 2a6d aa3e 3046 403e
000003a0: 15c3 2e3e 3dc1 913e cd37 c7bc 429b 963d
000003b0: 656e c8bd 1129 9b3e 5318 a73e 098f 88bd
000003c0: 21fa a83e 3c30 36be d55e 663d ee25 81bd
000003d0: 45a5 57be 577c 883e ef07 2abd 1f1c 8f3d
000003e0: 3cd7 363e 70af aebd 699b 02be 8716 24be
000003f0: 931c 793e 1bdd bbbd 6762 643e 01e6 403e
0.19928709 0.0127724465 0.08021844 0.21756774 0.033251137 0.046245072 -0.04671969 0.09875988
-0.058896694 -0.056569614 0.0057940455 -0.07147076 -0.051955625 0.20935088 0.1805972 0.14358738
-0.002362687 0.059302583 -0.04003974 0.011394494 -0.123577654 -0.06332756 -0.13712314 -0.059622552
0.012900959 -0.12630247 0.07228378 0.26428372 0.056264475 0.042733412 0.14741498 0.20694616
-0.042148285 0.28785267 -0.21450092 0.24378815 -0.091355816 -0.018776404 0.02168209 -0.044931393
-0.059647385 0.09437797 0.28251782 0.09126319 0.14641066 -0.18232103 -0.07873916 -0.20573336
0.10799504 -0.076012336 0.08381225 -0.14067817 -0.2036397 0.080726296 -0.18726945 -0.03208136
-0.01550421 0.08840269 0.18464658 -0.013480184 -0.16618103 0.21361472 0.060666043 -0.015470962
-0.048904266 -0.18012078 -0.18063696 0.06423635 0.034959704 0.15907036 0.06897969 0.25904566
-0.16764268 0.16303293 -0.14154658 -0.16415943 -0.027725246 0.052543376 -0.038720787 0.051233057
-0.09912604 -0.16070077 0.20775442 -0.1092776 0.19959329 0.043606315 0.0841359 -0.007702339
0.10925487 0.08876938 0.0527815 -0.17508553 -0.09669646 0.25963753 -0.10724606 -0.064218454
-0.13039143 0.20091209 0.033637904 0.085043 -0.18610926 0.24070351 0.0025722047 0.004394309
0.2262149 -0.07312194 -0.06864287 -0.14155269 0.34991258 -0.12741868 0.21224019 0.15293309
0.09325558 0.064322576 0.27456805 0.07261535 -0.21290459 -0.16675344 0.28696594 -0.07749766
-0.19240889 -0.30178177 -0.11535188 0.09877003 -0.14424652 -0.12647736 0.028317621 0.16934392
-0.03923157 -0.16405387 -0.11858871 0.17771308 -0.06561784 -0.16684914 0.23309799 0.12903832
-0.146566 -0.091752715 0.13973327 -0.18924914 -0.15987049 0.035439767 0.0065387907 0.108484045
-0.084267385 0.21632539 -0.09622527 -0.08097303 0.14504094 -0.18670048 -0.15881138 0.10111989
0.2745608 -0.14256093 -0.15292196 0.046218026 -0.16288936 -0.14335412 0.174374 0.2931265
0.28208876 -0.18422619 0.24126971 -0.06623496 0.23807201 0.14642358 0.31062594 0.1954503
0.2895341 0.24795371 0.10443324 -0.11187114 0.3171539 -0.19689809 -0.10763732 0.25978458
-0.11887715 -0.12644589 -0.2981701 0.19094287 0.20781977 0.112244636 -0.10433477 0.026243575
0.26320094 0.13860817 0.14865255 0.28420585 -0.03104922 -0.22262712 0.3047124 0.1663418
0.21792279 -0.084848 -0.13292779 0.15090238 -0.0385183 0.33870596 0.31563026 0.1793145
-0.13730188 0.16132958 -0.12949143 0.2738462 -0.066805534 0.18629445 -0.27115232 0.21768516
0.2594546 0.08279716 -0.370959 0.2597388 0.22394879 0.23768926 0.12722209 -0.024927845
0.20193824 -0.13266553 -0.28651956 0.029650291 0.21766357 0.29736826 0.055668898 -0.035609588
-0.1909777 0.1934701 0.109169275 0.24591 0.26289523 0.23017594 0.3328641 0.18776774
0.17066605 0.28467742 -0.0243186 0.07353832 -0.09786681 0.3030477 0.32635745 -0.06667907
0.33003333 -0.17791837 0.056242783 -0.06306063 -0.21059139 0.26657364 -0.041511472 0.069877855
0.17855543 -0.08529556 -0.12754597 -0.16024218 0.24327306 -0.09173032 0.22303163 0.1883774
